algorithm/pytorch-ddpg-master/output/ParallelCableDrivenRobot-v1-run16/actor.pkl (torch, 535943 bytes, 6 tensors)

fc1.weight f4 [400, 23]
000000 42 84 4a bd 88 e6 20 bd 20 f4 11 3c 56 38 b9 3c
       -0.049442537 -0.03928235 0.008908302 0.02260987
000010 ec 6e 16 3c f9 b0 19 3d d7 a6 af bc be ed bf 3c
       0.009181719 0.03752229 -0.02144186 0.023428794
000020 be 11 f0 3c 71 6c 06 3d a8 14 c6 bb 16 8c 26 bd
       0.029305335 0.03281826 -0.006044943 -0.04066094
000030 cd 2b 03 3d 4c 7b 5f 3c 96 df ed 3c 39 83 23 3d
       0.032024194 0.013640236 0.029037278 0.039920066
000040 59 ad 48 3d 8c 04 5c bc 96 db 88 bc 36 9e f6 3c
       0.048993442 -0.013428818 -0.01670627 0.030104738
000050 ac 13 1e 3c 2c 11 56 bc 83 e9 b4 bc a0 6b e4 ba
       0.009648245 -0.0130656175 -0.022084003 -0.0017427094
000060 71 19 47 3d 40 60 33 3c 2b 07 2c bd 80 7c 8b bc
       0.048608247 0.010948241 -0.041999023 -0.01702714
000070 e0 9c 35 bd 7f 9e 08 3d 22 3d ad 3c 35 d5 0f 3d
       -0.04433906 0.03335428 0.021147314 0.03511544
000080 33 a6 41 bd 7e 58 11 bd 7e ee 0e bd f5 5e 2d 3d
       -0.04727764 -0.035484783 -0.034895413 0.042326886
000090 81 16 3d 3d 61 77 3c 3d f3 b7 4b bd 80 e9 32 3b
       0.04616404 0.046012286 -0.049735975 0.0027299821
0000a0 25 5c 37 3d 2f 79 44 3d 5a 11 d9 bc b7 fe a8 bc
       0.04476561 0.047967132 -0.026497532 -0.02062927
0000b0 f4 1e 79 3c 5f 81 30 3d 04 15 82 bc 9d be fc bc
       0.015205134 0.043092128 -0.015879162 -0.03085261
0000c0 2a 5d ae 3c b7 1c 4b 3d 1a 94 c1 3c 9f 22 42 3d
       0.021284658 0.04958793 0.02363019 0.0473963
0000d0 2a 34 b0 3c fa 6e a8 3c 92 c6 f2 3c 16 5b 10 bd
       0.021509249 0.02056073 0.029635701 -0.035243116
0000e0 6e 36 07 bd 07 3c 35 3d 39 45 3a 3d d7 7b 12 3d
       -0.033010893 0.0442467 0.045476172 0.035762634
0000f0 e0 72 41 bb 96 b0 f2 3c 9b 98 20 bd 6a cb e6 3c
       -0.0029517934 0.029625218 -0.039208036 0.028173167
000100 bf 5c 09 3d 80 01 11 bb b3 a9 47 3d 92 b0 45 bd
       0.033535715 -0.0022126138 0.048745822 -0.048264094
000110 38 51 4f bc 96 98 a6 3c 50 7d 06 bb 20 37 11 bb
       -0.012653641 0.02033643 -0.002052147 -0.0022158101
000120 c0 24 c9 bb 09 01 06 3d 00 7c a0 bb 32 48 2c bd
       -0.006138414 0.03271583 -0.0048975945 -0.04206104
000130 49 42 0d 3d 38 28 41 bd c2 30 8f 3c 6d 38 48 3d
       0.034487043 -0.047157496 0.017479304 0.048881937
000140 c3 5e a4 bc d6 e7 eb 3c 60 9e 3f bd a7 0a cb bc
       -0.020064717 0.028797071 -0.046781898 -0.024785353
000150 50 4b 07 bb 62 f9 e2 3c d9 1a 1e 3d f0 72 c9 bc
       -0.0020644255 0.027706806 0.038599823 -0.02459094
000160 a6 ec 89 bc a8 29 94 bb a0 56 29 bb 80 6e 6b ba
       -0.016836476 -0.0045215674 -0.0025838986 -0.00089810044
000170 d0 19 b3 bc 34 e0 0b bc 6d f9 44 3d b0 04 78 3b
       -0.021862894 -0.008537341 0.048089433 0.003784459
000180 10 b0 98 3b d0 4e 1a bd 83 b2 a3 bc 94 2a 85 bc
       0.00465966 -0.037672818 -0.019982582 -0.016255654
000190 cb ea 07 3d 1f a2 28 3d b6 85 c7 3c d3 dc 0a 3d
       0.0331829 0.041170236 0.02435575 0.033902
0001a0 a0 ec 23 bb 53 5d 30 bd 1e 93 eb 3c 6e f2 a3 3c
       -0.0025012866 -0.04305775 0.028756674 0.02001306
0001b0 87 41 12 3d 42 93 12 bd 22 97 84 3c c9 fb 49 3d
       0.035707023 -0.035784967 0.016185347 0.049312387
0001c0 6d 08 fc bc da 5d a8 3c 99 b7 47 3d 3a db b3 3c
       -0.030765736 0.020552564 0.048759077 0.021955121
0001d0 05 b4 2a 3d bf 11 45 3d e9 df 13 3d e1 2c 19 3d
       0.041675586 0.048112627 0.03610221 0.037396315
0001e0 a0 8a 2e bb 60 8e 40 bd a0 c2 27 bc 18 fd 16 bc
       -0.002663292 -0.04701078 -0.010239273 -0.009215616
0001f0 40 9c d8 ba 14 0a 58 3c d0 29 a6 bb 33 b2 15 3d
       -0.0016526058 0.013185997 -0.0050709024 0.036546897
000200 a4 28 4e 3c 00 d2 a8 bb 8e 73 e1 3c 6d a7 22 bd
       0.012582932 -0.005151987 0.027520921 -0.03971045
000210 80 b2 60 3b e0 0b 94 bc cc fe 79 3c a6 de d0 3c
       0.0034286082 -0.018072069 0.015258502 0.025496792
000220 80 f2 64 bc 77 da 24 3d 9b e6 81 ba bc 42 45 3f
       -0.013973832 0.040247407 -0.0009910645 0.77054954
000230 ea 0b 29 40 59 eb e4 bf a5 6d 2b bf a7 e4 bb 3f
       2.6413522 -1.7884322 -0.6696418 1.4679154
000240 33 c2 04 bd ab 37 a7 3f 50 8a 13 bf a1 87 55 3f
       -0.032411765 1.3063864 -0.57632923 0.8341008
000250 97 21 9b 3f 59 cc 54 bf 4a b5 30 c0 a7 28 ab bb
       1.2119626 -0.8312431 -2.761065 -0.005223352
000260 d2 bd d6 3f e3 cf 2e 40 1c a9 59 bf fa 14 cd 3f
       1.6776679 2.7314384 -0.85023665 1.6022027
000270 05 82 7d 3f 22 49 84 bf 5f 5a 7a 3f 60 1a 93 3f
       0.9902652 -1.0334818 0.97794145 1.1492424
000280 bf 4d 67 3f 55 36 65 3d 5e f4 fd bf 2d 90 0d 40
       0.90353006 0.05596002 -1.98402 2.2119248
000290 cf 20 a1 bf 27 3c 2f c0 66 6b 95 3e 03 79 4a 3c
       -1.2588137 -2.7380464 0.291835 0.012357953
0002a0 86 13 12 40 9d 64 2e 3f 60 ac 0a 3e 3a 13 53 40
       2.2824416 0.68122274 0.13542318 3.2980485
0002b0 2c f3 b9 3f 89 84 f1 bf d2 67 3b 3c 8a 44 9c be
       1.4527335 -1.8868572 0.011438327 -0.3052104
0002c0 8d 80 00 40 25 a9 c8 3f c9 51 62 3f 16 1b 21 40
       2.007846 1.5676619 0.88406044 2.5172782
0002d0 12 38 21 3c d3 4b e8 3e a8 9a 18 3d 14 cb 24 40
       0.009840028 0.4537035 0.037256867 2.574895
0002e0 f2 fe 16 3d f6 85 0f 40 81 f5 6a 3f c3 41 46 c0
       0.03686423 2.2425513 0.9178086 -3.0977638
0002f0 79 41 0a 3d 61 4a c6 3f fe e3 0c 3c 46 02 45 bf
       0.033753846 1.5491449 0.008599279 -0.76956594
000300 02 6e dc 3d 41 50 78 be 18 f2 8b 40 02 1f 0f c0
       0.1076317 -0.24249364 4.3733025 -2.2362676
000310 94 e5 7e bf 8b 7a 0c 3d 6c 0a 8d c0 fa d0 7e 3f
       -0.9956906 0.034296554 -4.407522 0.9953762
000320 e2 76 0f c0 cf d8 4e 40 f8 5e 09 be c2 b6 c9 bf
       -2.241631 3.231983 -0.13415134 -1.5758898
000330 cb 68 8c c0 b4 fb cc 3f b3 1f 05 be ef bd 3d bd
       -4.387792 1.6014314 -0.13000374 -0.046323713
000340 68 4d 7c bc 45 ef 1c 3d ca 6f a6 bc 85 47 1b 3d
       -0.015399314 0.038314123 -0.020316977 0.037910003
000350 cd 6d b0 bc 98 ec e8 3b 14 0e 93 bc c7 f9 b7 bc
       -0.021536732 0.0071082823 -0.017951049 -0.02245797
000360 cc d2 7a 3c ff 99 31 bd 1b 8b 28 bd 6a 41 93 3c
       0.015309047 -0.043359753 -0.041148286 0.017975528
000370 03 54 15 3d 88 44 03 bc e0 9f 29 bc 30 4e 6b bb
       0.036457073 -0.008011945 -0.010353059 -0.0035904758
000380 5e 09 ad 3c 68 fe 38 3c d4 79 04 bd d7 20 f8 bc
       0.02112263 0.011291124 -0.032342747 -0.030289097
000390 da 57 aa bc 80 a1 3a 3a e6 1c 02 3e b1 25 41 3f
       -0.020793844 0.0007119402 0.12706336 0.7544814
0003a0 9f d9 ad bf 6d 6b 03 3f be c3 a9 3e 0e 50 ae bf
       -1.3582038 0.51335794 0.33157152 -1.3618181
0003b0 fd 98 5f 3d a8 3d 00 40 f0 8a d9 3e f4 0a 32 bf
       0.05458926 2.0037632 0.42488813 -0.69547963
0003c0 28 f9 3a bf 3f 96 de be f2 56 c3 3f d8 47 de 3d
       -0.7303643 -0.43474004 1.5260909 0.10853547
0003d0 ac a3 82 3e e7 a6 bd bf f3 fb dc be 63 e5 12 bf
       0.25515497 -1.481656 -0.43160972 -0.57381266
0003e0 ed 26 34 3d 5c e0 bd 3f 5f be 0e be 91 63 bd bf
       0.043982435 1.4834094 -0.13939808 -1.479601
0003f0 4c 1b 61 3d 4d 4f 0f 3e 52 bb f2 3e 7b 1d 07 40
       0.054957673 0.13995095 0.4740854 2.1111743

fc1.bias f4 [400]
000000 de e6 a0 3d e1 3d 4a be 0e d1 a3 bd c0 63 6b bc
       0.078565344 -0.19750167 -0.079988584 -0.014367044
000010 f0 c3 84 bc d0 49 c1 bc 06 5b 9f 3d 02 9f 26 3e
       -0.016206712 -0.023594767 0.07781033 0.16271594
000020 4d ae 6d 3e fc 5b b1 bd 9a d2 90 3e 0e 1e f4 3b
       0.23211022 -0.08660123 0.28285676 0.007449872
000030 f6 07 c5 bd cd f3 19 3e e9 79 d3 bd 08 c0 92 bd
       -0.09620659 0.15034409 -0.10325987 -0.07165533
000040 6c 0d 4e be 43 a6 06 3e 97 70 33 3e e6 ce 15 bd
       -0.20122308 0.13149361 0.17523418 -0.036574267
000050 dd 0f 2d be 9e 15 86 bd 31 ff f8 bd 40 a5 ec 3c
       -0.16900583 -0.06547092 -0.12158049 0.028887391
000060 9e f4 9a bd c0 43 4a bd 3d f5 d0 bd a6 e6 22 3d
       -0.07566188 -0.049381018 -0.102030255 0.039770745
000070 1b c8 20 3e a6 a8 d4 bd 58 18 59 3e 74 13 c1 bd
       0.15701334 -0.1038373 0.21200693 -0.094275385
000080 85 1b 90 3c 3a 2d 1b bc 85 d2 41 be c1 97 0c 3e
       0.017591247 -0.009471232 -0.18927963 0.13729765
000090 45 6a d9 bd 54 4a 7e 3e e9 d4 b4 bd 67 8a 30 be
       -0.106159724 0.24833041 -0.08829672 -0.17240296
0000a0 e4 22 9b bd 0a 95 19 3e 40 a9 f6 bb 59 80 52 be
       -0.07575014 0.1499826 -0.0075275004 -0.20556773
0000b0 04 3c 4d 3d 05 b9 0e bd 74 9a 54 3d 4b 08 16 3e
       0.050106063 -0.034844417 0.05190511 0.14651601
0000c0 2a e0 20 be 18 12 84 bc 38 5b fe bd fe c1 42 be
       -0.15710512 -0.016121909 -0.12419742 -0.19019315
0000d0 6d a2 37 3d f8 64 d8 bc a6 bd 59 3e af a3 51 3e
       0.044832636 -0.026415333 0.21263751 0.20472597
0000e0 2e 24 24 3e 4d 06 69 3c 1e c0 22 be 73 0f 0a 3e
       0.16029426 0.014222694 -0.158936 0.13482456
0000f0 28 83 1a be 7e 61 fc bd 31 37 a2 bd 2c 5f 41 3d
       -0.15089095 -0.12323283 -0.07920683 0.047209904
000100 94 a3 35 be 3e 11 32 be 05 e2 1c be a8 98 3f bb
       -0.17738181 -0.1738939 -0.15320595 -0.0029235277
000110 6b 9d 4c 3e b7 ef ea bd 35 26 aa 3d 00 f5 0b bb
       0.19981925 -0.11471503 0.08308069 -0.0021355748
000120 56 e4 de 3c d2 71 31 3e 8f f3 66 3c 05 c3 33 be
       0.027208488 0.17328575 0.014096155 -0.17554863
000130 e3 9b 30 be a0 9c c7 bb 98 43 73 3e 0e d2 15 be
       -0.17246966 -0.006091669 0.23756254 -0.14630911
000140 cb ca e7 3c 10 f3 26 3e e0 34 cc 3d b2 94 37 be
       0.028294941 0.16303658 0.099710226 -0.17927817
000150 b0 11 87 3c 2d 33 2f be 09 e1 44 bd d7 ce 96 3d
       0.016487926 -0.17109366 -0.048066173 0.0736367
000160 80 63 d2 bc 04 e1 2b bd 38 59 7b bd ec cf 41 bd
       -0.02568221 -0.04196264 -0.061364383 -0.04731743
000170 11 e8 fd bd 7e 63 45 be ce 8a 22 3e b5 a9 b5 3c
       -0.12397779 -0.19276235 0.15873262 0.02217565
000180 a8 4b b8 3c 94 b4 10 3e 90 f9 15 3c 44 76 1b 3e
       0.022497013 0.14131385 0.009153739 0.15181834
000190 3c 27 99 bd 2e bd ce bd 86 01 97 3d 4c 82 07 3e
       -0.074781865 -0.10094677 0.073733374 0.13233298
0001a0 fc f3 94 3c 27 41 f2 3c 92 42 69 bd 6c f0 21 be
       0.018182747 0.029572083 -0.056948252 -0.1581437
0001b0 27 7f c9 3d 18 a3 e5 bc f8 d1 85 3e 4c 05 98 bd
       0.098387055 -0.02803187 0.26136756 -0.07422885
0001c0 45 06 d1 bd 04 e7 a2 3c f8 da 32 bd b9 57 45 3d
       -0.10206274 0.019885547 -0.043665856 0.048179362
0001d0 a1 20 f8 bd ea 99 8e 3e 69 3a 31 3d 35 69 89 bc
       -0.121155985 0.27851802 0.043268595 -0.0167738
0001e0 71 9c e7 bd 9c 75 3b be 23 d5 85 3d 61 76 78 3b
       -0.11309136 -0.18306583 0.06534793 0.0037912356
0001f0 63 9d 3a bd 3b 56 e3 bd fc 8b 33 3e 02 c8 81 bd
       -0.045560252 -0.111004315 0.17533869 -0.063369766
000200 69 a2 10 3d 6c 5a 02 be c0 de 00 3c 6a 20 2f be
       0.035311136 -0.12729806 0.007865608 -0.17102209
000210 be 85 85 bd ee bc 80 bd 8a cf 4a 3e f4 62 96 bc
       -0.0651965 -0.062860355 0.19805732 -0.018357731
000220 f3 3a 8f 3e 94 ce 35 be d7 9e 53 be 68 e3 df 3d
       0.27974662 -0.17754585 -0.20666061 0.10932046
000230 92 59 7f 3e f7 81 b4 3d 50 f9 31 bc 76 c5 09 3e
       0.24936512 0.08813851 -0.010862663 0.13454232
000240 ea 4d 7c 3e 51 c8 08 3d eb eb cc bd 08 e3 ca 3d
       0.24639097 0.03339416 -0.10005935 0.09906584
000250 8d c3 20 be d4 19 c5 bd 95 dc 3c 3e 89 21 0c be
       -0.15699597 -0.09624067 0.1844352 -0.13684668
000260 91 45 2f be 47 3d d0 bd b3 a6 97 3e 8a 7e bc 3d
       -0.17116381 -0.10167938 0.2961937 0.09203823
000270 87 3e 47 be 88 dd 38 be 02 70 08 be a4 e1 29 3e
       -0.19457446 -0.18053257 -0.13323978 0.16589981
000280 d9 c5 bd 3d 66 29 88 3e 5f 49 86 3e f3 f3 bf bd
       0.09266252 0.26594085 0.26227853 -0.093727015
000290 f9 df 52 3e cc 14 61 3e 97 ea 6e 3d 26 47 10 be
       0.20593251 0.2198059 0.05832919 -0.14089641
0002a0 68 1c ce 3c 20 ef 95 3b 50 13 8f bd 62 df 84 3d
       0.02516003 0.004575625 -0.069861054 0.064879194
0002b0 5b 75 4a 3e a8 e1 bb bb 02 dd 03 3d 3b 7e 48 3e
       0.1977133 -0.0057336874 0.03219319 0.19579403
0002c0 7c ea 2a 3e cf 44 12 3e 3a 2c 48 3e db d8 2e be
       0.16691011 0.14284061 0.19548121 -0.17074911
0002d0 4f 91 ac 3d 5a 55 fb 3d 10 96 81 bc 23 da 4e bd
       0.08426153 0.12272139 -0.015818626 -0.050501
0002e0 3c ce 32 be 44 c9 6f 3e 78 d8 79 bd ac 81 4d be
       -0.17461485 0.2341662 -0.060997456 -0.20068997
0002f0 20 85 0f be 33 fb 04 3e f0 42 25 3c 9e c8 09 be
       -0.14015627 0.1298645 0.01008676 -0.13455436
000300 94 2e 55 bd e8 bd 33 bd 22 77 cb bd 36 26 9c 3d
       -0.052046373 -0.04388228 -0.09934832 0.07624476
000310 be 0d 06 be e9 2c 8b 3e 32 e9 2d be 9a 17 d8 bd
       -0.1309118 0.271827 -0.16983488 -0.10551377
000320 80 ab db 3a 9e a4 67 3e 46 c8 47 3e 6a ab 39 bc
       0.0016759485 0.2262139 0.19509992 -0.011332372
000330 95 ec 4e be 28 c7 f2 bc e6 34 1d be dc b2 a9 bd
       -0.20207436 -0.02963598 -0.1535221 -0.08286068
000340 6e 5b 33 3e c8 6a 34 bd eb c9 2e 3e b2 c9 8b 3d
       0.17515346 -0.044047147 0.17069213 0.0682558
000350 e2 8c 5e 3e f0 f6 19 3c 9a 43 aa bc 68 f0 9c 3c
       0.2173343 0.009397253 -0.020784188 0.019157603
000360 c4 b9 61 3e 6b 86 32 3e 70 2f 8b 3d d2 cd 09 3e
       0.2204352 0.17434089 0.06796157 0.1345742
000370 f0 f6 64 bd 07 fc e7 bc 9f 2c 42 be b8 64 54 3d
       -0.05589956 -0.028318418 -0.18962334 0.051853865
000380 f9 f4 22 bd 17 41 0b 3d 4e bc 46 be 50 9f 3f be
       -0.039784405 0.03399762 -0.1940777 -0.18713117
000390 04 27 52 be 14 9b 17 3d cc f0 30 3d 26 64 f6 3d
       -0.20522696 0.03701313 0.04319839 0.120308205
0003a0 76 59 22 be 2c 4d 8e bd 30 64 0d be 21 f0 8c bc
       -0.15854439 -0.06948313 -0.1380775 -0.017204346
0003b0 be 0b b7 bd e8 52 ba 3d 24 57 0e 3d a8 f6 ad 3c
       -0.089377865 0.09097844 0.034751073 0.021235779
0003c0 2f 26 ce 3d 98 ca 37 bd 48 a0 b6 bd 4a 16 0f be
       0.10065877 -0.044870943 -0.0891729 -0.13973346
0003d0 c9 a6 09 bd a6 67 8d bd 10 cf 23 3e fc c2 20 3e
       -0.033606324 -0.06904535 0.15996957 0.1569938
0003e0 66 8e ac 3d 54 c7 65 3e b4 a6 a3 bd 77 94 4d be
       0.08425598 0.22439319 -0.079907805 -0.20076166
0003f0 36 a0 b6 3d ce b7 80 bd 00 78 d6 38 fa 97 d8 3b
       0.089172766 -0.06285058 0.00010226667 0.006609914

fc2.weight f4 [300, 400]
000000 ee 4c 63 3d 68 fb fb bb 70 8f 34 bc 40 8f b7 3b
       0.055493288 -0.007689882 -0.011020526 0.0056017935
000010 6c 68 64 3d 7a 1e d4 bc 29 dd e7 3c bb 1b 6a bd
       0.055763647 -0.025893439 0.0283037 -0.057155352
000020 57 9a 09 bd 1a d3 ad bc 1a 21 56 bd 34 8a 11 3d
       -0.033594456 -0.021218825 -0.05227766 0.03553219
000030 00 52 8c 3a c4 bc e8 bc d0 fb 00 bb b6 d1 21 bd
       0.001070559 -0.028410323 -0.0019681342 -0.039506637
000040 70 98 5f bd 5e f2 ff bc 45 99 0f bc 38 c0 4b bd
       -0.054588735 -0.0312435 -0.00876457 -0.04974386
000050 17 b6 22 bd d0 86 68 3d fc 7d e4 3c ee 0d fe bc
       -0.039724436 0.056769192 0.027892105 -0.031012502
000060 fd 41 05 bd 10 ee 2d bb cf 79 fd bc a6 91 39 3d
       -0.032533634 -0.0026539601 -0.030941872 0.045304917
000070 e2 98 dc bc a6 ae 11 bd 3a a8 84 bc 28 af ec 3c
       -0.026928369 -0.03556695 -0.016193498 0.028892115
000080 d6 54 15 3c bb 68 a8 3c 02 d6 5c 3d 81 00 07 3d
       0.009114465 0.020557752 0.05391503 0.032959465
000090 9c 66 36 3d 46 38 13 bd e4 26 2e 3d 68 7f f5 bc
       0.04453145 -0.03594234 0.042517558 -0.029967979
0000a0 88 7b e8 bb b7 d9 0e bc f8 31 0a 3c 75 1b 0a bd
       -0.007094804 -0.008718899 0.008434765 -0.03371759
0000b0 5c 56 ba 3c e6 b9 67 3d 0c 40 9f 3c 3b aa 34 3c
       0.022746257 0.05657377 0.01943972 0.011026914
0000c0 30 6e e8 3c 92 bd 3f 3d a0 62 bb 3c 9a 49 2c 3d
       0.028372854 0.046811648 0.022874177 0.04206238
0000d0 d5 56 f0 bc ad 8b 0e bd e2 a8 90 3c 25 77 4d 3d
       -0.02933828 -0.034801174 0.017658655 0.050162453
0000e0 ee 76 21 3a 8c d3 d8 3c f0 58 c6 3b 6e ec 11 3d
       0.00061593845 0.02646806 0.0060530826 0.035625868
0000f0 1c 32 af bc 78 aa ee 3c e1 17 30 3c 58 30 26 3d
       -0.021386199 0.02913402 0.010747881 0.040573448
000100 40 2f 86 3c 68 f9 f7 3c 6a 7f 27 3d 52 2b 49 bd
       0.016379952 0.030270293 0.040892996 -0.04911358
000110 63 e4 81 3b 0a f0 6a 3d ec 97 9c 3c e4 35 c6 3c
       0.0039639934 0.057357825 0.01911541 0.024195619
000120 6d c1 17 bd f8 67 d9 3c 98 da c5 3c a0 a0 fc 3c
       -0.0370497 0.026538834 0.024152085 0.03083831
000130 60 30 3e bc 01 88 62 bd fa ff a5 bb 82 c0 1b 3d
       -0.011608213 -0.055305485 -0.005065915 0.038025387
000140 90 df 49 3d 5c ce ed 3c 95 01 11 bd 3c 65 4b bc
       0.04928547 0.029029064 -0.0354019 -0.012414273
000150 0a 98 88 bc e0 7b 4d 3c e7 bc 55 bd 2c ec 53 3d
       -0.01667406 0.012541741 -0.052182104 0.051738903
000160 fc a7 3d ba a8 bd ee bb 22 f3 5c bd 00 d9 70 3c
       -0.00072348095 -0.0072857924 -0.053942807 0.014700174
000170 7c f1 29 3d 54 b6 94 3c 62 05 52 bd ac 89 6f 3c
       0.041490063 0.018153347 -0.051274665 0.014620226
000180 70 a6 e4 3c 98 6a 3f 3d 9a d9 34 bd 52 31 fa bc
       0.027911395 0.046732515 -0.044152834 -0.030541096
000190 c8 ba 50 bc 31 c0 5c bd b0 71 58 3d d7 53 1a 39
       -0.012739845 -0.053894226 0.052842796 0.00014717817
0001a0 aa c9 a6 bc 3c 5b 63 bd bf 11 f5 3c 54 fa 67 3d
       -0.020359833 -0.05550693 0.029915689 0.056635216
0001b0 3c e0 1c bd 02 27 1b 3d 2a 60 3f 3d 10 92 8d 3c
       -0.038299784 0.037878998 0.04672257 0.017281562
0001c0 9b be e2 bc d0 1d d3 bc ac ea 07 bd 91 7d 2a bd
       -0.027678778 -0.025771052 -0.033182785 -0.041623656
0001d0 58 d8 5d 3c c4 32 c8 3a ba 2a f5 3c 34 5e 82 3b
       0.01354035 0.0015273918 0.0299276 0.003978515
0001e0 83 74 67 bd 5c 0e 30 bc 51 16 86 3c 7d 84 b3 bc
       -0.0565076 -0.010745611 0.016368063 -0.021913761
0001f0 a1 f7 73 bd 3d 6a 2b bd 13 7a 24 3d ff 72 21 3d
       -0.05956233 -0.041849364 0.04015548 0.03941631
000200 8e 01 1d 3d cc cb 2c 3d 1c 5f c1 3c 00 97 91 3a
       0.03833156 0.042186543 0.023604922 0.0011107624
000210 2c e7 9f 3c 16 eb b3 bc 8a 01 0c 3c 0a 27 82 3a
       0.019519411 -0.021962684 0.008545289 0.0009929847
000220 93 bc e5 3c f2 20 b5 bc 74 05 14 bc 8a ae ae bc
       0.02804402 -0.022110436 -0.009034503 -0.021323461
000230 ca ba 53 3d 67 e9 4c bd 00 c7 c6 3b 88 e7 44 bc
       0.051691808 -0.050027277 0.006066203 -0.012018092
000240 a9 32 2b 3d 5d b9 76 bd b2 55 ef bc d3 01 1a 3d
       0.04179636 -0.06023537 -0.029215667 0.037599396
000250 4a b2 4f 3d f0 96 cc bc ef bd d4 bc 80 2d e3 3b
       0.05070714 -0.024974316 -0.025969474 0.0069329143
000260 d5 e5 4b bd af c9 e5 bc fb fd 81 3c 9e 48 36 bd
       -0.04977973 -0.028050272 0.015868178 -0.044502847
000270 0a 6a 01 3d 68 c5 c4 bc 7d 57 df bc 4e b4 3e bd
       0.031595267 -0.024019912 -0.027263397 -0.04655867
000280 42 46 6a bd eb e5 71 bd ca dd 0f bd ea c2 80 bd
       -0.05719591 -0.059057157 -0.035123624 -0.06287177
000290 46 db 50 bd 2e 48 1c bd 93 15 d9 bc 2c da 21 3d
       -0.050990365 -0.038154773 -0.026499545 0.039514706
0002a0 6c 17 bc 3c 5a d1 61 bd cc 45 35 bc 9b 8a 3f 3d
       0.022960387 -0.055131294 -0.011064004 0.046763044
0002b0 cc 48 c1 3c 0b c5 05 bd e9 97 58 bd 22 68 c5 bb
       0.023594283 -0.032658618 -0.052879248 -0.0060243765
0002c0 f0 41 1a 3d 54 0b 53 3d a0 b8 89 bc a8 65 7f 3c
       0.03766054 0.051524475 -0.016811669 0.015588202
0002d0 72 ce 84 3b 30 93 f8 3c 66 ed 42 3d 10 4d 8c bc
       0.0040529305 0.030343622 0.047589682 -0.01712659
0002e0 18 6c 57 bd 85 15 1d bd 32 19 15 3d 40 57 29 3c
       -0.05259332 -0.0383506 0.03640098 0.010335743
0002f0 42 3b ba bc e0 e9 69 bd b4 a9 4d bd 80 0c 7b bc
       -0.022733334 -0.057107806 -0.05021067 -0.015322804
000300 4e b7 1f bd 2d 7f 4c bd 6d 4c 2f bd f7 83 c8 bc
       -0.038993172 -0.04992597 -0.042797495 -0.024476988
000310 80 63 06 3a c4 2e 4d 3d c6 70 06 bd c8 b2 2a 3d
       0.0005126521 0.050093427 -0.032822393 0.041674405
000320 00 ae 1a 3c 68 1e 1d 3d c3 6a a2 3c 1f 13 a9 3c
       0.009440899 0.038359076 0.019826299 0.020639
000330 a4 ef b2 3c 2a 3f 2d bd b0 21 02 bc ac ca 07 bd
       0.021842785 -0.042296566 -0.007942602 -0.033152267
000340 14 fd 77 bd a0 2c e0 ba 40 be 2a 3d 98 fa fb 3c
       -0.06054409 -0.0017103143 0.041685343 0.03075914
000350 80 de 9f bb 00 75 07 3c 68 0f bd 3b c0 3d 9c 3b
       -0.004878819 0.008267641 0.005769659 0.0047681034
000360 3d c9 09 bd a9 21 7c 3c fa 95 9c bc f5 26 20 bd
       -0.03363918 0.015388885 -0.019114483 -0.039099652
000370 28 86 34 3c ce 6a 2b bd e0 d3 0b bd af ed af 3b
       0.0110183135 -0.041849904 -0.034137607 0.0053689103
000380 64 69 1b 3d 02 e8 f4 ba 34 8f bb bc 82 bf 59 3d
       0.037942305 -0.0018684866 -0.022895433 0.05316115
000390 aa f6 13 bd 32 4c 57 bd 2e 7f b8 bc 19 2f cf 3c
       -0.03612391 -0.0525629 -0.022521582 0.025291013
0003a0 ac d8 20 bc 22 f1 51 3d da 51 12 3d 5d 9d 73 bc
       -0.009817284 0.051255353 0.03572259 -0.014869061
0003b0 ba da 94 3c 06 e4 78 bd 95 3d e2 bc f0 7c 70 bc
       0.018170703 -0.060764335 -0.027617255 -0.014678225
0003c0 38 43 95 bb 56 b4 4c 3d 8f fd bd 3b e6 0d 5d 3d
       -0.0045551322 0.04997667 0.005798049 0.053968333
0003d0 24 43 52 3d 32 b8 ed bc b0 e6 34 bd 82 48 34 bd
       0.05133356 -0.029018495 -0.044165313 -0.04401446
0003e0 0b d4 83 bc 1b a4 4e 3d 0b f6 2d bd 6e c7 0f 3d
       -0.01609232 0.050449472 -0.042470973 0.0351023
0003f0 af b2 06 3d 56 fb af bc 54 34 e9 3c 8f 9e 33 3d
       0.03288525 -0.021482151 0.028467335 0.043852385

fc2.bias f4 [300]
000000 a7 1f ee bb b7 6b 88 3d 4a 73 85 ba 32 24 49 bd
       -0.007266957 0.0666117 -0.0010181454 -0.049106784
000010 b7 10 17 bd 83 79 a3 bd 59 36 d6 bc 91 86 a3 bc
       -0.036881175 -0.07982161 -0.026148962 -0.019961627
000020 bf 63 31 3d ab ab 14 3d 92 1f 87 3d 2b dd 41 bd
       0.043308016 0.036296528 0.065978184 -0.047330063
000030 80 fc 08 3d 50 2f 3a be 29 3f 2a be d1 87 04 bc
       0.033443928 -0.18182111 -0.16625656 -0.008089022
000040 f7 21 8a 3d ff e7 3a 3d 52 59 71 3c 78 c6 2a 3d
       0.067447595 0.045631405 0.014730768 0.04169318
000050 72 b6 0a 3e 2a 3b 24 3d ae f9 e0 bb b7 0f 43 bd
       0.1354616 0.040095486 -0.0068657016 -0.04762241
000060 e2 55 85 3c 3f 32 64 3e f5 09 ec bc 97 60 8f 3e
       0.016276304 0.22284792 -0.028813342 0.2800338
000070 72 6d b1 3a a6 66 43 3c 06 b8 20 bd 80 7c 32 bd
       0.0013536646 0.011926329 -0.039238 -0.043575764
000080 ac 35 83 3d 71 a1 19 bd f0 5d 03 3d d2 2a 89 3c
       0.064067215 -0.03750748 0.032072008 0.016744051
000090 97 59 2c bd f3 93 08 bd 9b db 2b 3d 5e a9 af be
       -0.042077627 -0.03334422 0.04195748 -0.34308904
0000a0 5b d9 98 bd 6b 52 f8 3a fc d9 44 be 2a 8f 9a 3d
       -0.07463332 0.0018945461 -0.1922378 0.07546838
0000b0 ac f7 74 bd 7b 75 09 3d 73 96 25 bd fd f2 d5 bc
       -0.05980651 0.033559304 -0.040426683 -0.026116842
0000c0 f9 af 24 3e 42 8f b2 3d 43 d0 60 be 3a 8f 22 3d
       0.16082753 0.087187305 -0.21954446 0.039687373
0000d0 6d e8 c7 bc f1 f2 ca bc 1a ee 50 3c 4b 02 49 3d
       -0.024402821 -0.024774047 0.01275208 0.049074452
0000e0 16 2c 6d bc a8 8c ce 3d 52 fd 86 3d 90 60 8b 3d
       -0.014475843 0.10085422 0.06591286 0.06805527
0000f0 b8 6b 42 3d ec 19 d6 3c f2 bb 11 3e da a7 4e be
       0.04746601 0.026135407 0.14231852 -0.20181218
000100 87 35 d8 3c a0 92 87 bc 94 ee 90 3c 9b 48 70 bc
       0.026392711 -0.016549408 0.017691888 -0.014665748
000110 77 29 19 3d 36 8e 07 3d 1d 8f 62 3d dc 45 d6 bc
       0.03739306 0.033094607 0.055312265 -0.026156358
000120 dd df be bc 18 4d 44 bd ff dd 05 be 7e 8c 44 bd
       -0.023300106 -0.047925085 -0.13072966 -0.047985546
000130 ba d9 22 3c a0 3d e7 3c 6c 80 8f bc f5 56 c4 3c
       0.009939605 0.028227627 -0.017517291 0.023967246
000140 cf c5 cf 3c ed a3 30 3d 2d bf db 3c 58 6e 4a bd
       0.025362877 0.04312508 0.026824558 -0.04942164
000150 ae 77 91 3b 74 2d 29 3d e3 3e 29 3d e8 05 bb 3c
       0.0044393158 0.041303113 0.04131974 0.022829965
000160 12 a5 28 3d 00 73 82 3d e8 ac d0 bc 91 1c 46 be
       0.04117305 0.06369591 -0.025473073 -0.19346835
000170 ff 69 eb bc e4 53 24 bd b7 b2 67 bd 32 cb 84 3c
       -0.028737066 -0.040119067 -0.05656692 0.016210172
000180 00 bd 6a bc 4f ec c7 bb 35 d4 8a bc e2 ef f3 3d
       -0.014327288 -0.006101168 -0.016946891 0.119109884
000190 3b de f9 bc 49 ef 6c bd 38 66 02 be 3a ea 22 3e
       -0.030501476 -0.057845388 -0.12734306 0.15909663
0001a0 b7 26 d6 3c 92 ce b4 3c 43 38 8f bc 9f 7d 31 3d
       0.026141508 0.022071157 -0.017482882 0.043332692
0001b0 e8 ec 17 ba c0 7c f8 bc 26 41 9b 3a 11 8e 15 3d
       -0.00057954947 -0.030332923 0.0011844977 0.03651244
0001c0 4a fa 28 3d 6d 2c 9b bd 50 7e 81 3c ea 26 94 bd
       0.04125432 -0.07576833 0.0158073 -0.07233985
0001d0 8f 3a 24 3d 15 2e 81 3c 06 6b 06 3d 52 47 0a bd
       0.04009491 0.015769044 0.03281691 -0.033759423
0001e0 0a 79 ac bd 68 fd 58 be c5 3e eb 3d c8 bc 44 bd
       -0.08421524 -0.21190417 0.11486582 -0.0480316
0001f0 73 25 d4 3d 40 79 57 bd 2a 70 1a 3d 7e 65 8a bd
       0.10358705 -0.052605867 0.037704624 -0.06757639
000200 4f 4a fd bc b5 88 71 3c 45 e3 11 bd 67 77 ba 3d
       -0.030919222 0.014742066 -0.03561713 0.091048054
000210 41 a2 75 be c6 88 1e 3d 19 76 b9 3c 9d 6c 6a 3c
       -0.23987676 0.038704656 0.022639321 0.014308122
000220 dc 28 c5 3c 6c b5 e4 3d 3b f8 06 bc c8 78 1a 3e
       0.024067335 0.11167416 -0.008237894 0.15085137
000230 7e d6 7a bc ff 0d 29 3d fb 35 db 3d 28 65 5c bd
       -0.015309928 0.041273113 0.10703655 -0.053807408
000240 6a d2 43 bc 46 7f 7a 3d 77 f7 33 3b 56 07 3e bd
       -0.011952022 0.061156534 0.0027460733 -0.046393715
000250 dc 00 66 bd 0d 30 9c 3c b1 cb c4 3c 86 f7 28 3d
       -0.056153163 0.019065881 0.024022909 0.04125168
000260 39 09 21 bd b9 16 7e bc dc 92 22 bc 7b 84 12 3c
       -0.039315436 -0.015508347 -0.009922709 0.008942719
000270 5e b4 b5 bc db 68 83 3e 54 59 e7 bc d0 df e4 bc
       -0.022180732 0.25665936 -0.028240837 -0.027938753
000280 d4 60 0b 3d ef d1 fa b9 48 fe e3 3d f9 80 0b bc
       0.03402789 -0.00047840129 0.11132485 -0.008514636
000290 87 f3 00 bd d5 fb d3 3c 0a 83 eb bc df f3 e0 bb
       -0.031482246 0.025876919 -0.028749008 -0.006865009
0002a0 cf 8a 18 3d b9 9e c7 3a a8 d3 b8 3d 75 ee 4b bd
       0.037241753 0.0015229798 0.09024745 -0.049787957
0002b0 5e 6e 5d ba 11 5a 2b be de 37 00 3d 3b d0 a6 3c
       -0.0008446927 -0.16733576 0.03130328 0.020362964
0002c0 ce ae 67 bd 69 52 2c 3e c7 cd 29 3d 35 26 c2 3d
       -0.05656319 0.16828312 0.04145601 0.09479944
0002d0 b6 4d 2e be 23 37 22 bd be d1 68 3b f0 6a a2 3b
       -0.17021832 -0.039603364 0.0035525407 0.0049565956
0002e0 25 3d 6c bc 13 4a 0a bd 8f 1d 76 3c 44 a0 af 3d
       -0.014418875 -0.03376205 0.015021696 0.0857549
0002f0 c0 26 00 3d 6a 5c d8 3b a5 97 3d bd 97 76 27 3a
       0.031286955 0.0066028135 -0.046287198 0.00063882157
000300 de 4e 1a 3d 91 08 4c 3b 74 f3 0f bd 53 e9 4e be
       0.03767287 0.0031133036 -0.035144284 -0.20206194
000310 3f 37 2e 3c 67 9f b6 bd 44 f2 16 3c 0e 89 2f 3d
       0.010633289 -0.08917122 0.009213034 0.042855315
000320 f4 67 3e be f7 20 c2 3b fc 0e be 3d 6f 06 1e be
       -0.18594342 0.00592434 0.09280202 -0.15432142
000330 1c 55 ee 3c 0d 67 4c 3d 8f 30 ad 3d 43 c7 e1 3d
       0.029093318 0.049902964 0.084565274 0.11024334
000340 7a 55 ce 3c a8 3e 32 bd c6 6c 74 3d 35 7f 2a 3e
       0.025187243 -0.043516785 0.059674047 0.16650088
000350 76 ca 81 3c 83 a9 fa 3b 75 91 cd bc e8 0d b2 bc
       0.015843611 0.007649602 -0.025093773 -0.021735147
000360 3d 70 44 bd ca 02 d8 3c cf ea 1a 3d 9d 41 82 bc
       -0.0479586 0.026368517 0.037821587 -0.015900427
000370 f1 d6 82 3c 3d b9 97 3c b7 7f b5 3c e7 91 88 be
       0.015971633 0.018520946 0.022155626 -0.26673815
000380 32 4c c9 bc 7f 33 27 3c fd 8c 51 bd 5f c6 89 3d
       -0.024572466 0.010205149 -0.051159848 0.067272894
000390 41 00 67 3d b5 91 0d 3d a2 89 a9 3d a5 4c 91 3c
       0.056396727 0.034562785 0.082782045 0.017736742
0003a0 dc e0 a2 3c 82 28 bb 3d 50 ba a5 bb 10 f1 59 bc
       0.019882612 0.091385856 -0.0050576106 -0.013302103
0003b0 b6 4c a1 bc 36 15 61 3c 21 f4 d0 3c a8 d1 73 bd
       -0.019689899 0.013737967 0.025507035 -0.059526116
0003c0 a4 1f 51 bb 58 56 6f 3c e9 82 ba 3c dc 10 dd ba
       -0.0031909728 0.014607988 0.022767501 -0.0016865986
0003d0 4f 0f eb bc 45 7e c8 bd 7a ae af 3c 56 55 1d 3b
       -0.028693823 -0.09789709 0.021445502 0.0024007163
0003e0 f8 71 c5 3c b3 3d bd 3c c3 e4 48 bd d9 47 ef 3c
       0.024102196 0.02310071 -0.04904629 0.029209064
0003f0 c7 2d ec 3b b4 3f 0d 3c 9f 3f bc bd 25 7e 35 bd
       0.0072076055 0.008621145 -0.09191822 -0.044309754

fc3.weight f4 [12, 300]
000000 17 7f 4e 3b ea 7e 00 3e 8a 2d bc b9 81 6d d4 ba
       0.0031508857 0.12548414 -0.00035892084 -0.0016206951
000010 bb d4 82 be 79 1b 38 bd 16 ec 16 bc 0a 04 34 3d
       -0.25552925 -0.044948075 -0.009211561 0.043949164
000020 00 92 3b bc 7a 45 9d bd 7e 0b 49 be 7e 1e dd ba
       -0.011448383 -0.07679267 -0.1963329 -0.0016870049
000030 c7 76 26 bc 07 ae bc 3e dd 85 0d bf 2e 31 c2 be
       -0.010160155 0.36851522 -0.55282384 -0.37928146
000040 b4 6b 01 bf 0b 24 53 bc ae 4c ed bd 1e c7 85 bc
       -0.50554967 -0.012887011 -0.11586891 -0.016330298
000050 dd bd 60 bc d6 28 b0 be 7b c2 c1 bd c6 ee e0 ba
       -0.013717142 -0.34406155 -0.09460922 -0.0017161004
000060 68 02 52 bc 1f df e6 3f 8e ed 4e bc 72 ac c4 3f
       -0.0128179565 1.8036841 -0.01262988 1.5365126
000070 93 f7 36 be 68 5b 85 bc d3 91 b7 ba 05 42 d2 bb
       -0.1786788 -0.016278937 -0.0014005251 -0.0064165615
000080 43 7e fd 3c ec a6 cd 3d 35 70 34 bc 28 19 13 3a
       0.030943995 0.100416034 -0.01101308 0.00056113536
000090 c4 30 98 3a 3c 8f 14 3b 5f 09 33 3e e1 3f c0 be
       0.0011611213 0.0022668382 0.17484044 -0.37548736
0000a0 62 7d 05 bf 98 94 39 3a 40 85 f2 be 2b ed 6b 3f
       -0.52144444 0.0007079332 -0.47367287 0.92158765
0000b0 4c 05 94 3e 35 dd 7e bc 4e 33 78 3e 3c cb 41 ba
       0.2891029 -0.01555567 0.24238321 -0.000739265
0000c0 94 5b 25 bf 12 5e 5c 3f d2 be 0a 3f 71 bd 4e bc
       -0.6459286 0.8608104 0.5419742 -0.012618409
0000d0 94 16 b7 3a 98 8f cd ba cb 1b 3c bb 4c 6b 92 3e
       0.0013968521 -0.0015683053 -0.002870309 0.28597486
0000e0 ed 06 7e bd 81 10 e3 be 40 aa 61 be aa c2 4e be
       -0.062018324 -0.4434853 -0.22037601 -0.20191446
0000f0 85 32 a8 3e ba 66 89 be 9a c9 cc bd 72 34 85 be
       0.32851043 -0.26836187 -0.0999939 -0.26016575
000100 50 bf 5a 3e d0 e3 2e ba d8 c5 34 3b 77 0b 1d 3d
       0.21362042 -0.000667152 0.0027583744 0.03834101
000110 ac 4d 02 ba 1e 16 1b bf 5a 04 9a bc 30 e9 37 b9
       -0.00049706805 -0.60580623 -0.018800903 -0.00017539109
000120 4c 2f f2 3a e3 f1 aa 3e bd 4b 80 3e 50 45 3b b9
       0.001847723 0.3338767 0.25057784 -0.0001785953
000130 27 59 17 bb c1 be 97 bd bb 1e 15 3e c9 c0 c4 ba
       -0.002309391 -0.0740943 0.14562504 -0.0015011068
000140 a4 24 4b bc 76 ff d7 be 00 f1 ff b8 e6 c7 a7 ba
       -0.0123988725 -0.4218709 -0.00012204237 -0.0012800663
000150 b1 1e 07 3b 0e c9 e7 bb 59 86 5e be 5e dc 3a bc
       0.0020617659 -0.007073528 -0.21730937 -0.011405079
000160 c6 07 eb bb 2b f3 1c bd cb a6 ee bb f7 9a 7a be
       -0.0071725575 -0.03831784 -0.007283067 -0.24473177
000170 81 2d f3 ba a8 45 8a 38 ad 6d 2e 3f 84 a1 2a ba
       -0.001855299 6.593327e-05 0.681361 -0.0006509053
000180 56 3e 32 bc 52 fb 00 bc b4 2a 0b 3a 28 a5 8f 3d
       -0.01087912 -0.007872419 0.00053087925 0.07013923
000190 45 c8 28 bb 04 fd 8a be ee fa 7e bd 78 6d 18 40
       -0.0025754136 -0.2714616 -0.062251024 2.3816814
0001a0 be 53 58 3a 81 a5 10 bb d6 89 14 3b ba 5c 49 bc
       0.00082522247 -0.0022071304 0.0022665164 -0.012290174
0001b0 1e 5b 45 bc 30 4a 4c 3a 54 02 19 3b 5f 77 a9 3a
       -0.01204565 0.0007793037 0.0023347335 0.0012929252
0001c0 40 98 9d 3f bd dc 28 bf 4f c1 24 bc f6 90 35 3d
       1.2312088 -0.6596182 -0.010055854 0.0443277
0001d0 b6 48 a7 bb 2e b3 26 bc e6 93 0d bc 11 6d dc 3d
       -0.0051051034 -0.010174556 -0.008641219 0.1076299
0001e0 94 55 22 be 79 16 62 3f 76 2d 50 3e a2 4c b4 ba
       -0.15852958 0.8831554 0.20329842 -0.0013755749
0001f0 b5 55 ab 3d 68 35 f0 bb 68 7d ab bb 37 f5 26 3e
       0.08365957 -0.0073305853 -0.0052334554 0.1630448
000200 4c df 5f 3f 4c 21 de be ca a4 f5 be 2e 45 d5 bd
       0.874501 -0.43384778 -0.47977287 -0.104135856
000210 26 7a 11 bf fe 22 69 be 17 f2 d2 ba c2 23 28 ba
       -0.5682701 -0.22767255 -0.0016093877 -0.000641402
000220 a1 4b 4d bc 0d 67 07 bf 79 c3 44 ba db 51 e3 3d
       -0.012530238 -0.5289162 -0.00075059343 0.11099597
000230 30 8c d4 bb 95 2d 3a bc b9 e3 ee bc 61 51 47 3f
       -0.006486438 -0.011363407 -0.029161321 0.7785855
000240 30 af a8 3d 45 67 2d be 89 b2 ee ba cd f8 3d bc
       0.08236539 -0.16933925 -0.0018211167 -0.011594963
000250 01 ed 93 3e f0 04 70 bc 80 2d 99 3f 19 46 6a bc
       0.28891757 -0.014649615 1.196701 -0.014298939
000260 30 e0 56 39 09 a8 27 bb ce 61 78 bc ce 31 10 bb
       0.00020492147 -0.0025582334 -0.015160037 -0.0022002342
000270 59 01 5b bd 01 31 b1 be 98 f9 45 3a 1e e0 c4 3e
       -0.053468082 -0.346077 0.0007552146 0.38452238
000280 43 00 3c bc 70 a5 cf bd c2 51 71 3d 95 a3 55 bc
       -0.011474672 -0.101389766 0.05891586 -0.013039489
000290 50 93 12 bc 0c 4a 97 b9 cb 82 46 bc 14 87 82 bc
       -0.008946255 -0.00028856134 -0.012116144 -0.01593355
0002a0 22 c7 14 bc af 82 8d bb bd ab 80 3f 70 19 da 3a
       -0.00908068 -0.004318557 1.005241 0.0016639661
0002b0 c9 9d 3f bc 79 77 09 3f be 77 49 bc 7b 98 ab 3e
       -0.011695334 0.53697926 -0.012296615 0.3351477
0002c0 89 8f 26 bb fe 5d 06 bf 3c d0 29 bb 55 25 81 3d
       -0.0025415143 -0.5248717 -0.002591147 0.06305949
0002d0 95 b4 a1 3f 5b 4a da ba 6c b5 2f bc 88 19 1f ba
       1.2633234 -0.001665424 -0.010724407 -0.0006069173
0002e0 38 9d 0b 3f 98 2b 18 bd df dc 4e bc 12 fd 03 bf
       0.5453677 -0.03715095 -0.012625902 -0.5155803
0002f0 2c c4 04 3f f8 57 f9 3a 83 20 56 bc 5b 07 c1 3d
       0.51861835 0.0019023409 -0.013069275 0.09425231
000300 06 77 73 3e 26 b8 26 bc 1e f2 2a 3e 64 e8 20 bf
       0.23775873 -0.01017574 0.16693923 -0.628546
000310 63 2a 66 bc 0f ae bc 3d 33 4f 61 bc 96 47 f4 ba
       -0.014048192 0.092128865 -0.013751793 -0.0018637057
000320 fd 07 b8 be d8 60 3c 3b b4 d9 f9 bd 38 f7 49 be
       -0.35943595 0.0028744247 -0.12199727 -0.19723213
000330 a5 8f 9f 3d a7 5c af 3e 31 2c 84 3e c9 35 ff be
       0.0779107 0.34250376 0.25814965 -0.49845722
000340 58 6a e6 bb 84 4c ca 3a ab 04 0c bd 6f e7 ca be
       -0.00703172 0.001543418 -0.03418414 -0.39629695
000350 64 01 d7 3a 1b 42 80 bd a5 01 3d bc 0d 23 4a bc
       0.0016403613 -0.062626086 -0.011536037 -0.012337458
000360 a4 c9 4e 3a 1a 97 34 bc fa 7f 9c ba 32 b3 26 bc
       0.0007888323 -0.011022354 -0.0011939995 -0.010174559
000370 75 e8 17 bc 44 2b 08 bc 7a 94 50 3e 43 c1 d9 3f
       -0.009271731 -0.008311097 0.2036914 1.7012104
000380 54 6d 50 3f 36 aa 77 bc e0 1b 9a bd f9 ce 37 bd
       0.8141682 -0.015116265 -0.07524848 -0.04487512
000390 33 40 8c 3c 37 b3 53 bc 75 0e 7f be c8 83 b1 bd
       0.017120456 -0.012921146 -0.24907859 -0.086677134
0003a0 1b 11 41 bc 4d d7 14 3e 4a 78 db ba aa 3d 04 3b
       -0.011783863 0.14535256 -0.0016744223 0.0020178356
0003b0 c8 ad eb b9 33 17 d7 3a f9 b4 47 3b c3 2b 79 be
       -0.0004495217 0.0016410112 0.0030472858 -0.243331
0003c0 3a 1f bf bc c5 72 2c 3e 7a 23 54 bc cd d8 b3 be
       -0.02333032 0.16840656 -0.012947911 -0.35126343
0003d0 ee d0 0c be d6 be 31 be ba a9 de 3f c7 2d 89 3f
       -0.13751575 -0.17357954 1.7395546 1.0717095
0003e0 1f aa 09 bb c8 29 2c bc d4 7c 11 3a c0 31 d4 be
       -0.002100594 -0.010508008 0.0005549912 -0.41444206
0003f0 df 2a 8c 3f 13 2a d4 bc 77 b1 ce 3f c8 ae 56 bc
       1.0950583 -0.025898969 1.6147908 -0.013103195

fc3.bias f4 [12]
000000 0c 0a 99 bd a3 4d ab bd 45 d6 aa 3c cb 00 b7 bd
       -0.074726194 -0.083644174 0.020854125 -0.08935698
000010 45 e6 e6 bc ca 8a 15 be 5d e9 72 bd 61 9c b0 bd
       -0.028185973 -0.14603725 -0.059304584 -0.08623577
000020 94 85 d9 bc e7 10 be bd 78 ec 9b 3d 87 49 1d 3c
       -0.026552953 -0.092805676 0.07613462 0.00960005
