algorithm/pytorch-ddpg-master/output/ParallelCableDrivenRobot-v1-run10/critic.pkl (torch, 537167 bytes, 5 tensors)

fc1.weight f4 [400, 23]
-0.028368378 0.041353364 0.020371903 -0.042723786 -0.0099723935 0.002697695 -0.012484539 0.0025256053
0.0030819476 -0.015043788 -0.006060738 0.0014104545 -0.017398816 0.0051052347 0.035842147 -0.0052651353
-0.030209238 -0.027322859 -0.046343207 -0.024536138 0.008289941 -0.020099496 -0.03456518 -0.018293846
-0.04825556 0.00052725524 0.010068588 -0.017648757 0.040593464 -0.030549735 0.020636138 -0.01997893
-0.02621395 0.0023930185 0.0002662018 0.0062120557 0.021413479 0.00120629 -0.020624567 0.017810706
0.0061052516 -0.0469397 0.029102195 -0.03800676 0.0263439 -0.04555819 0.025544439 0.040732186
-0.04449993 0.006550312 0.0030837543 -0.030934453 0.015911255 0.0403598 -0.0028239377 -0.017039914
-0.0064241663 0.036144774 0.037988085 0.010368444 -0.004931938 0.018094342 0.026741806 -0.015684105
0.01821262 -0.0162506 0.047073897 0.021383975 0.025986206 0.16071504 0.8998957 1.154219
4.021753 -3.039051 1.0685036 0.120257795 0.879606 -1.508954 -3.8442824 -18.823317
-0.09142199 -3.4158125 0.118639104 8.308802 2.8190815 -0.2213021 -4.3232226 2.4141817
-3.6931584 6.1492 3.1471858 2.3680909 -0.04752657 0.036011327 -0.02901178 0.029338147
-0.040835075 2.039224e-05 0.026188377 -0.033252835 0.015893538 -0.0015485957 -0.04264323 -0.038528435
-0.041184902 0.042524625 -0.0015866831 0.014386382 -0.0440257 0.026702452 0.012043886 0.024676356
0.0016264692 0.047586206 -0.038398404 -0.021013144 -0.67290103 0.3115605 0.80945784 -0.8181567
0.4193545 -0.028417643 0.3256131 -0.2189139 -0.1406182 -0.6216886 0.5831755 -0.35628352
-0.0005404332 -0.67991334 0.29860964 0.5786421 -0.6962488 0.76787204 -0.3178285 -0.6406607
0.34477013 0.78370297 -0.003280878 0.0127653815 -0.018206038 0.0103608295 0.0012331717 0.049377944
0.015782531 -0.0088895485 0.03850833 0.045334402 -0.0021970868 -0.027681028 0.0034258738 0.006537307
0.03306408 -0.043352354 -0.009847522 0.049016606 -0.042664643 0.032296512 -0.024283772 -0.047419887
0.001149226 -0.058972206 0.6680034 0.7496293 0.05842934 0.70428365 -0.29097757 -0.09125883
1.0079623 -0.47290993 0.09901556 0.20051365 -0.27900594 -0.4180348 -0.07131164 -1.4034197
0.51853657 -0.30241758 -0.0005451475 -0.695309 0.4151292 -1.2153027 -0.40352973 -0.61533713
-0.11342499 -0.6055085 -0.16419348 0.9650589 -0.77190554 0.12788385 -0.054251056 0.40755317
-0.37526754 -0.30908605 -0.7793547 0.48708084 0.15192772 -0.10391739 -0.114812806 -0.17810406
0.55483824 -0.8528353 0.77311283 -0.16476475 -0.23807408 0.15996723 0.73151165 -0.0014557131
-0.047828652 0.04917309 0.030778024 0.0067937076 0.04472829 0.024292994 0.007622432 0.03198543
0.0293465 0.012235574 -0.045434322 0.03436343 -0.04336859 -0.037731804 0.015175071 -0.021883834
-0.01978302 -0.019974465 -0.027015125 -0.003468223 -0.04928586 0.014935393 0.03571524 0.005401522
-0.031389296 0.026134621 0.025184516 -0.027222676 -0.03860106 0.020788293 0.047765557 -0.0057130046
-0.04327246 -0.027440686 -0.0077209175 0.0088406615 -0.045972563 0.017403577 0.037675086 -0.032471843
-0.038841993 -0.033365138 0.021380339 -0.0035541244 0.0063903704 0.02655874 0.04238629 0.048857022
00000000: cd64 e8bc 2562 293d fae2 a63c 23ff 2ebd
00000010: 4063 23bc d0cb 303b f48b 4cbc a084 253b
00000020: 80fa 493b 387a 76bc 2899 c6bb 00df b83a
00000030: f687 8ebc d049 a73b 37cf 123d 2887 acbb
00000040: 5d79 f7bc 30d4 dfbc 60d2 3dbd 0300 c9bc
00000050: 88d2 073c b3a7 a4bc 3894 0dbd fadc 95bc
00000060: 9fa7 45bd 8037 0a3a b8f6 243c 2094 90bc
00000070: 5545 263d 7043 fabc 1e0d a93c daaa a3bc
00000080: a3be d6bc 30d4 1c3b 0091 8b39 808e cb3b
00000090: 526b af3c 601c 9e3a daf4 a8bc c2e7 913c
000000a0: 900e c83b d843 40bd ba67 ee3c faac 1bbd
000000b0: 2acf d73c 3a9b 3abd 9242 d13c cbd6 263d
000000c0: 8f45 36bd 00a4 d63b d018 4a3b 406a fdbc
000000d0: 5258 823c 5150 253d d011 39bb 4a97 8bbc
000000e0: d081 d2bb 8b0c 143d 6599 1b3d 68e0 293c
000000f0: 189c a1bb 963a 943c a211 db3c f47b 80bc
00000100: a232 953c fa1f 85bc 8fd0 403d 722d af3c
00000110: 06e1 d43c 7c92 243e 915f 663f 73bd 933f
00000120: 33b2 8040 d07f 42c0 bac4 883f b849 f63d
00000130: dc2d 613f 6825 c1bf b908 76c0 2796 96c1
00000140: 743b bbbd ac9c 5ac0 0ff9 f23d daf0 0441
00000150: d56b 3440 059d 62be d757 8ac0 f481 1a40
00000160: b55c 6cc0 3fc6 c440 7e6b 4940 cd8e 1740
00000170: 38ab 42bd 9d80 133d 1daa edbc 8e56 f03c
00000180: ae42 27bd 0010 ab37 0289 d63c 2034 08bd
00000190: 2a33 823c 40fa caba abaa 2ebd fecf 1dbd
000001a0: 80b1 28bd 4d2e 2e3d 40f8 cfba dcb4 6b3c
000001b0: 4b54 34bd 1abf da3c b853 453c 1226 ca3c
000001c0: 402f d53a c1e9 423d a547 1dbd c223 acbc
000001d0: 3e43 2cbf dc84 9f3e a138 4f3f b872 51bf
000001e0: a2b5 d63e 1ecc e8bc c3b6 a63e f72a 60be
000001f0: 38fe 0fbe fc26 1fbf fd4a 153f cb6a b6be
00000200: dcab 0dba cd0e 2ebf 5de3 983e e321 143f
00000210: 5d3d 32bf 4393 443f 6bba a2be 5702 24bf
00000220: b685 b03e c2a0 483f 0004 57bb e425 513c
00000230: d424 95bc 78c0 293c 60a2 a13a 8740 4a3d
00000240: 5e4a 813c 78a5 11bc e9ba 1d3d 91b0 393d
00000250: 00fd 0fbb 53c3 e2bc a084 603b e836 d63b
00000260: 336e 073d 3d92 31bd 8057 21bc a3c5 483d
00000270: 1fc1 2ebd 5949 043d c3ee c6bc 5b3b 42bd
00000280: a0a1 963a d78c 71bd 4502 2b3f b5e7 3f3f
00000290: 9b53 6f3d ef4b 343f 03fb 94be e9e5 babd
000002a0: e904 813f 4021 f2be abc8 ca3d 7353 4d3e
000002b0: ded9 8ebe a808 d6be d60b 92bd 42a3 b3bf
000002c0: d0be 043f 7ad6 9abe 3be8 0eba c5ff 31bf
000002d0: d18b d43e 0a8f 9bbf 739b cebe bc86 1dbf
000002e0: 5c4b e8bd 9b02 1bbf 5622 28be 1a0e 773f
000002f0: 9a9b 45bf fcf3 023e 5b36 5ebd cfaa d03e
00000300: 1123 c0be 8740 9ebe ca83 47bf a962 f93e
00000310: f192 1b3e a4d2 d4bd fa22 ebbd e960 36be
00000320: e109 0e3f 6a53 5abf b9ea 453f 17b8 28be
00000330: b1c9 73be 73ce 233e 5944 3b3f a0cd beba
00000340: fae7 43bd b969 493d 3222 fc3c c09d de3b
00000350: 0335 373d 1a02 c73c 98c5 f93b 2703 033d
00000360: 1268 f03c b877 483c 5719 3abd abc0 0c3d
00000370: 43a3 31bd aa8c 1abd dca0 783c ba45 b3bc
00000380: 0010 a2bc 7da1 a3bc d34e ddbc 204b 63bb
00000390: f8df 49bd 94b3 743c 254a 123d 40ff b03b
000003a0: 1092 00bd 4618 d63c c24f ce3c 1702 dfbc
000003b0: 251c 1ebd 364c aa3c d1a5 433d 2834 bbbb
000003c0: 773e 31bd 4acb e0bc c0ff fcbb 6cd8 103c
000003d0: ba4d 3cbd f291 8e3c 3151 1a3d 3201 05bd
000003e0: c818 1fbd e2a9 08bd d225 af3c 50ec 68bb
000003f0: 5066 d13b b791 d93c 3f9d 2d3d 4d1e 483d

fc1.bias f4 [400]
-0.012884185 -0.20820919 -0.17390475 0.22014375 -0.08784 -0.17655408 -0.18223631 -0.19864236
0.0678953 -0.060049012 -0.1499316 -0.013189508 -0.073984146 -0.113240324 0.028571375 -0.12952662
0.041277386 0.07995382 0.013173491 -0.046137173 0.121634014 -0.073153675 0.13000013 -0.17177938
0.15770853 -0.049494416 0.12360963 -0.14438269 0.034089338 -0.09718481 0.119189754 -0.084234305
-0.06548305 0.106294625 -0.11549428 -0.13875091 0.039500587 -0.17600955 -0.021139607 -0.043659166
-0.15294361 -0.05269815 0.09257233 0.045913827 -0.071521595 0.08672599 0.0006758404 -0.011263937
-0.15072836 -0.16745421 -0.1172682 0.008814856 -0.12051681 -0.13775863 -0.12856768 -0.074500784
0.025738329 -0.091709115 -0.013151668 0.034904316 -0.060841992 -0.088212006 -0.19000062 -0.08218971
0.1371817 0.097140506 0.09334646 0.13254115 0.05076373 -0.15207542 -0.15060693 -0.18628438
-0.12909791 -0.08306727 -0.067266874 0.092906535 -0.04836474 -0.083383 -0.17906609 -0.07885198
-0.047988936 -0.11642399 -0.16145381 -0.21232858 -0.07555883 -0.01231522 0.5427567 0.1459929
-0.14228031 -0.16469884 -0.021626584 0.11941664 -0.15670496 -0.16261064 0.017934218 -0.16732734
-0.09950013 -0.032595932 0.03895056 -0.051910922 0.017522335 -0.201557 -0.10421455 -0.056833334
-0.033747822 -0.103314504 -0.024308974 -0.025642008 0.09378941 0.10032114 -0.13159166 0.013739556
-0.14970052 -0.05166175 0.17222653 0.13002117 0.13958491 -0.10348748 -0.07489161 -0.047495253
-0.016209375 -0.024609325 0.15215677 -0.0038126141 -0.07552623 -0.106443994 0.12008555 0.23269604
0.05699969 0.03432162 0.49407873 -0.13052425 0.027549326 -0.042810217 0.010378829 -0.06517203
-0.16849428 -0.043562815 -0.13510428 -0.09385983 -0.10902658 -0.17477673 0.0736602 0.13146524
-0.20532417 -0.14050952 -0.101247415 -0.04125951 -0.07789845 0.060465228 -0.05471909 -0.1876098
-0.106644236 0.090244636 -0.05813481 -0.06349279 -0.10084894 0.1554436 0.043173123 0.0603301
0.036363773 -0.08024424 0.027751355 -0.016309002 -0.14359397 0.054355934 0.13857278 0.0891829
-0.1480835 0.03810616 0.13224567 0.022350911 0.07736266 -0.07388649 -0.13747793 -0.14392236
-0.1285227 0.04742439 -0.12563872 0.056084022 0.087614976 -0.08894767 -0.21728005 -0.17308238
0.047706027 -0.17111874 0.0932322 -0.11106764 -0.05256941 -0.020916 0.11816834 -0.073798135
-0.010081552 -0.027942305 -0.2423836 0.15857372 0.08340992 -0.1853862 -0.10337585 -0.17443812
0.06420491 0.18885069 -0.04180462 -0.10388495 0.030400792 -0.118764736 -0.17055227 -0.04376084
0.21360399 -0.17833216 0.063127905 0.1884939 -0.1407609 0.028622076 0.033480063 -0.018137628
0.107686765 -0.10272043 -0.16889499 0.11483185 -0.16293101 0.07088826 0.1536775 -0.09396883
0.12694319 -0.18474253 -0.021574851 -0.0042803288 -0.0036462871 -0.12898277 -0.052035734 0.071759485
0.019909909 0.19770497 0.122621946 0.07565528 0.08206271 -0.098088 -0.20553972 0.014494787
-0.13386567 0.01968661 -0.082259044 -0.050390806 0.12493784 -0.15029645 -0.12853059 -0.10921719
0.064819664 0.043357022 0.12047799 -0.15622789 -0.09152977 -0.1517504 -0.17851767 -0.036251176
00000000: 3018 53bc ca34 55be 1614 32be 5d6d 613e
00000010: 75e5 b3bd 98ca 34be 289c 3abe e768 4bbe
00000020: b10c 8b3d f4f5 75bd ab87 19be ce18 58bc
00000030: 0085 97bd 8bea e7bd 840e ea3c a0a2 04be
00000040: 7a12 293d d4be a33d a0d5 573c 55fa 3cbd
00000050: 411b f93d 98d1 95bd c11e 053e efe6 2fbe
00000060: 587e 213e a8ba 4abd 0c27 fd3d 0ed9 13be
00000070: 43a1 0b3d d408 c7bd c219 f43d 0983 acbd
00000080: fa1b 86bd ffb0 d93d 4488 ecbd b814 0ebe
00000090: 5ecb 213d d93b 34be f82c adbc f4d3 32bd
000000a0: 409d 1cbe 04da 57bd 9096 bd3d 2310 3c3d
000000b0: ea79 92bd 659d b13d e22a 313a 608c 38bc
000000c0: 8958 1abe 1e79 2bbe 4f2a f0bd 306c 103c
000000d0: 84d1 f6bd 9910 0dbe 3fa7 03be de93 98bd
000000e0: 30d9 d23c fdd1 bbbd 187a 57bc d4f7 0e3d
000000f0: 7435 79bd 7fa8 b4bd 868f 42be 1453 a8bd
00000100: 5c79 0c3e 9af1 c63d 6e2c bf3d deb8 073e
00000110: a1ed 4f3d a9b9 1bbe b438 1abe 55c1 3ebe
00000120: 3e32 04be 2c1f aabd 37c3 89bd c845 be3d
00000130: 1b1a 46bd b5c4 aabd 1a5d 37be 267d a1bd
00000140: 0c90 44bd b36f eebd 2654 25be aa6c 59be
00000150: 96be 9abd c7c5 49bc 1af2 0a3f 2a7f 153e
00000160: eeb1 11be d0a6 28be 3c2a b1bc b690 f43d
00000170: 4477 20be 6783 26be c8ea 923c dc57 2bbe
00000180: b9c6 cbbd 5083 05bd 9f8a 1f3d 8ca0 54bd
00000190: 008b 8f3c f564 4ebe 706e d5bd 12ca 68bd
000001a0: 283b 0abd 8e96 d3bd 9d23 c7bc 300f d2bc
000001b0: aa14 c03d 2b75 cd3d f7bf 06be e01b 613c
000001c0: 184b 19be 459b 53bd 275c 303e 4524 053e
000001d0: 59ef 0e3e 3ef1 d3bd c660 99bd 628a 42bd
000001e0: 86c9 84bc 7f99 c9bc fcce 1b3e 0ddd 79bb
000001f0: 7fad 9abd 4fff d9bd 6aef f53d df47 6e3e
00000200: 8278 693d d494 0c3d e3f7 fc3e 26a8 05be
00000210: 20af e13c c459 2fbd f70b 2a3c ea78 85bd
00000220: c489 2cbe ec6e 32bd c758 0abe 9539 c0bd
00000230: 5449 dfbd acf8 32be 29db 963d d39e 063e
00000240: 8040 52be bae1 0fbe ce5a cfbd bbff 28bd
00000250: 3989 9fbd 63aa 773d 2021 60bd c91c 40be
00000260: 4b68 dabd 2ed2 b83d c41e 6ebd 8208 82bd
00000270: e489 cebd 9b2c 1f3e 4dd6 303d b21c 773d
00000280: 2ef2 143d 1857 a4bd cf56 e33c 759a 85bc
00000290: 4c0a 13be 54a4 5e3d 06e6 0d3e 86a5 b63d
000002a0: 33a3 17be 3415 1c3d 696b 073e 4219 b73c
000002b0: 5070 9e3d cd51 97bd 04c7 0cbe 6260 13be
000002c0: 749b 03be 1440 423d 70a7 00be 5cb8 653d
000002d0: 7b6f b33d 322a b6bd a97e 5ebe 823c 31be
000002e0: 6567 433d c039 2fbe 86f0 be3d 6e77 e3bd
000002f0: 0653 57bd 0858 abbc 3e02 f23d 7a23 97bd
00000300: 182d 25bc 43e7 e4bc 6833 78be 2661 223e
00000310: d2d2 aa3d e1d5 3dbe b8b6 d3bd e89f 32be
00000320: dd7d 833d 1362 413e 523b 2bbd a2c1 d4bd
00000330: 150b f93c ed3a f3bd 41a5 2ebe 913e 33bd
00000340: 01bb 5a3e b59c 36be 3449 813d 8b04 413e
00000350: a023 10be d878 ea3c 6422 093d 5d95 94bc
00000360: e18a dc3d 175f d2bd cff2 2cbe f62c eb3d
00000370: 63d7 26be dd2d 913d a25d 1d3e bb72 c0bd
00000380: 65fd 013e 252d 3dbe bebd b0bc 0042 8cbb
00000390: 8cf6 6ebb 0f14 04be 6c23 55bd a3f6 923d
000003a0: 1b1a a33c 2c73 4a3e 3721 fb3d 28f1 9a3d
000003b0: 7e10 a83d 5de2 c8bd 0179 52be 8b7b 6d3c
000003c0: 1514 09be d045 a13c 6e77 a8bd 9766 4ebd
000003d0: 69df ff3d 50e7 19be 869d 03be 43ad dfbd
000003e0: 2cc0 843d 2297 313d 2abd f63d 34fa 1fbe
000003f0: f673 bbbd 7564 1bbe 56cd 36be 1d7c 14bd

fc2.weight f4 [300, 412]
0.040518403 0.024364077 -0.025675584 0.74128693 -0.023893837 0.048866592 0.054334708 0.12892553
0.05447137 -0.0020145774 0.003682118 -0.022829719 0.048415355 0.021716803 0.1669444 0.028683677
0.12978728 -0.552995 0.043488845 0.118688025 0.057897583 0.03805296 -3.6782923 -0.0435061
-0.25203425 -0.013637383 -0.0037212498 0.027966887 -2.3579667 0.030206986 -0.024490789 0.10515974
0.0032400452 0.05723433 -1.0193533 0.016901158 0.07166949 -0.03505017 0.2526774 0.010566338
0.012433581 0.009668797 0.12916899 -0.009446025 0.08568087 0.13013192 -0.6964872 -0.026048943
-0.0037353337 0.043687657 0.008629434 0.038261987 0.12043777 0.0079114735 0.14857696 0.0010644346
-0.055457816 0.017265946 0.016917534 0.033288985 -0.050784674 -1.1853839 0.044738136 0.033432752
0.04035731 -0.011884667 -2.4805934 0.06386782 0.0007193302 0.15137589 -0.0069683567 -0.019445553
-0.017777305 0.050578207 0.0295616 -0.040049233 0.1103254 0.039702613 0.016053468 0.044628933
0.05235403 0.05452783 -0.0015676655 -0.8498746 -0.033443443 0.084477775 0.20473403 0.24993214
0.011021987 -0.28083962 0.06458937 0.07151339 0.009414405 0.04227808 -0.02823387 -0.040004387
0.021721356 0.042863674 0.20330347 -2.4798763 0.0029854365 -0.024020474 -0.0060144328 0.08409509
-0.032176506 0.014160648 0.07447819 0.020438105 -1.5403713 -0.0010599948 0.01595223 0.0438627
0.016874865 0.054672055 0.7358631 -0.07716343 0.051060893 0.12678295 0.02285181 -0.62421846
0.055538226 0.0026705547 0.05237321 0.09816614 0.08353868 0.022792112 -2.8359876 0.4907137
0.072820455 -0.055007562 0.24407253 0.0999352 -0.04983787 0.01856593 -1.4440212 0.014484897
0.035599835 0.053478435 -0.017856877 -0.0010844991 0.058370344 -0.60944414 0.13406214 0.3497855
0.033660904 0.03827335 -0.009076033 -0.14453723 0.12543829 0.08480081 0.03454788 0.0064655636
-0.024714142 0.109249 0.0428735 0.03531849 0.05635864 0.0070182523 0.022455757 0.0011488302
0.05845799 -0.03249541 0.08770974 -0.010796806 -0.0034186468 -0.99920934 0.107002616 0.09054589
0.013388351 0.020037055 0.025109831 0.054355256 0.110460036 0.047752377 -0.015306972 0.011504408
-0.027622156 -0.034611985 -0.01663918 0.13967067 0.17161892 -0.0207883 -1.3598253 0.03663835
0.04979575 0.055523694 0.11227456 0.10076515 0.0842295 0.036963493 0.036807425 -0.03797689
0.16702022 -3.504591 -0.9041851 0.08532215 0.049471926 0.03623818 -0.0046024397 0.01012931
0.06597171 0.39133775 0.14190467 0.03602702 0.0440281 -0.047478788 0.001196485 -0.90799254
0.64465433 -0.032826558 0.13085148 -0.15874395 0.09483268 0.109476775 -0.021980435 0.15911628
-0.9886509 0.10154702 -0.010940261 -0.21449302 0.035428002 0.1000078 -0.2530006 -0.026703425
-2.8444276 0.05457744 0.121592075 0.045772053 0.073555194 0.009311234 -0.02436024 -1.6219401
0.04281395 0.16294983 0.109112225 -2.0126448 -0.023302462 -0.016805355 0.020942926 0.049799427
-0.009056721 0.0028719455 -0.008175265 -0.0045539453 0.07502578 0.0451798 -0.021363672 -0.053699613
0.09877919 0.107089445 0.047427766 -0.02056618 0.12587613 0.026634142 -0.01839545 0.13165231
00000000: a0f6 253d 2c97 c73c 9a55 d2bc fbc4 3d3f
00000010: 02bd c3bc 5628 483d 128e 5e3d 0e05 043e
00000020: 5f1d 5f3d 0007 04bb b04f 713b 6405 bbbc
00000030: 2e4f 463d 70e7 b13c 79f3 2a3e 08fa ea3c
00000040: f5e6 043e 1591 0dbf 5c21 323d b512 f33d
00000050: 0426 6d3d 6cdd 1b3d 2469 6bc0 7433 32bd
00000060: a20a 81be 546f 5fbc 36e0 73bb d01a e53c
00000070: ede8 16c0 a474 f73c e8a0 c8bc fd5d d73d
00000080: f056 543b 8b6e 6a3d 2b7a 82bf 4c74 8a3c
00000090: 74c7 923d c490 0fbd ef5e 813e 6f1e 2d3c
000000a0: 38b6 4b3c e069 1e3c e044 043e 80c3 1abc
000000b0: 7479 af3d 4d41 053e fc4c 32bf 9864 d5bc
000000c0: 80cc 74bb d4f1 323d 7862 0d3c 9ab8 1c3d
000000d0: 14a8 f63d 209f 013c 8f24 183e 8084 8b3a
000000e0: bc27 63bd 5071 8d3c a496 8a3c 085a 083d
000000f0: 9703 50bd a9ba 97bf 563f 373d c8f0 083d
00000100: b54d 253d e8b7 42bc 0bc2 1ec0 22cd 823d
00000110: 6f91 3c3a 4802 1b3e d056 e4bb 484c 9fbc
00000120: b6a1 91bc 182b 4f3d 2b2b f23c aa0a 24bd
00000130: 49f2 e13d 359f 223d 9082 833c d4cc 363d
00000140: 2e71 563d 9358 5f3d 207a cdba 6291 59bf
00000150: fefb 08bd af02 ad3d cca5 513e 36ee 7f3e
00000160: 9095 343c 36ca 8fbe 6e47 843d 9d75 923d
00000170: e03e 1a3c c82b 2d3d b84a e7bc a4db 23bd
00000180: fcf0 b13c d291 2f3d c92e 503e 4bb6 1ec0
00000190: 50a7 433b 96c6 c4bc b814 c5bb 0c3a ac3d
000001a0: 83cb 03bd 1002 683c 0588 983d d06d a73c
000001b0: e32a c5bf 86ef 8aba 40ae 823c 60a9 333d
000001c0: 283d 8a3c ceef 5f3d 8661 3c3f dc07 9ebd
000001d0: 3a25 513d 64d3 013e b833 bb3c c8cc 1fbf
000001e0: 0d7c 633d 7904 2f3b 4b85 563d 540b c93d
000001f0: 5416 ab3d 86b6 ba3c d280 35c0 d33e fb3e
00000200: e422 953d 9c4f 61bd 26ee 793e d3aa cc3d
00000210: cb22 4cbd 9417 983c b0d5 b8bf 1052 6d3c
00000220: 22d1 113d 340c 5b3d 9648 92bc c025 8eba
00000230: be15 6f3d 8804 1cbf 9647 093e 1617 b33e
00000240: 04e0 093d 84c4 1c3d a4b3 14bc 9101 14be
00000250: e572 003e 0cac ad3d 1482 0d3d 14dd d33b
00000260: 5075 cabc f1bd df3d 209c 2f3d 1faa 103d
00000270: 51d8 663d 5ef9 e53b 23f5 b73c 5894 963a
00000280: a571 6f3d e819 05bd 2aa1 b33d 16e5 30bc
00000290: 600b 60bb 2fcc 7fbf 3024 db3d 2070 b93d
000002a0: d05a 5b3c c024 a43c 22b3 cd3c 9ea3 5e3d
000002b0: df38 e23d ff97 433d 18ca 7abc fc7c 3c3c
000002c0: dc47 e2bc 4cc5 0dbd e44e 88bc d405 0f3e
000002d0: dfbc 2f3e 3a4c aabc c10e aebf 1812 163d
000002e0: a1f6 4b3d d06c 633d 34f0 e53d f55d ce3d
000002f0: 8480 ac3d 0867 173d 62c3 163d a88d 1bbd
00000300: 5907 2b3e 384b 60c0 ad78 67bf 61bd ae3d
00000310: 13a3 4a3d 7c6e 143d 10d0 96bb 68f5 253c
00000320: 2d1c 873d 6c5d c83e 754f 113e 1291 133d
00000330: cf56 343d 1e79 42bd 60d3 9c3a 3372 68bf
00000340: 1108 253f 2475 06bd eefd 053e c68d 22be
00000350: a337 c23d 5c35 e03d 5010 b4bc 61ef 223e
00000360: 3a18 7dbf e2f7 cf3d c83e 33bc 0fa4 5bbe
00000370: f41c 113d e4d0 cc3d 4b89 81be 24c1 dabc
00000380: 1a0b 36c0 988c 5f3d 4405 f93d 7a7b 3b3d
00000390: 1ba4 963d 258e 183c 208f c7bc bc9b cfbf
000003a0: ae5d 2f3d 52dc 263e 3b76 df3d 2ccf 00c0
000003b0: cee4 bebc 62ab 89bc 8090 ab3c 7cfa 4b3d
000003c0: a462 14bc 4037 3c3b 8cf1 05bc 4339 95bb
000003d0: 1ea7 993d 740e 393d de02 afbc 20f4 5bbd
000003e0: be4c ca3d b651 db3d 9e43 423d 687a a8bc
000003f0: ace5 003e d82f da3c 0eb2 96bc ddcf 063e

fc2.bias f4 [300]
0.2996914 -0.3059457 0.14600159 -0.052706726 -0.119941235 -0.18197578 0.094369546 -0.4140371
0.16998275 -0.065845914 -0.3298307 -0.5154997 -0.30770707 1.3790395 -0.09528251 0.12273898
0.9152501 -0.28236675 -0.24166471 0.48661304 0.77538013 0.53992885 1.5389589 0.04872708
-0.7344201 0.8739375 -0.10285564 -0.089074194 0.2704471 0.32181814 0.7842518 -0.000701893
0.91870064 -0.29479966 0.24613792 0.38329422 0.2736063 -0.3398037 0.84693336 -0.34255707
-0.6016792 -0.29417953 0.039542895 0.4590722 0.5310296 0.9071834 0.9553051 0.84988034
-0.1003572 -0.12972018 -0.3500192 0.33204487 -0.76136494 -0.40377313 1.2623158 -0.14938754
0.30685443 0.34556833 0.07585194 0.16085804 0.30011833 -0.32393777 -0.18043676 0.9659361
0.16961107 0.43845323 0.53442127 0.3114436 0.8397874 0.9665677 -0.15270908 0.56411725
0.53250813 0.896757 0.65999717 0.5207416 -0.5280445 -0.19134593 -0.12000175 -0.10872346
-0.2539707 -0.4530742 0.13137442 0.1269685 0.4639167 1.9052086 0.05958615 0.6120286
0.53303784 1.0094153 -0.045482658 0.540258 -0.49064544 0.19015451 -0.2847209 0.941342
-0.5562318 0.05122403 -0.06641939 0.4785409 -0.23422542 -0.21133988 0.8974786 -0.2719358
1.8668115 0.9599982 -0.7773618 -0.11620279 0.53011626 0.167554 0.13954216 0.6121027
1.3071214 1.4473681 -0.24902639 0.12670268 0.167857 0.5136359 -0.44300774 0.44870922
0.5152159 0.076959185 0.9250229 1.5798044 -0.37222794 0.93892556 0.91013354 -0.5322384
-0.23360446 0.27470046 -0.17084852 -0.10764708 0.48079023 -0.09647525 -0.22262755 0.709461
0.1279172 -0.9457839 -0.73999137 -0.052572343 -0.28170705 0.33594096 0.7901442 0.28285876
-0.10975685 0.20981894 -0.29395437 0.07748095 0.1187953 0.35435852 -0.17204171 0.1465299
0.34921944 0.8161667 -0.4878041 -0.1479525 0.329788 0.40827927 0.34873608 0.40488738
-0.65360004 -0.09853646 -0.4264591 0.29567963 -0.42249474 0.06412029 -0.16018991 0.29055375
-0.15461594 -0.17638962 -0.043056462 -0.07416691 -0.002767448 -0.26703548 -0.057143036 -0.6745363
0.48219815 -0.1627115 0.12637895 -0.2517631 -0.5484406 0.16165169 0.6029408 0.8940796
0.8911359 0.4444053 0.12368636 0.57332695 0.5551315 -0.5462398 0.051047277 -0.69205624
0.18965325 -0.1170796 1.0276579 0.91667694 -0.22051679 -0.40519986 -0.17812194 0.75205576
-0.055711817 0.27621818 0.9314682 -0.40744254 0.30667955 -0.9765132 -0.27122766 -0.5661199
0.97697747 -0.46071815 0.2876327 -0.3353473 0.2334803 0.5705873 -0.05635192 -0.016297713
0.8031164 -0.80366296 0.26121396 0.18321818 0.7696434 -0.020068834 -0.32870933 0.85529745
0.51367986 0.9573954 -0.01566034 0.47148165 0.8774896 0.14534701 0.8219094 0.8483764
-0.26241907 0.8823717 0.85748637 0.93526876 0.12901083 0.5214422 0.5813139 0.42061567
0.36902907 -0.93524 0.54318845 0.19248831 0.17854115 0.88324684 0.8274369 -0.93175954
0.2570862 0.6348073 0.09207823 0.7084012 0.9173076 -0.62628275 -0.4731312 0.005308706
00000000: 2771 993e eaa4 9cbe 7181 153e 02e3 57bd
00000010: c0a3 f5bd dc57 3abe d244 c13d acfc d3be
00000020: f50f 2e3e 39da 86bd 92df a8be caf7 03bf
00000030: c88b 9dbe 5e84 b03f 7a23 c3bd 935e fb3d
00000040: d54d 6a3f 6092 90be f476 77be 5825 f93e
00000050: 507f 463f c738 0a3f 9bfc c43f 0c96 473d
00000060: f502 3cbf 5eba 5f3f faa5 d2bd 886c b6bd
00000070: 0b78 8a3e 59c5 a43e bac4 483f 3eff 37ba
00000080: f72f 6b3f fbef 96be 940b 7c3e 243f c43e
00000090: 2016 8c3e c0fa adbe a0d0 583f a463 afbe
000000a0: a607 1abf b39e 96be bbf7 213d 830b eb3e
000000b0: 8ef1 073f 2c3d 683f e08e 743f c291 593f
000000c0: 1388 cdbd 5ed5 04be b735 b3be c901 aa3e
000000d0: d0e8 42bf 5abb cebe 9093 a13f 0cf9 18be
000000e0: 061c 9d3e 55ee b03e 4358 9b3d f8b7 243e
000000f0: 1ca9 993e 2cdb a5be 6ac4 38be 9747 773f
00000100: 86ae 2d3e f17c e03e d5cf 083f 8975 9f3e
00000110: 4ffc 563f fb70 773f c55f 1cbe fd69 103f
00000120: 7452 083f de91 653f 93f5 283f 524f 053f
00000130: ed2d 07bf 30f0 43be 7ac3 f5bd 68aa debd
00000140: 7308 82be 57f9 e7be 0487 063e 0804 023e
00000150: 7d86 ed3e e0dd f33f 9b10 743d e8ad 1c3f
00000160: 2b75 083f 8534 813f 064c 3abd 594e 0a3f
00000170: e135 fbbe ddb7 423e f0c6 91be cafb 703f
00000180: 3565 0ebf 4ad0 513d e406 88bd 5003 f53e
00000190: cad8 6fbe 7b69 58be 28c1 653f 2b3b 8bbe
000001a0: aef3 ee3f 71c2 753f 2f01 47bf bafb edbd
000001b0: b3b5 073f 4793 2b3e 24e4 0e3e c3b2 1c3f
000001c0: c14f a73f 5c43 b93f c600 7fbe 59be 013e
000001d0: b5e2 2b3e a47d 033f e9d1 e2be 37bd e53e
000001e0: 30e5 033f c79c 9d3d 4dce 6c3f 0837 ca3f
000001f0: a994 bebe 6d5d 703f 83fe 683f c740 08bf
00000200: 0236 6fbe 8aa5 8c3e eaf2 2ebe 1376 dcbd
00000210: 232a f63e d194 c5bd 7af8 63be 3c9f 353f
00000220: bafc 023e e51e 72bf 1370 3dbf 1956 57bd
00000230: e83b 90be 7400 ac3e e446 4a3f ddd2 903e
00000240: 33c8 e0bd c7da 563e 3081 96be 55ae 9e3d
00000250: f34a f33d 7b6e b53e b42b 30be ef0b 163e
00000260: e4cc b23e 4df0 503f 76c1 f9be dc80 17be
00000270: f9d9 a83e fb09 d13e 898d b23e 664d cf3e
00000280: 5552 27bf 7ccd c9bd d958 dabe 5263 973e
00000290: 3b51 d8be 8051 833d d308 24be 76c3 943e
000002a0: a453 1ebe 7b9f 34be f95b 30bd d2e4 97bd
000002b0: 135e 35bb e0b8 88be d10e 6abd 69ae 2cbf
000002c0: ade2 f63e d89d 26be 7c69 013e 18e7 80be
000002d0: 9a66 0cbf 0588 253e 545a 1a3f 67e2 643f
000002e0: 7b21 643f 1789 e33e 464f fd3d 8ec5 123f
000002f0: 191d 0e3f 5fd6 0bbf f316 513d 992a 31bf
00000300: 7634 423e 6ec7 efbd 4b8a 833f 57ab 6a3f
00000310: 27cf 61be 5b76 cfbe 9965 36be ba86 403f
00000320: 1332 64bd 786c 8d3e b374 6e3f 4f9c d0be
00000330: 1a05 9d3e c5fc 79bf 5ade 8abe 3ced 10bf
00000340: 321b 7a3f 40e3 ebbe 9844 933e a4b2 abbe
00000350: 7615 6f3e 0212 123f 45d1 66bd c882 85bc
00000360: 0999 4d3f dbbc 4dbf d6bd 853e 8c9d 3b3e
00000370: 5a07 453f 6567 a4bc 974c a8be c6f4 5a3f
00000380: 8680 033f dd17 753f 1d4a 80bc 0b66 f13e
00000390: 29a3 603f d9d5 143e a868 523f 322f 593f
000003a0: cb5b 86be 1de3 613f 3a84 5b3f c66d 6f3f
000003b0: 6a1b 043e 3c7d 053f fdd0 143f f05a d73e
000003c0: 61f1 bc3e e36b 6fbf 660e 0b3f a81b 453e
000003d0: 7ed3 363e 771c 623f e8d2 533f cb87 6ebf
000003e0: cda0 833e bb82 223f 8393 bc3d c859 353f
000003f0: acd4 6a3f 1154 20bf 413e f2be a7f4 ad3b

fc3.weight f4 [1, 300]
0.7270329 -0.18649004 0.5050074 2.1039484 0.0052051917 1.3685603 0.19655617 0.5899315
0.3720245 0.41219372 -0.52943546 2.388809 2.6878803 3.1202526 0.87351733 0.68700695
0.39924464 0.33967984 -0.14447859 0.8152436 0.19819048 0.52629685 1.5583539 0.48796096
-1.0847737 0.32717615 0.6392806 -0.009109109 -0.67964226 0.6471972 1.7536081 1.5117
0.25284168 1.3617116 0.9161301 0.27204108 0.26559144 2.9430106 0.27164572 0.5823636
-0.4805256 0.07056283 0.590754 0.84888226 0.39863425 0.36505547 0.35841718 0.47059238
1.8524035 1.4657431 2.192637 1.5054047 -9.837159 3.7533479 1.1169976 1.8086063
0.77304274 0.17834465 0.5341398 0.24868761 0.74993783 0.029517211 1.5469787 0.46966907
0.6849112 0.20093219 0.5398428 0.41395503 0.2903361 0.78314203 0.5385506 0.2443872
0.2931247 0.3328749 0.421663 0.17633472 -1.2406327 1.017244 0.63441265 1.3699903
2.5120502 1.7723577 0.72159165 0.6290968 0.30834517 2.395965 0.95857245 1.5189611
0.4289134 1.2629457 0.5221022 0.18490915 -0.23585692 0.6574189 -0.32224438 0.61486465
0.38692734 0.94742423 0.44908315 0.65614814 2.8903215 1.1644293 0.2675761 0.5553828
1.6533732 0.3114139 -4.261341 0.9699752 0.25133768 0.38195315 0.32320112 0.31991518
1.7810116 1.0865247 3.2569604 -0.5918298 0.72815675 0.4495027 -2.2106256 0.4488861
0.08442994 -0.7493666 0.49676752 1.4942918 -0.45449656 0.38124716 0.9447491 -2.3620856
2.5867953 0.70274764 0.13417697 1.3784614 0.15177323 0.41190356 2.5048628 1.2943865
-0.7189699 -1.5124487 -8.070585 0.58039254 2.4874315 0.8388873 0.2588028 0.6275645
-0.4543841 1.2659909 4.8457346 2.1835818 0.7542096 1.8613061 3.1035013 0.30931863
1.3928628 0.50677645 -2.3404958 0.60371333 0.73281777 0.8099291 0.5083659 0.775909
2.251885 -0.030824572 1.8808376 0.75795186 0.47434413 -0.010005547 1.2337536 0.34950256
5.3874364 1.6921332 0.5445585 1.57319 0.5214836 1.3680892 0.0037592584 0.8696632
0.2749902 0.881836 0.5697875 0.59794843 -5.075073 2.7130058 0.62921166 0.3091762
0.24293977 0.8013585 0.32700327 1.3294394 0.25069806 -1.084367 0.63197196 0.8465493
0.09566207 -0.064239256 0.88989294 0.38419113 0.012892833 -0.40764117 -0.044535056 0.16327623
1.7947391 0.53491974 0.3367709 1.2195929 0.38245034 -11.381606 0.7152244 4.709785
0.3887693 1.4240237 0.11534198 -0.3842594 0.36638698 0.42961892 1.739959 0.55327106
0.23017812 -0.8544135 0.14077847 0.47766694 0.30266324 0.5602832 1.5869925 0.2680896
0.70586824 0.4008686 -0.551126 -0.935066 0.27311486 0.23524067 0.22578578 0.23671658
1.5793524 0.24358766 0.26276186 0.398703 0.34897053 0.4309489 0.4589849 0.4863176
0.97634524 -7.1303773 0.23040706 0.3021936 1.5261961 0.25560644 0.25637025 -0.782854
0.8871393 1.0147018 0.40099394 0.5193839 0.26915455 2.8902922 3.8506582 1.1568086
00000000: d41e 3a3f 3ff7 3ebe 2a48 013f 17a7 0640
00000010: 5090 aa3b fc2c af3f 0546 493e c005 173f
00000020: ff79 be3e 0e0b d33e 1589 07bf 3fe2 1840
00000030: 3b06 2c40 38b2 4740 d59e 5f3f b0df 2f3f
00000040: cb69 cc3e 84ea ad3e 32f2 13be ceb3 503f
00000050: 72f2 4a3e 64bb 063f 2478 c73f 05d6 f93e
00000060: ddd9 8abf a283 a73e e5a7 233f 5f3e 15bc
00000070: 09fd 2dbf b7ae 253f 3b76 e03f 637f c13f
00000080: 7774 813e 914c ae3f 8187 6a3f f848 8b3e
00000090: 9afb 873e 495a 3c40 2615 8b3e c815 153f
000000a0: 7407 f6be 3f83 903d a73b 173f 5950 593f
000000b0: ca19 cc3e 8de8 ba3e 7582 b73e 7cf1 f03e
000000c0: 8f1b ed3f 789d bb3f 2a54 0c40 1ab1 c03f
000000d0: 0165 1dc1 da36 7040 c7f9 8e3f 6980 e73f
000000e0: 21e6 453f fb9f 363e 63bd 083f f7a7 7e3e
000000f0: edfb 3f3f 14ce f13c 6603 c63f 7778 f03e
00000100: 5756 2f3f 2bc1 4d3e 2333 0a3f eaf1 d33e
00000110: efa6 943e ff7b 483f 74de 093f a340 7a3e
00000120: 7114 963e 946e aa3e 36e4 d73e 1791 343e
00000130: 0dcd 9ebf 0d35 823f de68 223f d85b af3f
00000140: 6ec5 2040 9edc e23f 3bba 383f 7d0c 213f
00000150: 6bdf 9d3e 7e57 1940 0165 753f 516d c23f
00000160: 8a9a db3e 34a8 a13f 7da8 053f d358 3d3e
00000170: 7a84 71be 9b4c 283f 37fd a4be c567 1d3f
00000180: 571b c63e 658a 723f 3aee e53e 53f9 273f
00000190: 07fb 3840 050c 953f bcff 883e 912d 0e3f
000001a0: bca1 d33f a571 9f3e e85c 88c0 4b50 783f
000001b0: 55af 803e 5d8f c33e 9e7a a53e eccb a33e
000001c0: 30f8 e33f 3e13 8b3f 0a72 5040 2882 17bf
000001d0: 7b68 3a3f 3825 e63e e47a 0dc0 66d4 e53e
000001e0: 9be9 ac3d 7dd6 3fbf 5058 fe3e f444 bf3f
000001f0: c6b3 e8be d432 c33e 14db 713f 692c 17c0
00000200: 0e8e 2540 45e7 333f b065 093e 6c71 b03f
00000210: 716a 1b3e 06e5 d23e ac4f 2040 75ae a53f
00000220: 690e 38bf eb97 c1bf 1e21 01c1 9b94 143f
00000230: 1432 1f40 51c1 563f cd81 843e 11a8 203f
00000240: 08a5 e8be fd0b a23f 4210 9b40 cebf 0b40
00000250: e113 413f 473f ee3f c49f 4640 035f 9e3e
00000260: 5449 b23f 1abc 013f afca 15c0 f58c 1a3f
00000270: f299 3b3f 8357 4f3f 4524 023f f9a1 463f
00000280: e21e 1040 d083 fcbc 49bf f03f 2209 423f
00000290: 3cdd f23e 4eee 23bc a3eb 9d3f 00f2 b23e
000002a0: e165 ac40 d297 d83f 3068 0b3f 4a5e c93f
000002b0: f37f 053f 8c1d af3f e45d 763b 3fa2 5e3f
000002c0: 84cb 8c3e 01c0 613f 98dd 113f 2613 193f
000002d0: ff66 a2c0 e3a1 2d40 0414 213f 584c 9e3e
000002e0: 34c5 783e d525 4d3f f96c a73e 122b aa3f
000002f0: 7f5b 803e 8acc 8abf eac8 213f 74b7 583f
00000300: 7aea c33d df8f 83bd 06d0 633f b3b4 c43e
00000310: 763c 533c 58b6 d0be 646a 36bd e231 273e
00000320: 03ba e53f 80f0 083f 3c6d ac3e 9f1b 9c3f
00000330: 88d0 c33e 0f1b 36c1 f218 373f 8fb6 9640
00000340: c50c c73e 6946 b63f 6a38 ec3d a6bd c4be
00000350: 1397 bb3e 03f7 db3e fab6 de3f 2ca3 0d3f
00000360: d0b3 6b3e d8ba 5abf 3b28 103e c390 f43e
00000370: adf6 9a3e b86e 0f3f 9222 cb3f 0a43 893e
00000380: c8b3 343f a63e cd3e 9816 0dbf 7c60 6fbf
00000390: b6d5 8b3e eee2 703e 6334 673e d565 723e
000003a0: 3828 ca3f 0b6f 793e b988 863e cd22 cc3e
000003b0: 44ac b23e 56a5 dc3e 1200 eb3e 9ffe f83e
000003c0: c3f1 793f 0d2c e4c0 d4ef 6b3e 1fb9 9a3e
000003d0: 655a c33f d9de 823e f642 833e 1f69 48bf
000003e0: 901b 633f c0e1 813f 144f cd3e 58f6 043f
000003f0: a0ce 893e 8cfa 3840 2f71 7640 4e12 943f
