algorithm/pytorch-ddpg-master/output/ParallelCableDrivenRobot-v0-run4/actor.pkl (torch, 540743 bytes, 6 tensors)

fc1.weight f4 [400, 23]
0	0xbd3f494b	-0.046700757
1	0x3c6b553c	0.014363583
2	0x3c771cf4	0.015082587
3	0x3afd9260	0.0019345991
4	0x3bad83a8	0.0052952357
5	0xbd0385a0	-0.032109857
6	0xbbc2f428	-0.005949516
7	0x3ccacd56	0.024756115
8	0x3c4cad08	0.012492426
9	0xbc0d31cc	-0.0086178295
10	0xbd337975	-0.043817002
11	0xbbf94280	-0.0076068044
12	0x3c67b4cc	0.014142226
13	0x3d1ac919	0.037789438
14	0x3cc9060a	0.024539012
15	0xbc2f9308	-0.010716207
16	0x3d44fcf3	0.048092794
17	0xbcca5efd	-0.024703497
18	0xbd00d802	-0.031456
19	0x3b270120	0.0025482848
20	0xbd181b42	-0.03713537
21	0xbca19d5d	-0.019728357
22	0xbcdc1a80	-0.026868105
23	0x3dff812e	0.12475811
24	0xbe3c10fc	-0.18365854
25	0x3d68a591	0.05679852
26	0xbe26b031	-0.16278149
27	0xbe3b0ad1	-0.18265845
28	0x3c9aa44d	0.018877173
29	0x3e14abc2	0.14518645
30	0x3b7d5160	0.003865324
31	0x3d876f12	0.06612982
32	0x3dc4e027	0.09613066
33	0x3d8a1528	0.067423165
34	0x3dc47f47	0.09594589
35	0xbde5ac74	-0.112145334
36	0x3de03bf0	0.10948932
37	0xbc98cd89	-0.018652694
38	0x3d0a25ec	0.03372757
39	0x3e18ed7f	0.14934348
40	0x3de5c59d	0.11219332
41	0x3e16758f	0.14693283
42	0xbc88ed25	-0.016714642
43	0xbd734ee0	-0.059401393
44	0x3cf03c06	0.029325496
45	0x3e2a6b3d	0.1664247
46	0x3d3a6ead	0.045515705
47	0xbcee9af0	-0.029126614
48	0xbcd42ada	-0.02589934
49	0xbd1a0ea8	-0.037611634
50	0x3d30b0af	0.04313725
51	0xbd4960e0	-0.049164653
52	0x3c11314c	0.008861851
53	0x3d32e605	0.043676395
54	0xbd07c05e	-0.03314244
55	0xbd37fa6f	-0.044916566
56	0xbcd2b72a	-0.025722105
57	0x3d2e0619	0.042486284
58	0xbbb32cd8	-0.0054679923
59	0xbd21035a	-0.039309837
60	0xbd282a6d	-0.041056085
61	0xb98ce980	-0.00026876852
62	0xbd471352	-0.04860241
63	0xbcd9da47	-0.02659334
64	0x3d04961d	0.03236972
65	0xbd455f10	-0.04818636
66	0xbbdd2c30	-0.0067496523
67	0xbd0837f0	-0.03325647
68	0xbd2761ce	-0.04086476
69	0xbd25a2fe	-0.040438645
70	0x3cff5552	0.031168614
71	0xbd486538	-0.048924655
72	0xbc758ce0	-0.0149872005
73	0xbd2ca910	-0.042153418
74	0xbcc05840	-0.02347958
75	0xbc81dabc	-0.015851371
76	0xbbe47580	-0.006972015
77	0x3d3da1f9	0.046297047
78	0xbce22217	-0.027604146
79	0xbd1d6468	-0.038425833
80	0xbc0c35a8	-0.0085577145
81	0xbc87b29c	-0.01656466
82	0x3cf79686	0.030223142
83	0xbd226643	-0.039648306
84	0x3ceea51a	0.029131461
85	0xbd06da44	-0.032922998
86	0x3d29e65b	0.04147945
87	0x3d3e3b11	0.04644305
88	0x3c22eeac	0.009944599
89	0xbd2d59c2	-0.042321928
90	0xbcb70993	-0.022343433
91	0xbb4ba520	-0.0031073764
92	0x3d97c61c	0.07410833
93	0xbe8726a1	-0.2639666
94	0x3d8df11c	0.069307536
95	0xbe501f77	-0.20324503
96	0xbe71fc06	-0.23631296
97	0x3ca0dd8e	0.019636896
98	0x3dd6ee6a	0.104946926
99	0x3cf0ceb2	0.029395435
100	0x3dddc6e5	0.10828952
101	0x3e252e99	0.16131057
102	0x3e1752b3	0.14777641
103	0x3e2d260a	0.16909042
104	0xbc6a4055	-0.0142975645
105	0x3def4fcf	0.11685144
106	0x3c5600ab	0.013061683
107	0x3d840810	0.0644685
108	0x3e720e59	0.23638286
109	0x3e14d072	0.1453264
110	0x3e4f338f	0.20234512
111	0xbd7b14e2	-0.061299212
112	0x3d26f733	0.04076309
113	0x3d12efc0	0.035873175
114	0x3e31b30b	0.17353456
115	0x3e18c279	0.14917935
116	0xbe0e098d	-0.13870831
117	0x3d90df77	0.070738725
118	0xbe1fdba0	-0.15611124
119	0xbe017671	-0.12642838
120	0x3e109432	0.14119032
121	0x3df2c183	0.11853316
122	0x3d1edff5	0.0387878
123	0x3d68f46b	0.05687372
124	0x3d8f71b8	0.07004112
125	0x3da3c6ed	0.079969265
126	0x3e04589e	0.1292443
127	0xbd3373ea	-0.043811716
128	0x3df5ccb7	0.12001937
129	0xbcdd5f8b	-0.027023098
130	0x3d5c21d0	0.053743184
131	0x3d7dae29	0.06193367
132	0x3c3106f3	0.0108048795
133	0x3df459d1	0.119311936
134	0xbd8f762e	-0.07004963
135	0xbca12cd4	-0.019674696
136	0x3dc90bbd	0.09816692
137	0x3dd118da	0.10209818
138	0x3dba7ede	0.09106229
139	0xbe4de0d3	-0.20105295
140	0x3ddd9a5b	0.108204566
141	0xbe60b155	-0.21942647
142	0xbe34d52c	-0.17659444
143	0x3d7fe560	0.06247461
144	0x3dc44791	0.09583963
145	0x3bcb1110	0.0061971024
146	0x3dca821f	0.098881
147	0x3de1972b	0.11015161
148	0x3e288b22	0.16459325
149	0x3e6d5c6a	0.23179784
150	0xbdca760b	-0.09885796
151	0x3ddd11c2	0.10794403
152	0x3d35f1de	0.044420116
153	0x3c009691	0.007848398
154	0x3e6c99de	0.2310557
155	0x3e32353e	0.17403123
156	0x3e31d08b	0.17364709
157	0xbdeaf615	-0.11472718
158	0x3c92aec1	0.017905595
159	0x3d710113	0.058838915
160	0x3e23f14b	0.16010015
161	0x3de25cdd	0.110528685
162	0xbd8f4407	-0.06995397
163	0x3d688799	0.05676994
164	0xbdfb39b5	-0.12266866
165	0xbdb2030b	-0.08691987
166	0x3dc4a06c	0.096009105
167	0x3d7eab65	0.062175173
168	0xbbf81750	-0.0075711384
169	0x3d88b1f3	0.06674566
170	0x3d84d1b7	0.064853124
171	0x3d8c902c	0.06863436
172	0x3dead71e	0.114668116
173	0xbd57cc09	-0.052684817
174	0x3e12b7ef	0.14327978
175	0x3d11806d	0.035522867
176	0x3bebf387	0.0072006616
177	0x3d7ef3e4	0.06224431
178	0x3da3fd94	0.080073506
179	0x3d8670d6	0.065644905
180	0xbdf36165	-0.11883811
181	0x3be9d3f2	0.0071358616
182	0x3dacc7c2	0.08436538
183	0x3d9e4b50	0.077292085
184	0x3ac171c0	0.0014758632
185	0x3c0d5f28	0.008628644
186	0x3ca86876	0.020557623
187	0x3d1ee469	0.038792048
188	0xbc9b1f93	-0.018935954
189	0x3b8d4e68	0.0043123253
190	0xbcfffc0d	-0.031248117
191	0x3d2d1761	0.042258624
192	0x3b43dea0	0.0029887334
193	0xbd12bf43	-0.035826933
194	0x3bc4ede8	0.006009806
195	0xbd03fa9c	-0.03222142
196	0xbcf4e5f0	-0.029894799
197	0xbd3c0ad2	-0.045908757
198	0xbc8c4bc4	-0.017125972
199	0xbd08547e	-0.033283703
200	0x3d0f3fa7	0.034972813
201	0xbcd4e0d3	-0.02598611
202	0x3ca5ac66	0.020223808
203	0x3b836aa8	0.004010517
204	0xbc32746c	-0.010892015
205	0x3cf75d7a	0.03019594
206	0x3cb6f30a	0.022332687
207	0xbd3dd7f8	-0.046348542
208	0xbd36644f	-0.044529255
209	0xbc8e567c	-0.017375223
210	0x3cb067b6	0.021533828
211	0x3c153608	0.00910712
212	0x3d2931e1	0.041307334
213	0x3ceefd5a	0.029173542
214	0x3cc1e12a	0.023666937
215	0xbd177b06	-0.03698256
216	0x3c9dca12	0.019261394
217	0xbd00b66e	-0.03142398
218	0xbce2afa0	-0.027671635
219	0x3cffca16	0.031224292
220	0x3c5305bc	0.012879785
221	0x3babd6f0	0.0052441284
222	0x3d25a421	0.04043973
223	0x3c73afe4	0.014873479
224	0xbd092de4	-0.03349103
225	0xbc2754b4	-0.010213066
226	0x3d0c913b	0.03431819
227	0xbc87af40	-0.016563058
228	0xbc9a518a	-0.018837709
229	0xbce32d53	-0.027731573
230	0x3ce5973e	0.02802622
231	0x3d48a999	0.048989866
232	0x3b28a8d0	0.0025735386
233	0xbafd4740	-0.0019323602
234	0xbd380b32	-0.04493255
235	0xbcf14d8d	-0.029455924
236	0xba08a980	-0.0005213246
237	0x3cac2aea	0.021016557
238	0xbc304494	-0.010758538
239	0xbc912074	-0.01771567
240	0xbd4bb35d	-0.0497316
241	0xbd4a282d	-0.04935472
242	0xbcaf4fbd	-0.021400327
243	0xbd179a16	-0.037012182
244	0xbb59a0d0	-0.0033207424
245	0x3c37fdec	0.011229973
246	0xbd2f68a0	-0.042824388
247	0xbd3e0dcf	-0.046399888
248	0xbd1422eb	-0.036166113
249	0xbb851590	-0.0040614083
250	0x3a8b0ea0	0.0010609217
251	0xbc9b3b47	-0.018949164
252	0x3d48cf39	0.049025748
253	0x3d9edd2e	0.077570304
254	0xbe3ba478	-0.18324459
255	0x3da0fb13	0.078603886

fc1.bias f4 [400]
0	0xbe32a36d	-0.17445154
1	0x3e449751	0.19198348
2	0xbdf8ac02	-0.12142183
3	0xbbc7f6c0	-0.006102413
4	0x3e6adfa6	0.22936878
5	0x3d8792f1	0.06619824
6	0x3e60cc6a	0.21952978
7	0x3deb71fc	0.1149635
8	0xbe449bc5	-0.19200046
9	0xbdf28584	-0.11841872
10	0xbe119b05	-0.14219292
11	0x3e791baf	0.24326967
12	0xbdf5cd09	-0.12001998
13	0x3c3df38d	0.011593712
14	0xbcb3fc68	-0.021970943
15	0xbd99445e	-0.07483743
16	0x3e016ce2	0.12639192
17	0x3c324960	0.010881752
18	0xbe3dc41a	-0.18531838
19	0x3e15c860	0.14627218
20	0x3e358d54	0.17729694
21	0x3e9c27a2	0.30498987
22	0x3e7a717c	0.24457353
23	0xbe2bf7e3	-0.1679378
24	0x39c76e00	0.00038038194
25	0x3d1db26c	0.038500234
26	0xbe534716	-0.20632586
27	0x3d9f429b	0.07776376
28	0x3ca72249	0.02040209
29	0x3e9f2ad9	0.31087378
30	0x3df69d76	0.12041752
31	0x3ca49f9a	0.020095635
32	0x3e332e4b	0.17498128
33	0xbdd1f79d	-0.102523066
34	0x3e8837d8	0.26605105
35	0x3e78dc86	0.24302873
36	0xbdbcccd5	-0.09218756
37	0xbcbcfac8	-0.0230688
38	0x3d771396	0.060321413
39	0x3e7956ef	0.24349569
40	0x3e7811ef	0.24225591
41	0x3eabf545	0.33585563
42	0xbe110108	-0.1416055
43	0xbe298b31	-0.16557004
44	0x3e0dab0c	0.1383478
45	0x3e1422f9	0.14466466
46	0xbda05df2	-0.07830419
47	0xbccb90b0	-0.024849266
48	0x3e038571	0.12843873
49	0x3daf7365	0.08566932
50	0xbd06e150	-0.03292972
51	0xbd91bf66	-0.071165845
52	0xbde1269c	-0.10993692
53	0xbd936684	-0.07197288
54	0xbe44910b	-0.19195955
55	0xbd939336	-0.07205813
56	0xbb907620	-0.004408613
57	0xbdcc30ca	-0.09970243
58	0xbc10f460	-0.008847326
59	0xbdc539dc	-0.096301764
60	0x3c42cd40	0.011889756
61	0x3c2f0d67	0.010684348
62	0x3e4d5eee	0.20055744
63	0x3c7c34b0	0.015393421
64	0xbdbffd31	-0.09374464
65	0x3d768c07	0.060192134
66	0x3c94ff5e	0.018188175
67	0x3e712c1d	0.23551984
68	0xbd83ae94	-0.064297825
69	0xbe035830	-0.1282661
70	0x3e9c612a	0.3054288
71	0xbe0728b3	-0.1319912
72	0x3e3432df	0.17597531
73	0x3bb81900	0.0056182146
74	0x3e49ee77	0.19719873
75	0xbe1bc6f1	-0.15212609
76	0x3d6036a2	0.054739602
77	0xbe13a99e	-0.14420173
78	0x3d451a8c	0.04812102
79	0x3e45d75f	0.19320439
80	0xbdd9deca	-0.10638197
81	0x3e76d5fe	0.24105069
82	0x3c4dcaf0	0.012560591
83	0x3e94cbf4	0.29061854
84	0x3e8478cd	0.25873414
85	0x3e6c52e3	0.23078494
86	0x3e012356	0.12611136
87	0x3ddc3794	0.10752788
88	0x3d8f9ee9	0.070127316
89	0xbcb1c910	-0.02170232
90	0xbdc1edf0	-0.09469211
91	0xbdb1254a	-0.086496904
92	0x3e805958	0.25068164
93	0x3d97e730	0.074171424
94	0xbe4451b8	-0.19171798
95	0x3e9b4e11	0.30332997
96	0xbe2c5f71	-0.16833283
97	0xbe10e8a0	-0.1415124
98	0xbe08297a	-0.13297072
99	0x3e30585c	0.17221206
100	0x3e1dd432	0.15412977
101	0x3ea8d099	0.32971647
102	0xbb31b0c0	-0.0027113408
103	0xbe00974a	-0.12557712
104	0x3e748098	0.2387718
105	0x3e48e3b0	0.19618106
106	0x3d56ffbe	0.05248999
107	0x3cb60ed0	0.02222386
108	0xbe504340	-0.20338154
109	0x3db73c94	0.08947101
110	0xbddc53da	-0.10758181
111	0xbd5ea64c	-0.05435781
112	0x3db5f49e	0.08884548
113	0x3daf4e8a	0.08559902
114	0x3c0666e0	0.008203238
115	0x3e0b251d	0.13588376
116	0x3c057960	0.008146614
117	0x3d1efa8b	0.038813155
118	0xbdfa327e	-0.12216662
119	0x3e52967a	0.20565215
120	0x3e264650	0.1623776
121	0x3e1d8f0e	0.15386602
122	0x3dc10e34	0.09426537
123	0x3d79f924	0.061028615
124	0xbe03371a	-0.12813988
125	0x3e211dc2	0.15734008
126	0x3dbbfc1d	0.09178946
127	0xbc68eb00	-0.014216185
128	0x3dbae750	0.091261506
129	0xbcb64d60	-0.022253692
130	0x3d7c17ac	0.061546013
131	0x3e25dabc	0.16196722
132	0xbe44617d	-0.19177814
133	0xbc07c850	-0.008287504
134	0x3c14c240	0.009079516
135	0xbe1afeb0	-0.15136218
136	0xbdef5680	-0.116864204
137	0x3e79ffe8	0.24414027
138	0x3e4315f7	0.19051348
139	0x3e9d32ef	0.30702922
140	0x3c0100d0	0.007873729
141	0x3e27359f	0.16329049
142	0xbe293f62	-0.16528085
143	0x3e164dca	0.14678112
144	0xbd7159bc	-0.058923468
145	0xbd146878	-0.03623244
146	0x3e84d606	0.25944537
147	0x3c9a9bb0	0.018873066
148	0x3e6d2cd0	0.23161626
149	0xbe249e37	-0.16075979
150	0x3e7d4a70	0.24735427
151	0xbe23ae4b	-0.15984456
152	0x3e01a65d	0.12661119
153	0x3e8613d6	0.2618701
154	0x3de63ec9	0.11242444
155	0xbde82d7d	-0.11336801
156	0x3e6607ef	0.22463964
157	0xbe19dde9	-0.15026058
158	0xbd2b5650	-0.04183036
159	0x3e159cc9	0.1461059
160	0xbd716a9c	-0.05893956
161	0x3e04175b	0.12899534
162	0x3e76cbaf	0.24101137
163	0xbdcf9619	-0.10136051
164	0x3e3ab668	0.18233645
165	0xbe297ee6	-0.16552314
166	0xbbd0a0e0	-0.006366834
167	0xbcecba10	-0.028897315
168	0xbba548c0	-0.005044073
169	0x3ea28938	0.31745315
170	0x3e26e01f	0.16296433
171	0xbdc6cbc2	-0.097068325
172	0x3c3fe260	0.011711687
173	0x3dfa3c62	0.12218548
174	0x3e23ebf3	0.16007976
175	0xbe3d5f1e	-0.18493316
176	0x3e834718	0.25640178
177	0x3e555b48	0.20835602
178	0xbdc178f3	-0.09446897
179	0xbe09dd73	-0.13463382
180	0x3c2caa36	0.010538628
181	0xbe08013f	-0.13281725
182	0x3e9dea35	0.30842748
183	0xbe51288f	-0.20425628
184	0x3d19e684	0.037573352
185	0xbdd4cb9a	-0.103903964
186	0x3ded4897	0.11586111
187	0x3e514aab	0.2043864
188	0x3dafd97e	0.08586405
189	0x3e01e83d	0.12686248
190	0xbdc50a69	-0.09621126
191	0x3e6a762d	0.22896643
192	0xbccc5d00	-0.02494669
193	0xbb9ec7c0	-0.0048455894
194	0x3e1e1549	0.15437807
195	0xbdbf28e6	-0.09333973
196	0x3d04a668	0.03238526
197	0xbe3125b2	-0.17299536
198	0x3e21568f	0.15755676
199	0xbde208d5	-0.11036841
200	0x3db47dea	0.08813079
201	0xbd150e38	-0.036390513
202	0x3dcfe686	0.10151391
203	0xbe2ce882	-0.1688557
204	0xbd9b9df2	-0.07598485
205	0xbe221478	-0.1582812
206	0xbe540f8f	-0.2070906
207	0x3e8dc3b1	0.27688363
208	0x3d062ae2	0.03275574
209	0x3e2e743d	0.17036529
210	0x3e39ce8a	0.18145195
211	0xbcda2c00	-0.026632309
212	0xbe23a152	-0.15979508
213	0x3dfdc67d	0.12391374
214	0x3e86bab3	0.26314315
215	0x3df7862a	0.12086137
216	0x3be7b580	0.007071197
217	0x3defee4a	0.11715372
218	0x3e4e418b	0.2014219
219	0x3e8defb1	0.27721933
220	0xbd1516d8	-0.03639874
221	0x3e2579a8	0.1615969
222	0xbd5967f8	-0.053077668
223	0xbdec778d	-0.1154624
224	0xbd6e9968	-0.05825177
225	0xbd94d7ce	-0.07267724
226	0xbe2e420e	-0.17017385
227	0x3d7dac2c	0.061931774
228	0xbcc78a38	-0.0243579
229	0x3e89fcaa	0.2695058
230	0x3c90a9a8	0.017659023
231	0xbe0ac65a	-0.13552228
232	0x3e245514	0.1604808
233	0x3ac5eb80	0.0015100092
234	0xbe31d41e	-0.17366073
235	0xbe023fe0	-0.12719679
236	0xbe1f0d5c	-0.1553244
237	0x3e9cb7e3	0.30609044
238	0xbe21c233	-0.15796737
239	0x3d5d7a2a	0.054071583
240	0xbd35b4c8	-0.04436186
241	0x3e6be224	0.23035485
242	0x3e9951ea	0.29945308
243	0xbe379107	-0.17926417
244	0xbd995696	-0.07487218
245	0xbddfae3a	-0.10921903
246	0xbe4305d8	-0.19045198
247	0x3e23792c	0.15964192
248	0x3e335a51	0.17514922
249	0x3e98b2b0	0.29823828
250	0x3e9554b9	0.291662
251	0xbd32d8c8	-0.04366377
252	0xbe32caa9	-0.17460121
253	0xbd603228	-0.054735333
254	0x3e73c21b	0.23804514
255	0x3d6df274	0.05809255

fc2.weight f4 [300, 400]
0	0xbcfa732e	-0.0305725
1	0x3d161eca	0.036650456
2	0x3bd46440	0.0064816773
3	0x3c3968c0	0.011316478
4	0x3ce1a81c	0.027545981
5	0xbc956d9c	-0.018240742
6	0x3bf61320	0.007509604
7	0xbbb72a50	-0.005589761
8	0x3c546900	0.012964487
9	0x3cf5c224	0.0299998
10	0xbd64657f	-0.055760857
11	0xbd094b72	-0.033519216
12	0xbd22b91f	-0.039727326
13	0x3d1d7e84	0.038450733
14	0xbd54e458	-0.051975578
15	0xbb6ee500	-0.0036452413
16	0x3d3f843e	0.046756975
17	0x3c517ce0	0.01278612
18	0x3d3884fe	0.045048706
19	0x3bf772d0	0.0075515285
20	0x3d5d833a	0.054080226
21	0xbcdc71ec	-0.026909791
22	0xbc898762	-0.016788188
23	0x3d49eef8	0.049300164
24	0xbd01b3e2	-0.03166569
25	0xbc9cbf60	-0.019134223
26	0xbcfae809	-0.030628221
27	0x3d50570e	0.05086427
28	0xbc4dc2e4	-0.012558673
29	0xbca7a800	-0.02046585
30	0x3c25bbb0	0.010115549
31	0xbbaa1838	-0.0051908754
32	0xbcc34d4a	-0.023840565
33	0x3d525cba	0.051357962
34	0xbc9d01ee	-0.01916596
35	0xbd3892f4	-0.04506202
36	0xbd54a3c2	-0.051913984
37	0x3c5a1be0	0.01331231
38	0xbbbbc0c0	-0.0057297647
39	0xbd1a44ea	-0.037663378
40	0xbc35d958	-0.011099182
41	0x3d2a04c2	0.041508444
42	0xbd08c398	-0.033389658
43	0x3d2a44a8	0.041569382
44	0x3d3e66e0	0.046484828
45	0xbb5cf690	-0.0033716299
46	0xbd47c01f	-0.048767205
47	0x3ce8c570	0.028414458
48	0xbd523548	-0.051320344
49	0x3d5d0d3a	0.053967692
50	0x3bb64850	0.0055628195
51	0xbc823904	-0.015896328
52	0xbc21e860	-0.009882063
53	0xbd4583f2	-0.048221536
54	0xbd4abf48	-0.049498826
55	0x3c9dc758	0.019260094
56	0x3cfd3dd0	0.030913264
57	0xbd559789	-0.05214647
58	0x393baf00	0.00017898902
59	0xbd49fd40	-0.049313784
60	0x3d2c7320	0.04210198
61	0x3d1ae618	0.03781709
62	0xbce588ad	-0.028019274
63	0x3b2f0d70	0.002671089
64	0x3cebd850	0.02878967
65	0x3c910e80	0.01770711
66	0xbcc75ec2	-0.024337176
67	0x3d08dd20	0.033414006
68	0x3d46685c	0.04843937
69	0x3ca2e1e8	0.019883111
70	0xbca02544	-0.01954902
71	0x3d0f4df2	0.034986444
72	0x3d26b58a	0.040700473
73	0xbd2eefae	-0.042709045
74	0x3b962168	0.004581619
75	0xbd08fb5e	-0.033442847
76	0x3d4769ae	0.04868477
77	0x3d24f364	0.040271178
78	0x3d5d1b58	0.053981155
79	0x3ba3a700	0.004994273
80	0xbb86fe38	-0.0041196607
81	0x3ccb5e38	0.0248252
82	0x3c45bf18	0.012069486
83	0x3ce1ff48	0.027587548
84	0x3c29a830	0.01035504
85	0x3c348e68	0.01102028
86	0xbcfe5eac	-0.031051002
87	0xbc6d3ed8	-0.014480315
88	0xbcfae7d5	-0.030628124
89	0xbd6bcdde	-0.057569377
90	0x3c5fa740	0.013650715
91	0xbd651ffb	-0.055938702
92	0x3d35eaec	0.044413492
93	0xbd57637c	-0.05258511
94	0xbbdf75d0	-0.0068194643
95	0xbc5f4ac8	-0.013628669
96	0xbca65b60	-0.020307243
97	0x3d3d79b8	0.04625866
98	0xbca2d4d6	-0.019876879
99	0xbd35dc3a	-0.044399478
100	0xbaa8b620	-0.001287166
101	0xbd4a3145	-0.049363393
102	0x3b2b3d30	0.0026129
103	0x3cebf6a8	0.028804138
104	0x3cb66034	0.02226267
105	0x3c0eb858	0.008710943
106	0x3d629d7c	0.05532597
107	0x3d3dc75e	0.04633271
108	0x3c5d8968	0.01352153
109	0xbcfad644	-0.030619748
110	0xbd2debbe	-0.04246115
111	0xbceb833b	-0.028749099
112	0xbb980148	-0.0046388246
113	0xbce9a867	-0.028522683
114	0xbd4a707a	-0.049423672
115	0x3d6a9b34	0.05727692
116	0xbd5c9666	-0.05385437
117	0xbd67560b	-0.05647854
118	0x3d52f45c	0.05150257
119	0xbd5a16f0	-0.05324453
120	0x3d1ce6b2	0.038305946
121	0xbc04c75c	-0.008104172
122	0x3d026ed0	0.03184396
123	0x3c887df0	0.016661614
124	0xbc8ff384	-0.017572172
125	0x3cd8bb80	0.026456594
126	0x3ca26d98	0.019827649
127	0xbd5fa4ed	-0.054600645
128	0xbd0375cc	-0.03209476
129	0x3d1fab6c	0.03898184
130	0x3d6b2be8	0.05741492
131	0x3d294566	0.04132595
132	0x3d4e5dd8	0.050382465
133	0xbd303cad	-0.043026615
134	0x3c9fa278	0.01948665
135	0xbd404891	-0.046944205
136	0xbd59b364	-0.053149596
137	0x3c95b1f0	0.018273324
138	0x3d005436	0.03133031
139	0x3bbfa440	0.0058484375
140	0xbcbe3cae	-0.023222294
141	0xbd4ad2c3	-0.049517404
142	0xb9d77f00	-0.00041102618
143	0xba829f40	-0.0009965673
144	0x3cb539c4	0.022122271
145	0x3b6d4420	0.0036203936
146	0xbd3b7f1e	-0.045775525
147	0xbd36f04f	-0.04466277
148	0x3bb0d5a0	0.00539656
149	0x3d577af4	0.05260749
150	0xbc04702c	-0.0080833845
151	0xbd2b2bd6	-0.041789852
152	0xbd4988c3	-0.04920269
153	0xbd56b2ad	-0.052416492
154	0x3d445e7e	0.047941677
155	0x3d4060e4	0.046967402
156	0x3c8d7160	0.017265975
157	0x3d4c0c34	0.049816325
158	0x3cd44718	0.025912806
159	0x3cf6d3c8	0.030130282
160	0xbceadbc5	-0.028669247
161	0xbc39e960	-0.011347145
162	0x39a55600	0.00031535327
163	0xbc900afc	-0.017583363
164	0xbd07fe0a	-0.033201255
165	0x3d06cddc	0.032911167
166	0xbc888f5a	-0.016669918
167	0x3d2ad126	0.041703366
168	0x3d0770e6	0.033066653
169	0x3d168b42	0.0367539
170	0x3cb7a924	0.02241952
171	0x3ce16d20	0.027517855
172	0xbcb118b8	-0.021618232
173	0x3d35cc8e	0.04438453
174	0x3b3948e0	0.0028272197
175	0x3c894f34	0.0167614
176	0x3d644ece	0.055739217
177	0xbb327af0	-0.002723392
178	0x3ccde8fc	0.02513551
179	0xbd6491ee	-0.055803232
180	0xbc247e40	-0.010039866
181	0xbcd7eb24	-0.026357241
182	0x3bc51180	0.006014049
183	0x3af5b7c0	0.0018746778
184	0xbd148cb4	-0.036266997
185	0x3b055cd0	0.002034951
186	0x3c043940	0.00807029
187	0xbca736a0	-0.02041179
188	0xbcc928b0	-0.024555534
189	0x3c9b5cd8	0.01896517
190	0xbb96ef78	-0.0046061836
191	0x3cf9a644	0.03047479
192	0xbd1291a2	-0.035783418
193	0xbc616984	-0.013758067
194	0xbc9653ee	-0.018350568
195	0x3cf54ad8	0.029942915
196	0xbcdc329a	-0.026879597
197	0x3c0bd388	0.00853432
198	0x3c262de8	0.010142781
199	0xbb3bdd10	-0.00286657
200	0xbd006cce	-0.031353764
201	0xbd0da1c8	-0.034578115
202	0xb9259000	-0.0001578927
203	0xbcd3a2d2	-0.025834475
204	0xbcb44e16	-0.02200989
205	0xbbc8b258	-0.006124776
206	0xbce2fe21	-0.027709069
207	0x3d090ec8	0.033461362
208	0xbd2cf2e2	-0.04222382
209	0x3b9b2570	0.0047346875
210	0xbcc19f56	-0.023635548
211	0x3d3c5434	0.04597874
212	0x3b19bc60	0.0023458228
213	0xbad47680	-0.0016209632
214	0x3d1dc768	0.038520247
215	0x3d4202bc	0.04736589
216	0x3c5d0ce8	0.013491847
217	0xbd3540cc	-0.04425125
218	0x3d57567c	0.052572712
219	0x3cba4b50	0.02274099
220	0x3c214508	0.0098431185
221	0xbd4aa7a8	-0.049476296
222	0x3c0e6490	0.008690968
223	0x3cc9c640	0.024630666
224	0x3c056458	0.0081416
225	0x3cced99c	0.025250249
226	0x3ce0d398	0.027444646
227	0x3ce585a4	0.028017826
228	0x3d093b40	0.03350377
229	0xbd15760e	-0.03648954
230	0x3d61c3f8	0.05511853
231	0xbc942bf4	-0.018087365
232	0xbd35e0dc	-0.044403896
233	0xbc81d144	-0.015846856
234	0x3c4f63f0	0.012658104
235	0xbd528222	-0.051393636
236	0x3c1b64b8	0.009484462
237	0x3d443df2	0.04791064
238	0x3b7f5d20	0.003896542
239	0x3d1de316	0.038546644
240	0xbc2397a0	-0.009984881
241	0x3d5ac6dc	0.053412303
242	0x3b9fcc30	0.004876636
243	0xbd5a4b89	-0.053294692
244	0xbc59fdf4	-0.013305176
245	0xbd083e74	-0.033262685
246	0x3d3ce442	0.04611612
247	0x3c5eb908	0.01359392
248	0x3c8c2898	0.0171092
249	0xbc9f2dba	-0.019430984
250	0xbd267271	-0.040636484
251	0xbd505eec	-0.050871775
252	0xbd641786	-0.055686496
253	0x3d07bfce	0.033141904
254	0x3d4a9bac	0.049464867
255	0x3cb0e770	0.021594733

fc2.bias f4 [300]
0	0xbcfe2aba	-0.031026233
1	0x3d3c6ba1	0.04600108
2	0xbbd7fd19	-0.006591451
3	0x3c0d967c	0.008641835
4	0x3d1b31b8	0.037889212
5	0x3e2ab991	0.1667235
6	0xbd086b8d	-0.033305693
7	0x3d2cbad7	0.04217037
8	0xbaf31351	-0.0018545185
9	0xbcd55944	-0.026043542
10	0x3d3463bb	0.044040423
11	0x3d536e93	0.051619124
12	0xbb76fca0	-0.0037687197
13	0xba6a9b80	-0.0008949563
14	0x3c2fc101	0.010727168
15	0x3d038e44	0.032118097
16	0x3c968fa1	0.018379034
17	0x3d05289e	0.03250944
18	0xbcffdeca	-0.031234164
19	0xbcf0559e	-0.0293377
20	0x3d415609	0.04720119
21	0x3d5570d9	0.052109573
22	0xbbd1aab9	-0.0063985256
23	0x3ca02d64	0.019552894
24	0xbc80ee2d	-0.015738571
25	0x3d0073cf	0.031360444
26	0x3c71bfb8	0.014755182
27	0x3888ca32	6.522647e-05
28	0x3dc76223	0.09735515
29	0xbd168d38	-0.03675577
30	0x3d0565a0	0.03256762
31	0x3ba00300	0.00488317
32	0xbbd6761b	-0.006544841
33	0xbcdee7dd	-0.02721017
34	0xbd1fa140	-0.03897214
35	0x3d1e3244	0.038622156
36	0xbce4e9e0	-0.027943552
37	0xbc43a8c5	-0.011942093
38	0xbd34622a	-0.04403893
39	0x3e0fd203	0.14044957
40	0x3ddf3be1	0.10900093
41	0xbd4396f0	-0.047751367
42	0x3cbac691	0.022799762
43	0xbcacdb77	-0.021100743
44	0x3d58cfb1	0.052932445
45	0xbbcc7ff0	-0.0062408373
46	0x3c38844c	0.011262011
47	0x3cdc6eab	0.02690824
48	0x3d58b7a8	0.052909523
49	0xbb2747d0	-0.0025524981
50	0xbd25d5ba	-0.04048703
51	0x3ce7b1a6	0.028282952
52	0x3cadcecd	0.021216774
53	0x3b580da0	0.0032967106
54	0xbc56e4b4	-0.0131160505
55	0xbca533c5	-0.020166287
56	0x3bebe3d0	0.007198788
57	0xbcb692aa	-0.022286732
58	0x3d291497	0.0412794
59	0x3cb63462	0.022241775
60	0x3ce09762	0.027415935
61	0x3cec8c82	0.028875593
62	0x3d06ea23	0.032938134
63	0x3db5c1d7	0.08874863
64	0x3ce1b9b4	0.02755437
65	0x3c9cc872	0.019138549
66	0xbccf320d	-0.02529242
67	0x3d492b0b	0.049113315
68	0x3d725052	0.05915863
69	0xbd24b615	-0.04021271
70	0x3d2f86a2	0.042853005
71	0x3ca3a338	0.01997529
72	0x3dd654e3	0.104654096
73	0xbce4ed80	-0.02794528
74	0x3c90e74f	0.017688422
75	0xbc600ef4	-0.01367544
76	0x3c53d123	0.01292828
77	0x3d25442d	0.04034822
78	0x3d3d8405	0.04626848
79	0xbc94c3d3	-0.018159783
80	0x3c35fcb4	0.011107612
81	0xbd4375e4	-0.04771985
82	0xbbfa7d28	-0.0076443143
83	0x3b3baf30	0.0028638355
84	0x3d05dffd	0.032684315
85	0x3b747e20	0.0037306622
86	0x3d52030b	0.051272433
87	0x3cd7486e	0.026279654
88	0x3c8aee02	0.016959194
89	0xbca2fc0d	-0.019895578
90	0x3d361943	0.044457685
91	0x3bc05a10	0.0058701113
92	0x3cf53292	0.02993134
93	0x3ba8fb75	0.005156929
94	0x3d15ce26	0.03657355
95	0xbd493055	-0.04911836
96	0x3d3a6f12	0.04551608
97	0xba103f40	-0.0005502589
98	0x3b1662cc	0.002294707
99	0x3d356567	0.044286158
100	0x3d17af60	0.037032485
101	0xbbb4cb8e	-0.0055174297
102	0x3d193c46	0.037410997
103	0xbc68e0ea	-0.01421378
104	0x3d4988f9	0.049202893
105	0xbd31988b	-0.043358367
106	0xbd02afaa	-0.031905808
107	0xbd400af8	-0.04688546
108	0xbc6020f7	-0.013679734
109	0xbd32af8b	-0.043624442
110	0x3d11dd29	0.035611305
111	0x3d1fd68f	0.03902298
112	0x3ce42ce2	0.027853433
113	0x3aab5d94	0.0013074153
114	0xbd139835	-0.036033828
115	0x3c80cdd2	0.015723143
116	0xbbf7ba4c	-0.00756005
117	0xb98b9400	-0.00026622415
118	0x3d1f66b0	0.03891629
119	0x3d0ba172	0.034089513
120	0xbcc5fb20	-0.024167597
121	0xbcec0f99	-0.028816031
122	0x3bc9231e	0.0061382195
123	0xbd1f7019	-0.038925264
124	0xbcbbed7a	-0.022940386
125	0xbbb40428	-0.0054936595
126	0xbcab186a	-0.020885665
127	0x3d081830	0.033226192
128	0xbb5dd6b0	-0.0033849888
129	0x3d55a876	0.05216261
130	0x3d4333f1	0.047656957
131	0x3a962e53	0.0011457897
132	0x3c3d6f2c	0.01156215
133	0x3d380f71	0.0449366
134	0x3cb54b33	0.022130584
135	0x3d48fae6	0.0490674
136	0xbce3b307	-0.027795328
137	0x3da6dbc8	0.08147389
138	0x3c8d067d	0.017215008
139	0x3ca813a6	0.020517182
140	0xbd023b64	-0.03179492
141	0xbc714ba8	-0.0147275105
142	0x3c712dda	0.0147204045
143	0x3d109c10	0.035305083
144	0xbd03ef22	-0.032210477
145	0xbd15570a	-0.03645996
146	0x3c3ee0d4	0.011650283
147	0x3c921a95	0.01783494
148	0xbc97d396	-0.01853351
149	0xbcac045a	-0.020998169
150	0x3d9c92e9	0.076452084
151	0x3bdaa0a8	0.0066719837
152	0x3c0cf0dc	0.008602347
153	0x38c8dda6	9.5780284e-05
154	0x39ac0500	0.00032810122
155	0xbb81dd9f	-0.003963187
156	0x3c593517	0.0132572865
157	0x3a2d86c0	0.00066195056
158	0x3cb2bad2	0.021817598
159	0x3bcf8d73	0.0063340007
160	0x3ca081ac	0.019593082
161	0x3ce1a3ff	0.02754402
162	0xbbfc9105	-0.0077077174
163	0xbcffaa0d	-0.031209016
164	0x3cbcc17e	0.023041483
165	0x3cb7c332	0.022431944
166	0xbcb30862	-0.021854583
167	0xbbbce469	-0.0057645333
168	0x3d197dce	0.037473492
169	0x3d13a6c3	0.03604771
170	0xbcb429a8	-0.02199252
171	0x3d42a0f9	0.047516797
172	0xbd2171eb	-0.03941528
173	0xbd0c6394	-0.034274653
174	0x3a3cae10	0.0007197568
175	0xbd4d20bf	-0.050080057
176	0x3d263c66	0.040584944
177	0xbd118692	-0.035528727
178	0xbcf40e6a	-0.02979203
179	0x3d394b51	0.045237843
180	0x3db3faaa	0.08788045
181	0x3e19616b	0.14978568
182	0x3c0a1154	0.008426983
183	0x3b1c0339	0.0023805632
184	0x3d858c9d	0.065209605
185	0xba16cd40	-0.00057526305
186	0xbce693d8	-0.02814667
187	0x3cb4d04c	0.02207198
188	0xbc7a2f26	-0.01527003
189	0x3c44e305	0.012017016
190	0xbd0fc21d	-0.03509723
191	0x3d043554	0.03227742
192	0xbc33b68a	-0.010968814
193	0x3c41e3cc	0.011834096
194	0x3d12df16	0.035857283
195	0x3d56bcca	0.052426137
196	0xbc00dffa	-0.0078659
197	0x3d6d60ee	0.057953767
198	0xbc5bc67b	-0.013414021
199	0xbcfe8823	-0.031070774
200	0xbb2415e3	-0.002503746
201	0xbc1c50a4	-0.009540711
202	0xbd122134	-0.035676196
203	0x3d255823	0.040367257
204	0xbd12735d	-0.03575455
205	0x3b1ed2a0	0.002423443
206	0xbcb10d0d	-0.021612668
207	0xbd36a6b8	-0.04459259
208	0x3cafa7ea	0.021442372
209	0xbc2c07e1	-0.010499925
210	0x3d233a8b	0.039850753
211	0xbd376d9f	-0.044782277
212	0x3ccf73e2	0.025323812
213	0x3cd06f02	0.025443558
214	0x3ccb0bba	0.024785865
215	0xbd096c95	-0.033550818
216	0x3e1c7d11	0.15282084
217	0x3d189afb	0.037257176
218	0x3c2b59ea	0.010458449
219	0x3d103aae	0.03521221
220	0x3d5898e8	0.052880198
221	0x3c789f76	0.015174737
222	0x3bcc06d8	0.006226402
223	0x3d21334b	0.039355557
224	0x3ce8f112	0.028435264
225	0x3da94ce4	0.08266619
226	0x3e05cf48	0.13067353
227	0x3ceff54f	0.029291777
228	0xbcfc0000	-0.030761719
229	0x3dad409a	0.084595874
230	0x3c878262	0.016541664
231	0x3bcc9083	0.006242813
232	0x3d5ff71f	0.054679032
233	0x3d77846a	0.060429014
234	0xbc6d127e	-0.014469741
235	0x3d325831	0.043541137
236	0xbd230ce3	-0.03980721
237	0xbaf80560	-0.00189225
238	0x3c316620	0.010827571
239	0x3d1ad038	0.03779623
240	0xbcc2ae23	-0.023764675
241	0xbc9cc6b3	-0.019137716
242	0x3d4d3bd7	0.050105896
243	0xbc722717	-0.014779828
244	0xbbd610dd	-0.006532772
245	0x3cf33d52	0.029692326
246	0xbc9750b6	-0.018471103
247	0x3d54bef2	0.051939912
248	0x3d422a1b	0.047403436
249	0x3d12c581	0.035832886
250	0xbcf67213	-0.030083692
251	0x3c3051c4	0.010761682
252	0x3cc50f72	0.024055216
253	0xbd0b2e9e	-0.033980004
254	0xbbffed05	-0.0078102374
255	0xbcabe485	-0.02098299

fc3.weight f4 [16, 300]
0	0xbac0f430	-0.0014721211
1	0xbc6eb8e9	-0.014570453
2	0x3c92e27d	0.017930264
3	0x3d5a65f0	0.05331987
4	0x3a3f4ebf	0.0007297806
5	0x3da21b76	0.07915394
6	0x3b2e7eb4	0.0026625814
7	0x3c07a130	0.008278176
8	0xbb1a9245	-0.0023585719
9	0x3b33e36e	0.002744879
10	0x3b420baa	0.0029609003
11	0xba55996a	-0.00081481657
12	0x3a276438	0.0006385478
13	0xba4011f8	-0.00073268963
14	0x3c33300b	0.010936747
15	0xba9275b6	-0.0011173997
16	0xbb770b3e	-0.003769591
17	0x398eecdc	0.00027260825
18	0xbb1708a6	-0.0023045926
19	0x3b688fb0	0.0035486035
20	0x3b8745c3	0.0041281893
21	0xb8f3439a	-0.00011599735
22	0xbb4c6609	-0.0031188747
23	0x39f7aae4	0.00047238835
24	0x3b20deb4	0.0024546804
25	0xbb8f53e5	-0.0043740147
26	0x3b0680e9	0.0020523614
27	0x3c58c3af	0.013230248
28	0xbac23716	-0.0014817442
29	0xbaed09d1	-0.001808459
30	0x3d6c87c7	0.057746675
31	0x3b2cecd0	0.0026386268
32	0xbba1cf63	-0.0049380525
33	0xb98cd64b	-0.00026862542
34	0xba139290	-0.00056294445
35	0xbbc4c960	-0.006005451
36	0x3b14feb6	0.0022734827
37	0xbb14fe38	-0.0022734534
38	0x3b2dbe0a	0.0026510977
39	0x3de97709	0.11399657
40	0x3a20d1f1	0.00061347993
41	0x3b3967d0	0.0028290637
42	0xbb96e896	-0.004605363
43	0x3b710e06	0.003678204
44	0x3dcc1646	0.09965186
45	0xbb299990	-0.0025878884
46	0x3ad6ba18	0.0016382365
47	0x3b891003	0.004182817
48	0xbb8a7046	-0.00422481
49	0x399d7360	0.00030031335
50	0x3aef2527	0.0018245325
51	0x3e0e247e	0.13881108
52	0xba2a0f4b	-0.0006487264
53	0x3a83df98	0.0010061143
54	0x3af45b24	0.0018642885
55	0x3987f156	0.00025929016
56	0x3b01c4f4	0.001980123
57	0x3ac55648	0.0015055621
58	0xbc21bfbb	-0.009872372
59	0xbb2e10e2	-0.0026560356
60	0xbae44dc9	-0.0017418201
61	0x3aadf75c	0.0013272571
62	0xbb1ca4bb	-0.0023901898
63	0x3d0ae6a3	0.03391136
64	0x3ab7a548	0.001401105
65	0xbb510674	-0.0031894716
66	0x3a0f0f28	0.00054572755
67	0xba417574	-0.00073798676
68	0x3d209348	0.03920296
69	0xb8a1b3a0	-7.710536e-05
70	0x39ea947e	0.00044742593
71	0xbbea7b3f	-0.0071558054
72	0x3b827574	0.0039812867
73	0xbaaeaf7e	-0.0013327447
74	0xba3c6ec0	-0.0007188134
75	0x3ad86188	0.0016508559
76	0x3cc69861	0.024242582
77	0x3b262312	0.0025350493
78	0x3ba398fa	0.0049926015
79	0xbad64a42	-0.0016349035
80	0x3b253944	0.0025211135
81	0xbad69cb8	-0.001637361
82	0x3af97458	0.0019031866
83	0xbaf01a70	-0.0018318426
84	0xbb333337	-0.002734376
85	0xba230a30	-0.00062194746
86	0xbb0548b1	-0.0020337517
87	0xbaf38896	-0.0018580134
88	0x3b3be746	0.0028671785
89	0x3b1c527c	0.0023852875
90	0xbb464438	-0.0030253064
91	0xbb0832ff	-0.002078235
92	0x38cd0740	9.776512e-05
93	0xbaeb26bd	-0.0017940622
94	0x3b18061a	0.0023196996
95	0xb9a9af61	-0.0003236486
96	0xbaa8ed17	-0.0012888041
97	0xb9bb3068	-0.00035703485
98	0x39ad6a36	0.00033076265
99	0x3ab4d929	0.0013797629
100	0xbadc23ad	-0.00167953
101	0x3b2e3f1d	0.0026587911
102	0x3a08538d	0.00052004383
103	0xba4e42dd	-0.000786824
104	0xba6aae50	-0.0008952366
105	0xba85d67c	-0.0010211016
106	0xbaa7d01c	-0.001280311
107	0xb888b313	-6.5183405e-05
108	0xbbac9341	-0.0052665775
109	0xbb303634	-0.0026887776
110	0x3b20898a	0.0024496042
111	0xba564bad	-0.0008174729
112	0x3a884a91	0.0010398199
113	0xba2b89e0	-0.00065436773
114	0xbaa85de0	-0.001284536
115	0x3aeda550	0.0018130932
116	0xbb0241d8	-0.0019875672
117	0xbaa12145	-0.001229324
118	0xbb0fbde8	-0.0021933261
119	0xbbd3fe31	-0.006469511
120	0xbad4589d	-0.0016200725
121	0x3b97ff21	0.004638568
122	0xbb2a113a	-0.002595021
123	0x3b7f3e38	0.0038946997
124	0xbad06531	-0.0015899298
125	0xbb120348	-0.0022279788
126	0x3b054aaa	0.0020338693
127	0x3b32aa6b	0.0027262222
128	0xba538478	-0.00080687506
129	0xbbc2444e	-0.0059285527
130	0xb93cbf82	-0.0001800042
131	0x3c1b68ac	0.009485405
132	0xbb0f4e73	-0.0021866828
133	0x3a314d6c	0.0006763551
134	0xbc09dd38	-0.008414559
135	0xbbb08c42	-0.005387814
136	0x3bbfdf0b	0.005855446
137	0x3d19f90a	0.037591018
138	0xbbb4a6db	-0.005513055
139	0xb91c6aee	-0.00014917154
140	0x3af0c3e8	0.0018368931
141	0x3b2791a2	0.0025568982
142	0x3b1c7875	0.002387551
143	0x3da25dfb	0.079280816
144	0xbafe6fd2	-0.0019411987
145	0xba77e5c4	-0.000945654
146	0xba64efa9	-0.0008733222
147	0x3b68d081	0.0035524669
148	0xb96ddb4b	-0.00022683774
149	0xbb28f1b1	-0.0025778825
150	0x3d31431d	0.043276895
151	0xba94b507	-0.0011345454
152	0x3b054cdd	0.0020340004
153	0x3b08380b	0.0020785357
154	0x3aa552b0	0.0012613144
155	0xbb0b2140	-0.0021229535
156	0xbc06700b	-0.008205424
157	0xbac3899e	-0.0014918332
158	0x397adee0	0.00023924885
159	0xbaabab70	-0.0013097357
160	0xbb0a820a	-0.0021134638
161	0x39bd6761	0.00036125912
162	0xbacd36ad	-0.0015656553
163	0x3a4af34c	0.00077419425
164	0xb87fa880	-6.0953666e-05
165	0xba837a85	-0.001003102
166	0x3c15bcd6	0.00913926
167	0xbb611396	-0.003434395
168	0x3c1abe6a	0.009444812
169	0x3b0a9404	0.0021145353
170	0xba319e4b	-0.00067756017
171	0x3a418a88	0.00073830085
172	0x3b057b56	0.0020367703
173	0x3a6452c0	0.00087098405
174	0x3a98f6d7	0.0011670244
175	0xba513fdc	-0.0007982233
176	0x3a4c1349	0.0007784856
177	0x3a42cb88	0.0007430841
178	0xbabdf2e4	-0.0014491943
179	0xbb9c2bbd	-0.004765956
180	0x3d6df861	0.0580982
181	0x3d15a337	0.036532607
182	0xbbbf73f6	-0.005842681
183	0x3b3d33f5	0.002887008
184	0x3b4c0273	0.003112939
185	0x3a1f0070	0.0006065434
186	0x3c6d6af4	0.014490832
187	0x3ab5ffa8	0.0013885396
188	0xbc35ea36	-0.0111032035
189	0xbb11ef37	-0.0022267827
190	0xbaece6d0	-0.0018074159
191	0x3a19e653	0.0005870808
192	0x3b78c1b8	0.0037957262
193	0xba8f5fe2	-0.001093861
194	0x3ad4d904	0.0016238992
195	0xba5d992b	-0.0008453305
196	0x3b10cc9a	0.0022094608
197	0x3d49792e	0.04918783
198	0x3a157e74	0.0005702742
199	0x3c740c3c	0.014895495
200	0x3a9112c2	0.0011068212
201	0x3a566c7c	0.00081796176
202	0x3aa86e00	0.0012850165
203	0x37b07a80	2.1037878e-05
204	0x3bd4b660	0.0064914674
205	0x399f5348	0.00030388893
206	0xbb06407b	-0.002048521
207	0x3a6fb918	0.00091447076
208	0x39d8415c	0.00041247427
209	0xbb4774bd	-0.0030434572
210	0x3a8054dd	0.0009790916
211	0x3b10daf0	0.0022103153
212	0xbb32a90c	-0.0027261404
213	0xba6b136c	-0.00089674327
214	0xba4ebc28	-0.0007886314
215	0xbb7568c6	-0.0037446483
216	0x3d1a3c08	0.037654907
217	0xbb31363d	-0.0027040385
218	0xba3f66ae	-0.0007301372
219	0x3b463bf2	0.0030248133
220	0xbc1091e8	-0.008823849
221	0xba6d491d	-0.0009051727
222	0x3a6d9d72	0.00090642937
223	0x3af21714	0.0018470013
224	0x3b61ad43	0.0034435547
225	0x3d363d7c	0.04449223
226	0x3d824909	0.063615866
227	0x3b2e995d	0.0026641705
228	0xba4b9d58	-0.00077672815
229	0xba49b0ad	-0.0007693868
230	0x39246045	0.00015676122
231	0xbc259449	-0.010106155
232	0x3de4982f	0.11161839
233	0x3c32d3a6	0.010914719
234	0xbad55cd2	-0.0016278273
235	0x3b6d9a06	0.0036255135
236	0xb9b60c70	-0.00034723012
237	0xbab94276	-0.0014134187
238	0x3a74d880	0.00093401223
239	0xbb986bf9	-0.004651543
240	0xbb14101e	-0.0022592614
241	0x3b76b4c0	0.0037644356
242	0xbbd943ca	-0.0066303955
243	0x3ba446c4	0.0050133187
244	0xba8f404c	-0.0010929196
245	0x3e16f22c	0.14740819
246	0x39a6bfa8	0.00031804782
247	0xbc172a27	-0.0092263585
248	0x3ac5c8a2	0.00150897
249	0x3b63bfc2	0.0034751748
250	0x3aa36ae4	0.0012467769
251	0x3d21e721	0.039527062
252	0x3989cafc	0.0002628191
253	0x3ad3bc54	0.0016154149
254	0x3a446188	0.000749134
255	0xbb6ea216	-0.0036412529

fc3.bias f4 [16]
0	0x3d5e3e09	0.05425838
1	0xbbbc6493	-0.005749294
2	0x3cf02155	0.029312769
3	0xbd76bebf	-0.060240503
4	0x3c621fd1	0.013801531
5	0x3be87a9a	0.0070946934
6	0x3b8b26b8	0.004246559
7	0xbc559d49	-0.013037988
8	0xbd8b190b	-0.06791886
9	0x3d22da37	0.039758887
10	0x3ca3a82b	0.01997765
11	0xbb2fd2d7	-0.0026828551
12	0xbc01d8cd	-0.0079252245
13	0x3c727ac3	0.0147997765
14	0xbbcfe511	-0.0063444455
15	0xbccf63dc	-0.025316171
