algorithm/pytorch-ddpg-master/output/ParallelCableDrivenRobot-v0-run5/critic.pkl (torch, 541967 bytes, 5 tensors)

fc1.weight f4 [400, 23]
0	0xbdcb9be9	-0.09941847
1	0x402153f4	2.520749
2	0xbe712bbe	-0.23551843
3	0x3fe10c00	1.7581787
4	0xbef744f9	-0.4829481
5	0xc0439697	-3.0560663
6	0xbd1ba162	-0.037995704
7	0x3d3a17c9	0.04543284
8	0x3e034af2	0.12821558
9	0xbf92e1f6	-1.1475208
10	0xc0e9958b	-7.2995048
11	0xc03af068	-2.9209232
12	0xbe1b2131	-0.1514938
13	0xbde443a6	-0.111457154
14	0xbe3cca2e	-0.184365
15	0x3dbddf93	0.09271159
16	0xc0373fe7	-2.8632753
17	0xbfdae942	-1.7102435
18	0x3ecb5980	0.3971672
19	0x4039dcef	2.9041097
20	0x4099815c	4.797041
21	0xc03c957e	-2.9466243
22	0x3ece898d	0.40339318
23	0x3e4fd10f	0.20294593
24	0x4018f163	2.389733
25	0xc09cb3e1	-4.896958
26	0xbe1e7792	-0.154753
27	0x400793d1	2.118397
28	0xc02ea6dd	-2.7289345
29	0x3e663c55	0.22483952
30	0xbcefd203	-0.029274946
31	0xbe74d3b1	-0.23908879
32	0xbfb768f3	-1.4328903
33	0xc0c2cc59	-6.087445
34	0xc0434131	-3.050854
35	0x4091dfcc	4.558569
36	0x3e7e7a84	0.24851424
37	0x409736ba	4.7254305
38	0xc09180b1	-4.5469594
39	0xc04038b7	-3.0034616
40	0x3e58b2d0	0.21161962
41	0xbff40b17	-1.9065884
42	0x402afd5c	2.6717138
43	0x410de412	8.868181
44	0xc0297fd7	-2.6484277
45	0xbff4d61e	-1.9127843
46	0x3c597904	0.013273481
47	0x3d3ef8a1	0.04662383
48	0x3ccbdc1e	0.024885233
49	0x3ced569a	0.028971959
50	0xbaec81c0	-0.001804404
51	0xbc8500ac	-0.016235672
52	0x3ba735f0	0.0051028654
53	0x3bf1b7d8	0.007376652
54	0xbcedaa5a	-0.029011894
55	0xbd416ffb	-0.047225934
56	0x3d3ac65d	0.04559933
57	0x3cbd25ea	0.023089368
58	0xbd355248	-0.044267923
59	0x3d0c1339	0.03419802
60	0xbd4a45ed	-0.049383093
61	0xbd44caa7	-0.048044827
62	0xbd1a8fce	-0.0377348
63	0xbc11cd4c	-0.008899044
64	0xbd217d8d	-0.039426375
65	0x3d415895	0.04720362
66	0x3d1fa8a7	0.0389792
67	0x3d0040d1	0.031311814
68	0x3d435277	0.047686066
69	0xbd5907ef	-0.05298608
70	0x4032b760	2.7924423
71	0x3d6296e4	0.05531968
72	0x3faf0498	1.3673277
73	0xbfe28e39	-1.7699653
74	0xc07147f7	-3.7700174
75	0xbdc3e0a7	-0.095643334
76	0xbd377e55	-0.044798214
77	0x3d86aa93	0.06575503
78	0xbfbbb446	-1.466439
79	0xc0f1eef3	-7.5604186
80	0xc0516208	-3.2716084
81	0xbe7af414	-0.24507171
82	0xbd9979cb	-0.07493933
83	0xc00b7bd7	-2.1794336
84	0x3e82c382	0.25539786
85	0xc04dc8de	-3.215385
86	0xbfae9fe7	-1.3642548
87	0x3ff06161	1.8779718
88	0x406ebe76	3.7303748
89	0x40b24d31	5.571923
90	0xc06c6cee	-3.6941485
91	0x3fe10944	1.7580953
92	0xbda39629	-0.07987625
93	0x40699c7a	3.6501756
94	0xbe594c78	-0.21220577
95	0x3f33d0c8	0.7024045
96	0xc0222959	-2.5337737
97	0xc0160635	-2.3441288
98	0xbd046e3e	-0.032331698
99	0xbd4b20cb	-0.04959182
100	0x3db4f4d8	0.08835763
101	0xbfc2c44b	-1.5216154
102	0xc109e0e7	-8.617408
103	0xc0833fba	-4.101529
104	0xbe6cf031	-0.23138501
105	0xbd5ffbbd	-0.054683436
106	0x4033dc30	2.8103142
107	0x3e66c0b1	0.22534443
108	0xc0810e4e	-4.032996
109	0xbf116081	-0.5678788
110	0x401eee2c	2.4832869
111	0x401a7437	2.4133432
112	0x412dd3b2	10.864183
113	0xc015cddc	-2.3406897
114	0x401df5f9	2.468138
115	0xbbb4d230	-0.0055182204
116	0xbcb72f5a	-0.022361446
117	0xbd49eb75	-0.049296815
118	0xbc8d71b6	-0.017266136
119	0xbcc2837d	-0.02374434
120	0x3cb7627e	0.022385832
121	0xbd2213ab	-0.039569538
122	0x3c120694	0.008912701
123	0x3d3af739	0.045645926
124	0x3d354b71	0.0442614
125	0xbd08ffc5	-0.033447046
126	0x3d0585a1	0.03259814
127	0xbd0213a6	-0.03175702
128	0x3c5ca11c	0.013466146
129	0xbc27c028	-0.010238685
130	0x3d15e0fb	0.03659151
131	0xbc182474	-0.009286035
132	0x3d0b5f25	0.034026284
133	0x3cb8a49e	0.022539433
134	0x3d3314c5	0.04372098
135	0x3d4c61d9	0.049898002
136	0x3c3895b4	0.011266161
137	0xbc7b3eec	-0.015334826
138	0x3d12c493	0.035832
139	0xbce06737	-0.027392967
140	0x3c09c803	0.008409503
141	0x3c2028c2	0.009775342
142	0xbcb4d9fd	-0.022076601
143	0xbb0fa569	-0.002191866
144	0xbb8cc3cb	-0.0042958013
145	0x3d1bcab1	0.0380351
146	0x3d11dac7	0.035609033
147	0xbc65fdb8	-0.014037542
148	0xbd021dac	-0.03176658
149	0xbd5d3a9e	-0.05401098
150	0xbc7796c0	-0.015111625
151	0xbd456e07	-0.048200633
152	0xba0020ba	-0.0004887689
153	0xbc18e6f7	-0.00933241
154	0xbd0a9e27	-0.033842232
155	0x3d26e840	0.040748835
156	0xbaa60cc5	-0.00126686
157	0xbb6966e8	-0.0035614315
158	0xbd3404b1	-0.043949787
159	0xbd36ed90	-0.04466015
160	0xbceb69aa	-0.028736908
161	0x3d8619b5	0.06547872
162	0x40b6afcc	5.7089596
163	0x400711b2	2.110455
164	0x40975c27	4.729999
165	0xbf3c7822	-0.7362081
166	0xc0483146	-3.1280074
167	0x3d901d02	0.07036783
168	0x3d11cb91	0.035594527
169	0xbd061b94	-0.032741144
170	0xbf9f3a52	-1.2439673
171	0xc135c848	-11.361397
172	0xc0c0ac52	-6.021035
173	0xc015cfc9	-2.3408072
174	0x3da4e54a	0.08051546
175	0xbffa28dc	-1.9543719
176	0x4017c6a6	2.3714995
177	0xc0bdff14	-5.9373875
178	0xc093272a	-4.598531
179	0x3f6c8cf2	0.92402565
180	0x404e1a8e	3.2203708
181	0x40b8d5c5	5.776095
182	0xc04c87eb	-3.1957958
183	0x3f4b2917	0.79359573
184	0xbd44af45	-0.048018713
185	0x3d270e2b	0.040784996
186	0xbd018670	-0.03162235
187	0xb94e5000	-0.00019675493
188	0x3cf3e37e	0.029771563
189	0xbb3e0e00	-0.0029000044
190	0xba6a1a00	-0.0008930266
191	0x3d390361	0.045169238
192	0xbb2afd30	-0.0026090853
193	0x3d4b7de5	0.04968061
194	0xbb9ad3a8	-0.0047249384
195	0xbce83ccd	-0.028349305
196	0x3d1f6221	0.038911942
197	0x3d450219	0.048097704
198	0x3cbc7be2	0.02300829
199	0x3d06d2d9	0.032915924
200	0x3d1f7a31	0.03893489
201	0x3d29083b	0.041267615
202	0x3b9111d8	0.004427176
203	0xba7f1580	-0.0009730682
204	0x3bcc7d18	0.0062404983
205	0x3d3c8b89	0.04603151
206	0xbcb0a98d	-0.021565223
207	0x3d8b901c	0.06814596
208	0xbda6d1c1	-0.08145476
209	0xbfdb9328	-1.7154284
210	0xbfbdd296	-1.4829891
211	0xbfe9c037	-1.8261784
212	0xc0928b89	-4.579533
213	0x3d0c7368	0.034289747
214	0x3d44ea37	0.048074927
215	0x3b0aafc0	0.0021161884
216	0xbfbeef09	-1.4916698
217	0xc08e6b19	-4.4505734
218	0xbf0eef72	-0.55834115
219	0x3fbe0d25	1.4847761
220	0x3d7530e9	0.059861097
221	0xc0d9ae59	-6.8025327
222	0xbfc06885	-1.5031897
223	0xbf050423	-0.5195944
224	0x3fb57422	1.4176066
225	0x3fe8b4f5	1.8180224
226	0x408e38a6	4.444415
227	0xbf87b7d9	-1.0602981
228	0xc08dbfef	-4.4296794
229	0x3fe53e01	1.7909547
230	0xbc45e5c0	-0.012078702
231	0x3d4c1cd7	0.04983219
232	0x3ceb7d92	0.0287464
233	0x3cb6414e	0.022247937
234	0xbd381492	-0.044941492
235	0xbce840b0	-0.028351158
236	0xbd328cd3	-0.04359133
237	0x3c9bc78e	0.019016054
238	0x3d103eab	0.035216015
239	0x3b03ae80	0.0020093024
240	0x3c6652c4	0.014057819
241	0x3c86d142	0.016457204
242	0xbd196d58	-0.037457794
243	0xbbf01c68	-0.007327605
244	0xbcb508b3	-0.022098875
245	0x3d182acd	0.037150193
246	0xbc050dcc	-0.008120965
247	0xbd3ea0fb	-0.04654024
248	0xbd3b6a83	-0.045755874
249	0xbd49e9b2	-0.049295135
250	0x3b3a8ae0	0.0028464124
251	0xbd2f3f68	-0.04278508
252	0x3ce12efa	0.02748822
253	0x3e0c5f73	0.13708286
254	0x4063495a	3.551352
255	0xbfd01ed7	-1.6259412

fc1.bias f4 [400]
0	0x3c59da7f	0.013296722
1	0x3e518b55	0.20463307
2	0xbe30564a	-0.17220417
3	0xbd9864b2	-0.07441081
4	0x3c979459	0.018503355
5	0x3b908620	0.00441052
6	0xbd99c2cb	-0.07507857
7	0x3e6149fb	0.22000878
8	0xbe42d5b0	-0.19026828
9	0xbd53403b	-0.051574927
10	0x3d22efc4	0.03977944
11	0x3e691e84	0.22765547
12	0xbe21e3a7	-0.15809499
13	0x3d55c5d2	0.05219061
14	0xbddfa7c3	-0.1092067
15	0xbd6476be	-0.055777304
16	0xbd8da236	-0.06915705
17	0xbcef63c2	-0.029222373
18	0xbe34fa64	-0.17673641
19	0xbe039936	-0.12851414
20	0x3e8e4d90	0.2779355
21	0xbe10829d	-0.14112325
22	0x3cd7bcdd	0.026335174
23	0xbd212d18	-0.039349645
24	0xbdc56c06	-0.096397445
25	0x3d0765fb	0.03305624
26	0xbddcefe6	-0.107879445
27	0x3ca10e35	0.019660095
28	0xbd709b50	-0.058741868
29	0xbdb5e06f	-0.08880698
30	0xbdf6be7f	-0.12048053
31	0x39a10600	0.00030712783
32	0xbe137424	-0.14399773
33	0x3d7bcf2c	0.06147687
34	0xbdb6e264	-0.08929899
35	0xbdaebf9b	-0.085326396
36	0x3d7e561f	0.06209385
37	0x3d4e7f6c	0.050414488
38	0x3d7631d5	0.060106117
39	0x3d4ba527	0.04971805
40	0xbcc9e120	-0.02464348
41	0xbda613ec	-0.081092685
42	0x3e7e7c6e	0.24852154
43	0x3d816686	0.06318383
44	0xbd41d304	-0.04732038
45	0xbe1d1e6c	-0.15343636
46	0xbe220779	-0.15823163
47	0xbc8ae9e0	-0.016957223
48	0x3d75afd9	0.059982155
49	0xbdb2ecc8	-0.08736569
50	0xbdb8a03d	-0.09014938
51	0x3b36ed80	0.0027912557
52	0xbe11972b	-0.14217822
53	0xbe1143f8	-0.14186084
54	0x3d5468a2	0.051857598
55	0xbd002310	-0.03128344
56	0xbe434ec4	-0.19073015
57	0xbe21c0fd	-0.15796275
58	0xbe3d1535	-0.18465121
59	0xba3e8b00	-0.00072686374
60	0xbd324148	-0.04351929
61	0xbc72fe48	-0.014831133
62	0xbd9545cc	-0.07288703
63	0x3bda93e1	0.0066704606
64	0x3e1defcf	0.15423511
65	0xbd19cd7f	-0.037549492
66	0xbe17d140	-0.14825916
67	0x3f0162ea	0.50541556
68	0xbda327cc	-0.07966575
69	0xbd0e3a76	-0.03472372
70	0x3e59d817	0.21273838
71	0xbd8f7bfa	-0.070060685
72	0x3e561314	0.20905715
73	0xbe2b454f	-0.16725658
74	0xbe2c61e8	-0.16834223
75	0xbe23e45d	-0.16005082
76	0x3dd1fa9b	0.10252877
77	0xbd5a7b06	-0.05333998
78	0xbcc8a3bf	-0.024492143
79	0x3c95bc50	0.018278271
80	0xbde460b4	-0.11151257
81	0xbe333d2c	-0.17503804
82	0x3d1cb800	0.038261414
83	0xbe1c9741	-0.15292074
84	0x3cad0b19	0.021123456
85	0xbe02b3b3	-0.12763862
86	0x3df61f1c	0.120176524
87	0xbddca4fa	-0.10773654
88	0xbe4fb4c9	-0.20283808
89	0x3d1178ed	0.035515714
90	0xbd7414af	-0.059590038
91	0xbdc46862	-0.09590222
92	0xbcafaddf	-0.021445213
93	0xba84d90f	-0.0010135489
94	0xbdf90faa	-0.12161191
95	0xbde6e164	-0.112734586
96	0xbd973670	-0.0738343
97	0x3c69a9c0	0.014261663
98	0xbd9254a4	-0.0714505
99	0xbe005909	-0.12533964
100	0xbe48f9f7	-0.19626604
101	0xbd8f9f81	-0.07012845
102	0x3d8f4e25	0.06997327
103	0x3ba0094b	0.0048839203
104	0xbd2f7cec	-0.042843744
105	0x3c9af930	0.01891765
106	0xbe3a2896	-0.18179545
107	0x3d3667ea	0.044532694
108	0xbde13d4f	-0.10998022
109	0x3de9e66f	0.11420905
110	0x3e83198b	0.25605425
111	0x3dad139a	0.08451004
112	0x3e773504	0.24141318
113	0xbd92b4c8	-0.071633875
114	0x3d25057a	0.040288426
115	0x3d836d61	0.06417347
116	0x3e5ae1fb	0.21375267
117	0xbd76d928	-0.06026569
118	0xbe4a7a1a	-0.1977314
119	0xbdad456c	-0.08460507
120	0x3d63f676	0.055654965
121	0xbe2c2f9f	-0.16815041
122	0xbd3e1a2c	-0.04641168
123	0x3d8cb1b4	0.06869832
124	0xbd35867a	-0.0443177
125	0xbdac4c3d	-0.08412979
126	0xbe293383	-0.16523556
127	0xbe420146	-0.18945798
128	0xbdb3b8f7	-0.087755136
129	0xbe281e71	-0.16417862
130	0x3ceff3de	0.02929109
131	0x3e96aad1	0.29427198
132	0xbe3b89d1	-0.18314292
133	0x3d5b12f9	0.05348489
134	0xbcb47d80	-0.0220325
135	0xbe5219e0	-0.20517683
136	0xbdad3a77	-0.08458417
137	0x3e4977a2	0.19674543
138	0x3c326b0c	0.01088978
139	0xbd8d318e	-0.068942174
140	0xbe28dd8e	-0.16490766
141	0xbe4110fa	-0.18854132
142	0x3d4d9fbc	0.050201163
143	0x3e706da7	0.23479329
144	0x3d6e0720	0.058112264
145	0xbd6ad1a4	-0.057328835
146	0x3ce7db36	0.02830277
147	0x3de72dee	0.11288057
148	0xbe21474e	-0.15749857
149	0xbd45d200	-0.048295975
150	0xbd8a969e	-0.06767009
151	0x3d4b9cdb	0.049710136
152	0xbdec17a6	-0.11527948
153	0xbd49876c	-0.049201414
154	0x3dfffad2	0.12499012
155	0x3de0069c	0.10938761
156	0x3f0c2b3c	0.5475347
157	0xbced7104	-0.028984554
158	0xbd23091e	-0.039803617
159	0x3e1100b1	0.1416042
160	0xbaf2f480	-0.0018536001
161	0xbe3f6563	-0.1869102
162	0x3db59a7e	0.08867358
163	0xbd052be4	-0.03251256
164	0xbd657750	-0.05602199
165	0xbd19c430	-0.037540615
166	0x3ca0ba4d	0.019620085
167	0x3cfcf021	0.030876221
168	0xbd94908c	-0.07254133
169	0x3c02c8c2	0.007982435
170	0x3dd97a4e	0.10619031
171	0xbda75918	-0.0817129
172	0xbe262684	-0.1622563
173	0x3efd4332	0.49465328
174	0xbde13dcd	-0.10998116
175	0x3d9ddf2f	0.077085845
176	0xbd85fdfa	-0.06542583
177	0x3d06c996	0.03290709
178	0xbb59b07f	-0.0033216772
179	0xbdfb05b7	-0.122569494
180	0xbe2205b9	-0.15822496
181	0x3cd7a521	0.026323857
182	0xbd876d0a	-0.066125944
183	0x3c2f9388	0.010716327
184	0xbd6c31ef	-0.057664808
185	0xbe4fc0ae	-0.20288345
186	0x3cae18ee	0.021252122
187	0xbe427597	-0.1899017
188	0x3c9440a8	0.018097237
189	0xbcdc8ca8	-0.026922539
190	0xb993f488	-0.00028220215
191	0xbdc9f4c5	-0.09861139
192	0xbda73aaa	-0.08165486
193	0xbd0bf648	-0.03417042
194	0x3ea8043d	0.32815734
195	0x3da8fd14	0.08251396
196	0xbdc30621	-0.09522653
197	0x3d39e604	0.045385376
198	0xbda53e0f	-0.08068477
199	0x3d8b2157	0.067934684
200	0xbddc1a8c	-0.10747251
201	0x3dc804cc	0.0976654
202	0xbcfe34a8	-0.031030968
203	0xbc8063e8	-0.015672639
204	0x3d9a740a	0.07541664
205	0x3d4e97f7	0.050437894
206	0xbdde0615	-0.10841004
207	0xbd1e3d30	-0.03863257
208	0xbdd29a64	-0.10283354
209	0xbe4bb19f	-0.19891976
210	0x3e8e6546	0.2781164
211	0xbdfa88ce	-0.12233125
212	0xbe2b280d	-0.16714497
213	0x3c0cd2ca	0.008595178
214	0xbde487a7	-0.11158686
215	0xbe183f03	-0.14867787
216	0x3e14dda3	0.14537673
217	0xbe2fe37b	-0.1717662
218	0x3db72838	0.08943218
219	0xbddbb212	-0.107273236
220	0xbc80f9f2	-0.015744183
221	0xbd0e5f49	-0.03475884
222	0xbd84a2db	-0.06476375
223	0x3c4e1f50	0.012580708
224	0x3ec6dc23	0.38839826
225	0x3b498080	0.0030746758
226	0xbca24f90	-0.019813329
227	0x3b347100	0.0027533174
228	0x3d4af670	0.049551427
229	0xbdb0b0c8	-0.08627468
230	0xbd86a279	-0.06573958
231	0x3b91eb93	0.0044531315
232	0x3dd688da	0.10475321
233	0x3c8e0bb8	0.017339572
234	0xbdfebb78	-0.124381006
235	0x3d4560a5	0.04818787
236	0xbe26839e	-0.16261145
237	0xbd9a57da	-0.075362876
238	0xbe212365	-0.15736158
239	0xbb9f99f1	-0.004870646
240	0x3d96fc7a	0.07372375
241	0xbd8e6c62	-0.06954266
242	0xbdc3a43b	-0.09552809
243	0x3e0bf4ce	0.13667604
244	0xbd120a40	-0.035654306
245	0xbe0ae61f	-0.13564347
246	0xbdd6fb30	-0.10497129
247	0x3ddbcefe	0.1073284
248	0x3c9cd738	0.019145593
249	0x3eec079c	0.46099555
250	0xbd4d67c8	-0.0501478
251	0xbdf8cc72	-0.1214837
252	0x3d79d6cc	0.060995862
253	0xbdc21570	-0.09476745
254	0x3dfaea82	0.1225176
255	0x3cac4a28	0.021031454

fc2.weight f4 [300, 416]
0	0xbe1744d2	-0.14772347
1	0xbe6371d9	-0.22211398
2	0xbcfce137	-0.03086911
3	0xbe3cc962	-0.18436196
4	0xbe4ca677	-0.19985376
5	0xbd1c00ca	-0.03808669
6	0x3b95c468	0.0045705326
7	0xbdfa4dda	-0.1222188
8	0xbd0afdc4	-0.033933416
9	0x3e141245	0.14460094
10	0x3d5984ee	0.053105287
11	0xbdae1ada	-0.08501215
12	0xbb8c61e8	-0.0042841323
13	0xbce48eb9	-0.027900087
14	0x3d320f8a	0.04347185
15	0xbe4d9975	-0.2007807
16	0x3e377165	0.1791435
17	0x3c45aaa6	0.012064612
18	0x3c7c6610	0.015405193
19	0xbdf59271	-0.11990822
20	0x3c22d408	0.0099382475
21	0xbc89b848	-0.016811505
22	0xbdac9b85	-0.084281005
23	0xbc1f101c	-0.009708431
24	0x3c564870	0.013078794
25	0x3e07b581	0.13252832
26	0xbc236bf7	-0.009974471
27	0xbd86d512	-0.06583609
28	0x3d0c074f	0.034186658
29	0xbd1bdff2	-0.038055368
30	0xbc4cacb4	-0.0124923475
31	0xbd389ca3	-0.045071255
32	0x3d4468f4	0.047951654
33	0xbdf6c788	-0.12049776
34	0x3d645316	0.0557433
35	0x3d2bf68c	0.041983172
36	0xbd44905c	-0.047989234
37	0xbd2d44a8	-0.042301804
38	0x3b83ea8f	0.0040257643
39	0xbd64f3e1	-0.055896644
40	0xbc29f424	-0.010373149
41	0xbc1c4784	-0.009538535
42	0xbde74797	-0.112929516
43	0x3cf6cc3b	0.030126682
44	0x3d09a51c	0.033604726
45	0xbc7f7554	-0.015591938
46	0x3d054dd4	0.032544926
47	0x3c868bd8	0.016424105
48	0xbcab040c	-0.020875953
49	0x3cf1f683	0.029536491
50	0x3cc082cd	0.02349987
51	0xbd49d24e	-0.049272828
52	0xbcf1593d	-0.029461497
53	0x3d24c508	0.040226966
54	0x3cb5e594	0.022204198
55	0xbcad2f64	-0.021140762
56	0xbd3aa801	-0.045570377
57	0x3d11ba3e	0.035578005
58	0x3d1fa9b4	0.0389802
59	0xbd600308	-0.05469039
60	0x3d4a473e	0.049384348
61	0xbe3ba2aa	-0.1832377
62	0xbac8afe0	-0.0015311204
63	0x3d4e518d	0.05037074
64	0xbe151627	-0.14559232
65	0x3c21a66e	0.00986634
66	0xbcef58bd	-0.029217118
67	0xbd0f3824	-0.03496565
68	0x3c83af60	0.016074836
69	0x3b700b66	0.0036627888
70	0xbd5b556f	-0.053548273
71	0xba95b320	-0.0011421181
72	0xbe40a438	-0.18812644
73	0xbd1162dd	-0.035494674
74	0xbbefeaf0	-0.007321708
75	0x3d640600	0.055669785
76	0xbd5f446e	-0.05450862
77	0xbd2942a8	-0.041323334
78	0xbe297180	-0.16547203
79	0x3ce2e84c	0.027698658
80	0xbcef78e6	-0.029232454
81	0xbd64ce8f	-0.055861052
82	0xbb8a46d8	-0.004219871
83	0x3d34453c	0.04401134
84	0xbd135c90	-0.035976946
85	0x3cfb145a	0.030649353
86	0xbfdd0e36	-1.7269962
87	0x3ca4531e	0.020059165
88	0x3c0c08f0	0.008547053
89	0xbdece512	-0.11567129
90	0xbda6e21f	-0.08148598
91	0xbd5a9bfd	-0.05337142
92	0xbf24ff7b	-0.6445233
93	0x3d4c19c0	0.049829245
94	0x3ae18c60	0.0017207973
95	0x3d508778	0.050910443
96	0x3cc95d54	0.024580635
97	0xbc322298	-0.010872506
98	0x3d2b06b6	0.041754447
99	0xbd0a7788	-0.0338054
100	0xbd11eb80	-0.03562498
101	0x3e2c45a2	0.16823438
102	0xbe7af3b6	-0.24507031
103	0x3d27a1a2	0.04092563
104	0xbd0cb1f2	-0.03434939
105	0xbd18bad1	-0.037287537
106	0x3d4114d0	0.04713899
107	0x3d97df23	0.07415607
108	0xbd0a1100	-0.03370762
109	0xbe0d2ed3	-0.13787393
110	0xbe2dd66d	-0.16976328
111	0xbd633f48	-0.05548027
112	0xbdb6bb81	-0.08922482
113	0xbbcd1e88	-0.006259743
114	0x3c5d97b8	0.013524942
115	0xbdc34e17	-0.09536379
116	0xbdf82f5a	-0.121184066
117	0x3c9abc50	0.018888623
118	0x3cc18238	0.023621663
119	0xbd42ca28	-0.047556072
120	0x39a9bc24	0.00032374368
121	0xbd0aaf25	-0.033858437
122	0x3c2d405f	0.010574429
123	0xbcee1bc0	-0.029065967
124	0x3cdd7e4c	0.027037762
125	0xbd697fac	-0.057006523
126	0xbd3b43c4	-0.045718923
127	0xbd6a729f	-0.057238217
128	0xbd5f4d39	-0.054517005
129	0xbcf37bfd	-0.029722208
130	0xbc90f2cc	-0.0176939
131	0xbdce1f9b	-0.10064622
132	0xbd11f9d4	-0.035638645
133	0x3c802cee	0.015646424
134	0x3cd3726c	0.025811397
135	0xbd45967e	-0.048239224
136	0xbcc1b5ee	-0.023646321
137	0xbdfdeb06	-0.12398343
138	0xbd9f31c7	-0.07773166
139	0xbc28a1d0	-0.010292485
140	0xbc8eefae	-0.017448273
141	0x3d4b7ffc	0.049682602
142	0x3c4a4188	0.012344725
143	0xbe9baafc	-0.30403888
144	0x3d64833f	0.05578923
145	0xbd55f20d	-0.05223279
146	0xbd549633	-0.051901054
147	0xbe14ae88	-0.14519703
148	0xbd026aca	-0.031840123
149	0xbd42e11a	-0.047577955
150	0xbcfeb274	-0.031090952
151	0x3d1a7946	0.03771331
152	0x3c8781f4	0.016541459
153	0xbcf17e6f	-0.029479234
154	0x3bb80af0	0.005616538
155	0x3cd20fa8	0.025642231
156	0x3abf6566	0.0014602363
157	0xbe3fdde4	-0.18736988
158	0xbf38cd42	-0.721882
159	0xbfdc9e01	-1.7235719
160	0x3d1ea44c	0.038730904
161	0x3d313ba4	0.04326977
162	0x3d5513f0	0.052020967
163	0xbd21da1c	-0.039514646
164	0xbdbe0460	-0.09278178
165	0xbd20c37e	-0.039248936
166	0xbd02dcf7	-0.03194901
167	0xbdd41645	-0.1035581
168	0x3d0098ca	0.03139571
169	0xbe1bc9a5	-0.1521364
170	0x3d678b46	0.056529306
171	0xbd4a9224	-0.049455777
172	0x3c479688	0.012181886
173	0x3b15e220	0.0022870377
174	0xbb8d0866	-0.0043039797
175	0xbe2cbc5e	-0.16868731
176	0x3d1bd5fe	0.038045876
177	0xbe3f2952	-0.18668106
178	0x3ca39978	0.01997064
179	0x3d2e56e2	0.042563327
180	0xbde65b63	-0.112478994
181	0xbc3f1d0b	-0.011664639
182	0xbd5a0180	-0.053224087
183	0x3c5d0979	0.013491028
184	0x3b981867	0.004641581
185	0x3d51403e	0.051086657
186	0xbdc0b308	-0.094091475
187	0x3c339050	0.0109597
188	0x3d232b0c	0.039835975
189	0xbd30f5a7	-0.043203022
190	0xbcdd598c	-0.027020238
191	0x3be34340	0.006935507
192	0x3d53edf0	0.051740587
193	0xbd98818a	-0.074465826
194	0xbd999096	-0.07498281
195	0xbe1397f1	-0.1441343
196	0x3d17e8bc	0.037087187
197	0xba44e580	-0.0007511005
198	0x3d62c45a	0.055363037
199	0x3c7d089b	0.015443946
200	0xbcdd2a58	-0.02699773
201	0x3aea95d0	0.0017897431
202	0xbb360b20	-0.0027777627
203	0xbbe40a40	-0.0069592297
204	0xbc0f8f34	-0.00876217
205	0xbd9f7058	-0.077851
206	0xbd64a370	-0.05581993
207	0x3d346dac	0.044049904
208	0xbc62bab2	-0.013838457
209	0x3cf3c478	0.02975677
210	0xbd9e6a81	-0.07735158
211	0xbc81873c	-0.015811555
212	0xbcf84927	-0.03030832
213	0xbe2a7095	-0.16644509
214	0x3dd6b877	0.104844026
215	0x3c655f10	0.013999715
216	0xbdd8e639	-0.105907865
217	0xbd067b28	-0.032832295
218	0x3caed4f1	0.021341773
219	0xbb66fb50	-0.0035245009
220	0xbf09df79	-0.5385662
221	0x3c958332	0.018251035
222	0xbf79a0db	-0.9751107
223	0x3d4d01e4	0.05005063
224	0x3ca860cc	0.020553969
225	0xbd5bcc87	-0.05366185
226	0x3d508182	0.05090476
227	0xbc50cdd4	-0.012744386
228	0xbc532606	-0.012887483
229	0x3d1821c4	0.037141576
230	0xbd229372	-0.039691396
231	0x3da73890	0.08165085
232	0x3c8fb6d4	0.017543234
233	0xbd2a0aca	-0.041514196
234	0xbd16ac49	-0.036785398
235	0x3dc9b4c4	0.098489314
236	0x3d1c29d6	0.038125835
237	0x3d2235e2	0.039602168
238	0xbdbf1855	-0.09330813
239	0xbd5c90fc	-0.053849205
240	0x3d57a1a6	0.052644394
241	0x3a4b2400	0.00077492
242	0x3d972c0e	0.0738145
243	0xbe310124	-0.17285591
244	0x3bdc38e0	0.006720647
245	0x3d14f45d	0.036365855
246	0x3bab5850	0.0052290335
247	0xc0021cff	-2.0330198
248	0x3b70f3c0	0.003676638
249	0xbc4a8141	-0.012359918
250	0xba836520	-0.0010024644
251	0x3cbf99a0	0.023388684
252	0x3c940eec	0.018073522
253	0x3d3b7a88	0.04577115
254	0x3d318510	0.04333979
255	0xbd0bf452	-0.03416855

fc2.bias f4 [300]
0	0x3dede587	0.116160445
1	0x3f30d026	0.6906761
2	0x3ce48079	0.027893292
3	0xbde50d44	-0.11184171
4	0x3f31520b	0.6926581
5	0xbd168040	-0.036743402
6	0x3d09fb88	0.033687145
7	0xbd981b5f	-0.074270956
8	0x3dd8a105	0.10577587
9	0x3f976569	1.1827823
10	0x3f8d4cb2	1.103903
11	0xbd3a79ed	-0.045526434
12	0xbc420f5f	-0.011844485
13	0x3f3423fc	0.7036741
14	0xbda2f84b	-0.079575144
15	0x3beb50e4	0.007181274
16	0x3d9cfb97	0.076651745
17	0xbd8048a7	-0.06263857
18	0x3f09c66f	0.5381841
19	0x3f24618a	0.6421133
20	0xbd7210fe	-0.059098236
21	0x3e70a13a	0.23499003
22	0x3f1248a1	0.5714207
23	0x3e46716c	0.19379205
24	0xbc505d7f	-0.012717604
25	0x3f55e6f9	0.8355556
26	0xbd949fe2	-0.07257058
27	0x3c8c256c	0.017107688
28	0xbd49987b	-0.049217682
29	0xbb95d081	-0.0045719747
30	0x3f275a4b	0.6537215
31	0xbd8c79cd	-0.06859169
32	0x3f02c337	0.51079124
33	0x3e0c6167	0.13709031
34	0x39aaee48	0.0003260246
35	0xbe600559	-0.2187704
36	0x3d86272e	0.06550442
37	0x3e40d9a7	0.18833028
38	0x3f436f4d	0.76341707
39	0xbf2c7626	-0.6736778
40	0x3ad1aafe	0.0015996394
41	0x3fb3e9db	1.4055742
42	0xba50a2ee	-0.0007958849
43	0x3e887d84	0.2665826
44	0xbd807661	-0.06272579
45	0x3e390dc1	0.18071653
46	0xbd925627	-0.071453385
47	0x3f828eee	1.0199869
48	0xbe04a909	-0.12955107
49	0x3c00e37e	0.007866738
50	0x3f3a7434	0.7283356
51	0xbe116c4c	-0.14201468
52	0x3f462725	0.7740348
53	0x3f3dcfef	0.74145406
54	0xbd21616e	-0.039399557
55	0x3f4e8ccb	0.80683583
56	0x3f370732	0.71495354
57	0xbefeeab9	-0.49788454
58	0x3f42adbf	0.76046365
59	0xbdf03a83	-0.1172991
60	0x3d628bc4	0.055309072
61	0x3e26853f	0.16261767
62	0x3f39636f	0.7241735
63	0x3d53f369	0.051745806
64	0x3e8512f8	0.25991035
65	0x3edb0f09	0.42784908
66	0x3dcb9b19	0.09941692
67	0x3f606aeb	0.87663144
68	0x3d106336	0.035250865
69	0x3edcd016	0.43127507
70	0x3f686587	0.9077992
71	0x3e46070c	0.19338626
72	0x3d97f958	0.074206054
73	0xbab4aa49	-0.0013783659
74	0xbcc7da1b	-0.024395993
75	0x3c047d1a	0.008086467
76	0xbd8e8bb8	-0.06960243
77	0x3f47e9cb	0.78091115
78	0x3f3fa8e0	0.7486706
79	0x3ee90608	0.45512414
80	0x3e1a8386	0.15089235
81	0x3e9a0e4f	0.30089042
82	0x3c68fc3b	0.014220293
83	0x3f020b47	0.5079846
84	0xbed2b94a	-0.4115699
85	0x3ebc6526	0.3679592
86	0x3f3e7558	0.743978
87	0xbd7dca72	-0.061960645
88	0x3f64afb5	0.8933061
89	0x3d02412d	0.031800438
90	0x3f40ea1f	0.7535724
91	0x3f5eb38c	0.86992717
92	0x3f048af0	0.517745
93	0x3f2a1547	0.66438717
94	0x3f807887	1.0036782
95	0x3ebd5644	0.36979878
96	0x3d884729	0.06654198
97	0x3f422723	0.7584097
98	0x3e0f5e08	0.14000714
99	0x3f0f6b1a	0.560228
100	0x3d8939f7	0.06700509
101	0xbe10d1bb	-0.14142506
102	0x3dc6ad39	0.09701008
103	0x3f73c78b	0.95226353
104	0x3d9c551f	0.07633423
105	0x3fa1981e	1.2624547
106	0x3f499029	0.78735596
107	0x3c9ff750	0.019527107
108	0x3f5a9068	0.85376596
109	0x3a7b3533	0.00095828174
110	0x3d961796	0.073287174
111	0x3f4b4f97	0.7941832
112	0xbf1412cf	-0.578412
113	0x3e36793f	0.17819689
114	0x3f600636	0.8750948
115	0x3cca6103	0.024704462
116	0x3df2c5a5	0.11854104
117	0x3e90861b	0.28227314
118	0x3f599f5d	0.85008794
119	0xbded4467	-0.11585312
120	0x3d970b07	0.0737515
121	0x3ecd1d4b	0.4006141
122	0x3f394f94	0.7238705
123	0x3d41abbb	0.047282916
124	0x3f56f439	0.83966404
125	0x3f41505b	0.7551324
126	0x3f5ba470	0.85797787
127	0xbd7b05be	-0.061284773
128	0x3f527a3c	0.82217765
129	0x3b78353c	0.0037873527
130	0x3f6c40a1	0.92286116
131	0x3ca46a0d	0.0200701
132	0x3f503d20	0.8134327
133	0x3d2fb094	0.042893007
134	0xbd34f1ff	-0.044176098
135	0x3cf21b54	0.029554047
136	0xbf24715e	-0.64235485
137	0x3ecda628	0.4016583
138	0x3d9d71ae	0.07687698
139	0x3f3eab67	0.7448029
140	0x3d760f6b	0.060073297
141	0xbd62cd29	-0.055371437
142	0xbd4ac0a0	-0.049500108
143	0x3f61caab	0.8819987
144	0xbe35ade2	-0.17742112
145	0x3d090ebe	0.033461325
146	0x3e08a4e4	0.13344151
147	0x3f477973	0.7791969
148	0xbe201059	-0.15631236
149	0xbf212c6a	-0.62958395
150	0x3f4aff63	0.7929594
151	0x3f99662f	1.1984309
152	0x3de6c0ae	0.112672195
153	0x3f823194	1.017138
154	0x3ee3ab0d	0.4446644
155	0x3f3502ca	0.7070738
156	0x3f8a8931	1.0823117
157	0x3dc63b47	0.09679275
158	0x3f4cb36d	0.7996128
159	0xbd9e4546	-0.077280566
160	0xbd09d194	-0.033647135
161	0x3d9ba26f	0.07599341
162	0x3f444236	0.7666353
163	0x3eb2a68f	0.348927
164	0x3d39ea9b	0.045389753
165	0x3f307027	0.6892113
166	0xbe75507e	-0.23956487
167	0xbd7af63f	-0.061269995
168	0x3d2a7f72	0.041625448
169	0x3f33cb94	0.7023251
170	0x3f5b4380	0.8564987
171	0x3d1d0d93	0.038343024
172	0x3f43e8a3	0.7652685
173	0x3f4bd21f	0.79617494
174	0xbf75557b	-0.9583356
175	0x3f59f391	0.8513728
176	0x3eee1cf0	0.46506453
177	0x3e3aabdc	0.18229622
178	0x3f99a277	1.2002705
179	0x3f4fee37	0.8122286
180	0x3e6509c2	0.22367004
181	0x3e0cd165	0.13751753
182	0x3f7e944a	0.9944502
183	0x3cc73708	0.024318233
184	0x3f470ea5	0.7775672
185	0x3dcab30f	0.09897434
186	0x3ddca974	0.10774508
187	0x3b3a12ea	0.0028392621
188	0x3f87fcd2	1.062403
189	0x3f073f9c	0.52831435
190	0x3c46fc7f	0.012145161
191	0x3ef5d178	0.48011374
192	0x3f8cd49a	1.1002381
193	0xbddb2e1c	-0.10702154
194	0x3faa02d2	1.3282111
195	0xbd269e96	-0.040678583
196	0x3f4cd642	0.8001443
197	0x3dbdec65	0.09273604
198	0x3f4f807f	0.81055444
199	0xbf26eb1a	-0.65202487
200	0xbe3f9128	-0.18707716
201	0xbb77cc62	-0.003781103
202	0xbc719331	-0.014744566
203	0xbf00869d	-0.50205404
204	0xbdc6df14	-0.097105175
205	0x3e5d0b85	0.21586426
206	0x3d62f47e	0.055408947
207	0x3db3240c	0.0874711
208	0xbd98be8f	-0.07458221
209	0x3e05dc0d	0.13072224
210	0x3ed579c8	0.41694474
211	0xbc87ad31	-0.016562076
212	0x3e27b21c	0.16376537
213	0x3f24d4f0	0.64387417
214	0xbf0a89c1	-0.54116446
215	0x3d956709	0.07295043
216	0xbf0d7d28	-0.552691
217	0x3d01600f	0.03158575
218	0xbe1c5628	-0.15267241
219	0x3f49770b	0.7869727
220	0x3f55eb38	0.8356204
221	0x3ded798f	0.11595451
222	0x3f34aeea	0.705794
223	0x3f2ed563	0.6829435
224	0x3f88c531	1.0685178
225	0xbc97778c	-0.018489622
226	0x3f3082c9	0.6894956
227	0x3f61107b	0.8791577
228	0xbd424d0c	-0.04743676
229	0x3d920144	0.07129148
230	0x3cd166fe	0.025561806
231	0x3f1d081f	0.61340517
232	0x3e5918a8	0.21200812
233	0x3f52ec95	0.82392246
234	0x3dd7f0cd	0.10543976
235	0xbd140d7f	-0.036145683
236	0x3da49bd9	0.08037538
237	0x3ea0eb06	0.3142931
238	0x3c82fbf8	0.015989289
239	0x3f226f98	0.6345153
240	0xbf192658	-0.5982413
241	0x3d0d221c	0.034456357
242	0x3f65a35d	0.897024
243	0xbdcf69c3	-0.10127594
244	0x3f69ed8b	0.91378087
245	0x3d37453d	0.044743765
246	0x3eee3644	0.46525776
247	0x3f23b442	0.63946927
248	0xbda1803d	-0.07885788
249	0x3c864259	0.016389059
250	0x3f9d89be	1.230766
251	0x3f57129f	0.8401279
252	0x3e6d14da	0.23152485
253	0x3f3cb0c3	0.73707217
254	0x3df67719	0.12034435
255	0x3f31cc4a	0.69452345

fc3.weight f4 [1, 300]
0	0xbb92ff3f	-0.004485994
1	0x3def6f74	0.1169118
2	0x3a6d5118	0.00090529164
3	0xbcb5dd3d	-0.022200221
4	0x3dd7854a	0.1052347
5	0x3c8c3a99	0.017117785
6	0xbc1f601f	-0.009727507
7	0xbcf5a2c9	-0.029984849
8	0xbc0220e6	-0.007942414
9	0x3f849b6b	1.035993
10	0x3f02ca01	0.51089483
11	0xc050592f	-3.2554433
12	0x3b60f4ae	0.0034325528
13	0x3e1072df	0.1410632
14	0xbbfc23d7	-0.007694702
15	0xbc28b80d	-0.010297787
16	0xc00b4df3	-2.1766326
17	0x3bb1d49c	0.0054269563
18	0x3d09fd9b	0.033689123
19	0x3dc6c560	0.09705615
20	0x3b55d0c4	0.0032625655
21	0xbc224e38	-0.009906344
22	0x3d52f92a	0.051507153
23	0xbc91d7f5	-0.017803172
24	0x3ceee100	0.029160023
25	0x3e8fa270	0.28053617
26	0x3edea2df	0.43483636
27	0xbcd1fa57	-0.025632067
28	0x3b615cef	0.0034387668
29	0xbc0a1250	-0.008427218
30	0xc03a17e3	-2.907708
31	0x3b9f17c2	0.004855127
32	0x3f1cc9ff	0.6124572
33	0xbb49eac8	-0.0030810107
34	0x3ba84384	0.0051350016
35	0xbfb35c3a	-1.401252
36	0xbb8add64	-0.0042378176
37	0x3fb2566a	1.3932621
38	0x3e9b6477	0.30350086
39	0xbf02986a	-0.51013815
40	0xc0536a11	-3.3033488
41	0xc0af1f07	-5.4725375
42	0xbcff507d	-0.03116631
43	0xbc6eb953	-0.014570552
44	0xbcd2beaf	-0.02572569
45	0xbc138ec3	-0.009006205
46	0xbba13859	-0.0049200472
47	0x3ee2c974	0.44294322
48	0x3f611865	0.8792785
49	0xbfeb8a87	-1.840165
50	0x3e0e0878	0.13870418
51	0x3dbdb5b5	0.092631735
52	0x3e32752a	0.17427507
53	0x3e1e8e6b	0.15484016
54	0xbc085d01	-0.008322955
55	0x3e59e2ce	0.21277925
56	0x3feb91b6	1.8403842
57	0x40728171	3.7891505
58	0x3e1e8bd5	0.15483029
59	0x3aae809a	0.0013313473
60	0x3d95fbf8	0.0732345
61	0xbcc0b07e	-0.023521658
62	0x3e6c4e37	0.23076712
63	0xbc0f1bad	-0.008734626
64	0x3f85f8cb	1.046655
65	0x3e8777aa	0.26458484
66	0xbc297338	-0.010342412
67	0x3e882199	0.26588133
68	0xbbecaf0f	-0.007223017
69	0x3df12a46	0.11775641
70	0x3e8569c4	0.26057255
71	0xbc390408	-0.011292465
72	0xbad5fd4c	-0.0016326099
73	0xbc301263	-0.010746571
74	0x3bb97388	0.0056595244
75	0x3be8004b	0.007080113
76	0x3c0b9a74	0.008520711
77	0x3e585941	0.21127798
78	0x3e4cf302	0.20014575
79	0x3f237571	0.63851076
80	0x3cd3fa35	0.025876144
81	0x3e0ac194	0.13550407
82	0x3cceca72	0.025243018
83	0x3ed33006	0.41247576
84	0xbfec9d5e	-1.8485525
85	0x3fbee928	1.4914904
86	0x3e0ff4ad	0.1405818
87	0x3bc0b025	0.005880373
88	0x3e7f4ede	0.24932429
89	0xbcfdd7f7	-0.03098677
90	0x3e2eb396	0.17060694
91	0x3e7ed15c	0.24884552
92	0x3f7c6585	0.98592407
93	0x3df3476a	0.118788555
94	0x40084a89	2.1295493
95	0x401537ad	2.3315232
96	0xbd01a567	-0.03165188
97	0x3e44b914	0.19211227
98	0x3cbe5a73	0.023236489
99	0x3c97ccfd	0.018530363
100	0x40040364	2.062707
101	0x3b589957	0.0033050382
102	0xba04f337	-0.0005071642
103	0x3f12e8d6	0.5738653
104	0x4014a90a	2.3228173
105	0xc0524cf4	-3.2859468
106	0x3e2867d1	0.16445853
107	0x3cf69957	0.030102415
108	0x3e74bb36	0.2389954
109	0xbbd641be	-0.006538599
110	0x3cc66480	0.024217844
111	0x3e475d1d	0.19469114
112	0xbfb2d2e2	-1.3970606
113	0x3cce87c3	0.02521122
114	0x3e7b2b97	0.24528347
115	0xba251da1	-0.00062986655
116	0xbb6f4d1d	-0.003651447
117	0x3f08d0ff	0.534439
118	0x3e5a720a	0.21332565
119	0x3cdb9c9e	0.02680808
120	0xbc0bf8b5	-0.008543183
121	0x3f68c3a2	0.9092351
122	0x3e04c023	0.1296392
123	0x3bbab867	0.005698252
124	0x3e8ca046	0.2746603
125	0x3e3bbfb2	0.18334845
126	0x3e6d2c5c	0.23161453
127	0x3a79e073	0.0009532042
128	0x3e42edca	0.19036022
129	0xbb81f062	-0.0039654234
130	0x3e918f81	0.28429797
131	0xbca2d381	-0.019876244
132	0x3e53992f	0.20663904
133	0xbcdb3a13	-0.02676109
134	0x3bd9fc6c	0.0066524055
135	0xbce29d3a	-0.027662862
136	0xbf022b45	-0.50847274
137	0x3ffe241b	1.9854769
138	0xbc91a747	-0.01777996
139	0x3e2f5906	0.17123803
140	0xbac6741c	-0.0015140804
141	0xbfa33726	-1.2751205
142	0xc0216e76	-2.522367
143	0x3e75b6e7	0.23995553
144	0x40103846	2.2534347
145	0x3c81ae45	0.015830169
146	0x3b4cf3d3	0.003127326
147	0x3e6026ba	0.21889773
148	0x3db022c4	0.08600381
149	0xbf40451e	-0.75105464
150	0x3e3dddee	0.1854169
151	0x3f1ac092	0.6045009
152	0x3ca12d20	0.019674838
153	0x3eda76e8	0.42668843
154	0x3f3dcaa7	0.7413735
155	0x3f002a0f	0.50064176
156	0x3f006bf1	0.50164706
157	0x3b7a06ca	0.003815102
158	0x3e4b1191	0.1983092
159	0x3d5e5d28	0.05428806
160	0xbc9c5413	-0.019083058
161	0xbc88ae99	-0.016684817
162	0x3e1c557a	0.15266982
163	0xc079f11c	-3.9053411
164	0xbcb84a27	-0.022496296
165	0x3e06bc06	0.13157663
166	0xbf674c75	-0.9035104
167	0x3e07102d	0.13189764
168	0xbc61ddf1	-0.013785825
169	0x3dbb11dc	0.09134266
170	0x3ea90cd3	0.33017597
171	0xbc1fac17	-0.009745619
172	0x3e1cd628	0.15316069
173	0x3e256ad5	0.16154034
174	0xc0005e41	-2.0057528
175	0x3e6b2eec	0.22967118
176	0x3b8bdf93	0.0042685955
177	0x3fcb31e1	1.5874597
178	0x3f69187f	0.91053003
179	0x3e704635	0.23464282
180	0x3f2674f1	0.6502219
181	0xbbbf3276	-0.005834873
182	0x3f32485a	0.6964165
183	0xbb9bbca1	-0.004752711
184	0x3e506b3d	0.20353408
185	0xba402d29	-0.0007330948
186	0x3d009cf6	0.03139969
187	0xbccc048f	-0.024904517
188	0x3f24c401	0.6436158
189	0x3aacd2cc	0.0013185381
190	0xbb210d91	-0.0024574737
191	0xc0a539de	-5.163314
192	0x3efc512b	0.49280676
193	0x3e937fc9	0.2880843
194	0xc084219e	-4.1291037
195	0x3cb50593	0.022097385
196	0x3e2d1ced	0.16905566
197	0xbd3009c2	-0.042978056
198	0x3e36c021	0.17846729
199	0xbecd95e4	-0.4015342
200	0xbf07d17f	-0.5305404
201	0xbcd082c3	-0.025452977
202	0xbd6b6165	-0.05746593
203	0xbfb32143	-1.3994526
204	0x3cf3cbf5	0.02976034
205	0x3cad7e64	0.021178432
206	0xbc135306	-0.008991962
207	0x3cde5010	0.027137786
208	0xbce64424	-0.028108664
209	0x3e844c4c	0.2583946
210	0x3f6d99e3	0.9281294
211	0x3be148f6	0.0068751527
212	0x3fa4c981	1.2873994
213	0x3dd9b037	0.106293134
214	0xbfc9983e	-1.5749586
215	0xbbdc5fce	-0.006725288
216	0xbeb3220a	-0.34986907
217	0xbbc7e811	-0.0061006625
218	0xbbd202d6	-0.0064090295
219	0x3e27e9ea	0.16397825
220	0x3e68c3b3	0.22730903
221	0xbc57ba6d	-0.013167006
222	0x4040c32a	3.0119119
223	0x4007750d	2.1165192
224	0x3f011b7a	0.5043255
225	0x3d2114e1	0.039326552
226	0x3f1ecb5f	0.6202907
227	0x3e839aeb	0.2570413
228	0xbc99f627	-0.018794132
229	0xbce58e43	-0.028021937
230	0xbb211df0	-0.0024584495
231	0x3da4f915	0.08055321
232	0x3f3b165d	0.73081
233	0x3e4c1dfe	0.19933316
234	0xbc3b3166	-0.011425352
235	0x3ce9fc80	0.028562784
236	0xbb97590f	-0.004618771
237	0x40478c42	3.1179357
238	0x3b47fcf3	0.003051576
239	0x3dcb2d4c	0.09920749
240	0xbed8fce0	-0.42380428
241	0xbc02905f	-0.007968991
242	0x3e7cb384	0.24677855
243	0x3da66387	0.08124452
244	0x3e88da1d	0.26728907
245	0xbccbebcd	-0.024892712
246	0x3ee9d855	0.4567286
247	0x40161cb5	2.3455021
248	0x3a5832ac	0.0008247297
249	0x4037cb27	2.8717744
250	0x3f23041f	0.63678163
251	0x3e70ef70	0.23528838
252	0xc0015871	-2.021023
253	0x3e1e39ef	0.15451787
254	0x3c54681e	0.012964277
255	0x3da19579	0.07889838
