algorithm/pytorch-ddpg-master/output/ParallelCableDrivenRobot-v2-run18/actor.pkl (torch, 535943 bytes, 6 tensors)

fc1.weight f4 [400, 23]
00000000: 4284 4abd 88e6 20bd 20f4 113c 5638 b93c
00000010: ec6e 163c f9b0 193d d7a6 afbc beed bf3c
00000020: be11 f03c 716c 063d a814 c6bb 168c 26bd
00000030: cd2b 033d 4c7b 5f3c 96df ed3c 3983 233d
00000040: 59ad 483d 8c04 5cbc 96db 88bc 369e f63c
00000050: ac13 1e3c 2c11 56bc 83e9 b4bc a06b e4ba
00000060: 7119 473d 4060 333c 2b07 2cbd 807c 8bbc
00000070: e09c 35bd 7f9e 083d 223d ad3c 35d5 0f3d
00000080: 33a6 41bd 7e58 11bd 7eee 0ebd f55e 2d3d
00000090: 8116 3d3d 6177 3c3d f3b7 4bbd 80e9 323b
000000a0: 255c 373d 2f79 443d 5a11 d9bc b7fe a8bc
000000b0: f41e 793c 5f81 303d 0415 82bc 9dbe fcbc
000000c0: 2a5d ae3c b71c 4b3d 1a94 c13c 9f22 423d
000000d0: 2a34 b03c fa6e a83c 92c6 f23c 165b 10bd
000000e0: 6e36 07bd 073c 353d 3945 3a3d d77b 123d
000000f0: e072 41bb 96b0 f23c 9b98 20bd 6acb e63c
00000100: bf5c 093d 8001 11bb b3a9 473d 92b0 45bd
00000110: 3851 4fbc 9698 a63c 507d 06bb 2037 11bb
00000120: c024 c9bb 0901 063d 007c a0bb 3248 2cbd
00000130: 4942 0d3d 3828 41bd c230 8f3c 6d38 483d
00000140: c35e a4bc d6e7 eb3c 609e 3fbd a70a cbbc
00000150: 504b 07bb 62f9 e23c d91a 1e3d f072 c9bc
00000160: a6ec 89bc a829 94bb a056 29bb 806e 6bba
00000170: d019 b3bc 34e0 0bbc 6df9 443d b004 783b
00000180: 10b0 983b d04e 1abd 83b2 a3bc 942a 85bc
00000190: cbea 073d 1fa2 283d b685 c73c d3dc 0a3d
000001a0: a0ec 23bb 535d 30bd 1e93 eb3c 6ef2 a33c
000001b0: 8741 123d 4293 12bd 2297 843c c9fb 493d
000001c0: 6d08 fcbc da5d a83c 99b7 473d 3adb b33c
000001d0: 05b4 2a3d bf11 453d e9df 133d e12c 193d
000001e0: a08a 2ebb 608e 40bd a0c2 27bc 18fd 16bc
000001f0: 409c d8ba 140a 583c d029 a6bb 33b2 153d
00000200: a428 4e3c 00d2 a8bb 8e73 e13c 6da7 22bd
00000210: 80b2 603b e00b 94bc ccfe 793c a6de d03c
00000220: 80f2 64bc 77da 243d 13f8 1d3e 9dd6 be3e
00000230: 6683 91be dcf1 de3d 6179 f63e bcfa d1be
00000240: 2467 fd3d 5d45 8b3d 9fc0 e9bd 7837 ef3d
00000250: dfad 0e3d b057 a2be c3d8 a73e 63b2 163e
00000260: c7ab 9d3d 20a0 a8be 332d bcbe 51a8 4ebe
00000270: b65a e0be 531f f33e 3aad 273e 9990 e2be
00000280: 20c8 f9be e669 533d 528e 90bd f209 873e
00000290: 7d9a a1be 627f 9fbe 99d5 c23e 88f2 1f3c
000002a0: 922d 8ebd 82e6 1c3d 6499 d9b9 1050 eb3d
000002b0: 3b96 2c3e 2d8a 2cbe a70a 1238 d42a b4bd
000002c0: 1f04 703e ad39 2c3e bce4 8f3e 3343 b03e
000002d0: ef85 b7be 3900 82be 47d9 b13e 8782 aa3e
000002e0: 0465 c23c 2353 fcbd dc23 643e 9dd2 94be
000002f0: 00bd afbe 0cb0 a03e f3d4 b9bb fde1 cebd
00000300: 19c6 be3d 2e07 4bbc 81d0 883d d9f6 403e
00000310: 7e00 3bbe 2187 293c d7b7 efbd 369c 5c3e
00000320: dc11 2e3e 5d2a b33e 5502 a53e 31e3 a1be
00000330: f1ca 55be 88a4 ad3e 3406 a73e efbd 3dbd
00000340: 684d 7cbc 45ef 1c3d ca6f a6bc 8547 1b3d
00000350: cd6d b0bc 98ec e83b 140e 93bc c7f9 b7bc
00000360: ccd2 7a3c ff99 31bd 1b8b 28bd 6a41 933c
00000370: 0354 153d 8844 03bc e09f 29bc 304e 6bbb
00000380: 5e09 ad3c 68fe 383c d479 04bd d720 f8bc
00000390: da57 aabc 80a1 3a3a 99a1 4f3d bd77 e3bd
000003a0: 7ab6 903e 9d4e 9abe 5e5b 8cbe 55ea a83e
000003b0: 7372 ecbc 0db6 e4bd 1082 833d 0214 e0bc
000003c0: e611 eb3d dd63 2d3e eb93 88be b48d 0b3d
000003d0: cc93 96bd c2b4 963e ac27 3d3e e658 8f3e
000003e0: 36f3 943e 9fe6 bbbe e913 93be a62c b13e
000003f0: 0b4a aa3e 0930 673e 21f9 043e d79a 4abe
-0.049442537 -0.03928235 0.008908302 0.02260987 0.009181719 0.03752229 -0.02144186 0.023428794
0.029305335 0.03281826 -0.006044943 -0.04066094 0.032024194 0.013640236 0.029037278 0.039920066
0.048993442 -0.013428818 -0.01670627 0.030104738 0.009648245 -0.0130656175 -0.022084003 -0.0017427094
0.048608247 0.010948241 -0.041999023 -0.01702714 -0.04433906 0.03335428 0.021147314 0.03511544
-0.04727764 -0.035484783 -0.034895413 0.042326886 0.04616404 0.046012286 -0.049735975 0.0027299821
0.04476561 0.047967132 -0.026497532 -0.02062927 0.015205134 0.043092128 -0.015879162 -0.03085261
0.021284658 0.04958793 0.02363019 0.0473963 0.021509249 0.02056073 0.029635701 -0.035243116
-0.033010893 0.0442467 0.045476172 0.035762634 -0.0029517934 0.029625218 -0.039208036 0.028173167
0.033535715 -0.0022126138 0.048745822 -0.048264094 -0.012653641 0.02033643 -0.002052147 -0.0022158101
-0.006138414 0.03271583 -0.0048975945 -0.04206104 0.034487043 -0.047157496 0.017479304 0.048881937
-0.020064717 0.028797071 -0.046781898 -0.024785353 -0.0020644255 0.027706806 0.038599823 -0.02459094
-0.016836476 -0.0045215674 -0.0025838986 -0.00089810044 -0.021862894 -0.008537341 0.048089433 0.003784459
0.00465966 -0.037672818 -0.019982582 -0.016255654 0.0331829 0.041170236 0.02435575 0.033902
-0.0025012866 -0.04305775 0.028756674 0.02001306 0.035707023 -0.035784967 0.016185347 0.049312387
-0.030765736 0.020552564 0.048759077 0.021955121 0.041675586 0.048112627 0.03610221 0.037396315
-0.002663292 -0.04701078 -0.010239273 -0.009215616 -0.0016526058 0.013185997 -0.0050709024 0.036546897
0.012582932 -0.005151987 0.027520921 -0.03971045 0.0034286082 -0.018072069 0.015258502 0.025496792
-0.013973832 0.040247407 0.15426664 0.37273112 -0.28420562 0.10885975 0.4813948 -0.41011608
0.12373188 0.06800339 -0.11413693 0.11680502 0.034833785 -0.31707525 0.32782564 0.14716487
0.076987796 -0.32934666 -0.36753234 -0.20181395 -0.43819207 0.47484836 0.16374674 -0.44250944
-0.48785496 0.051614664 -0.070583954 0.26374775 -0.31563178 -0.31151873 0.38053587 0.009762414
-0.069422856 0.038305767 -0.0004150375 0.1148988 0.16854183 -0.16849585 3.4819033e-05 -0.08797231
0.23439072 0.16818877 0.28104198 0.3442627 -0.3584437 -0.25390795 0.34736082 0.3330271
0.023729809 -0.123205446 0.22279304 -0.29066935 -0.34323883 0.31384313 -0.0056711375 -0.101016976
0.09315128 -0.0123918485 0.06680394 0.18844165 -0.18261907 0.010347159 -0.117049865 0.21543965
0.16999 0.34993258 0.32228342 -0.31618646 -0.20878197 0.3391459 0.3262192 -0.046323713
-0.015399314 0.038314123 -0.020316977 0.037910003 -0.021536732 0.0071082823 -0.017951049 -0.02245797
0.015309047 -0.043359753 -0.041148286 0.017975528 0.036457073 -0.008011945 -0.010353059 -0.0035904758
0.02112263 0.011291124 -0.032342747 -0.030289097 -0.020793844 0.0007119402 0.05069122 -0.11106823
0.2826422 -0.30138102 -0.27413458 0.3299128 -0.028863167 -0.11167536 0.06421292 -0.02735329
0.11478023 0.16932626 -0.26675352 0.034070686 -0.07352409 0.29434782 0.18472165 0.27997512
0.29091805 -0.36699387 -0.28726128 0.34604377 0.33259615 0.22576918 0.1298566 -0.19785629

fc1.bias f4 [400]
00000000: dee6 a03d e13d 4abe 0ed1 a3bd c063 6bbc
00000010: f0c3 84bc d049 c1bc bdb9 6b3e 85f2 1a3e
00000020: 9926 553e fc5b b1bd 7a69 553e ef4a b13d
00000030: f607 c5bd cd92 0f3e c940 d6bd 08c0 92bd
00000040: 6c0d 4ebe ec11 3b3e 851a 653e 5055 b23c
00000050: dd0f 2dbe 9e15 86bd 31ff f8bd 40a5 ec3c
00000060: 9ef4 9abd c043 4abd 3df5 d0bd 248d 813e
00000070: a6a0 593e a6a8 d4bd 2bc0 263e 7413 c1bd
00000080: 15c7 d2bc b0a0 5b3c 85d2 41be ca1a 703e
00000090: 456a d9bd bdef 313e e9d4 b4bd 678a 30be
000000a0: e422 9bbd d963 0c3e 40a9 f6bb 5980 52be
000000b0: 043c 4d3d 3c11 0bbd 749a 543d 1f5e 6e3d
000000c0: 2ae0 20be 1812 84bc 385b febd fec1 42be
000000d0: bcf8 013e f864 d8bc da18 203e 8afd 913e
000000e0: a96c 3a3e b7ab 2f3e 1ec0 22be 734e 0d3e
000000f0: 2883 1abe 7e61 fcbd e892 a1bb 2c5f 413d
00000100: 94a3 35be 3e11 32be 05e2 1cbe 2843 0f3e
00000110: 067b d23d b7ef eabd 05d8 2d3e 00f5 0bbb
00000120: b914 ea3c 8204 d03d e87e 8d3c 05c3 33be
00000130: e39b 30be a09c c7bb 5802 363e 0ed2 15be
00000140: 60ff fa3c d0b1 7b3e 8c2c e63d b294 37be
00000150: b011 873c 2d33 2fbe a487 c83c c070 7e3c
00000160: b310 003e 04e1 2bbd 3859 7bbd eccf 41bd
00000170: 11e8 fdbd 7e63 45be 3ae0 363e 748b 9d3b
00000180: a84b b83c ebc2 e83c 90f9 153c 5739 b23e
00000190: 3c27 99bd 2ebd cebd 4d1a 983d face 8a3e
000001a0: 34f8 253e 10f2 d9bc 79d0 25bc 6cf0 21be
000001b0: c6fb 683d 18a3 e5bc 9b82 c53e 4c05 98bd
000001c0: 4506 d1bd 807e 2e3b f8da 32bd d62c eb3d
000001d0: a120 f8bd e5a9 3d3e 18d9 eb3d 2ace 3d3d
000001e0: 719c e7bd 9c75 3bbe e94e ab3d 6a2a c0b9
000001f0: 3437 f9bc 28fd 4dbd 01d4 0e3e 53d0 d93b
00000200: 22c8 b63c 6c5a 02be c0de 003c 6a20 2fbe
00000210: be85 85bd eebc 80bd 86a4 423e 9404 a2bc
00000220: 3fbf a23e 94ce 35be d79e 53be 633a 6b3e
00000230: fa3f 9e3e ecd1 923d 50f9 31bc b928 803e
00000240: 463c 153e fd5f 143e ebeb ccbd cc87 473e
00000250: 8dc3 20be d419 c5bd 17db 8f3e 8921 0cbe
00000260: 4cb7 2dbe 473d d0bd 9288 583e 8a7e bc3d
00000270: 873e 47be 88dd 38be 0270 08be d1f5 e53d
00000280: 2c0d af3d 259c d63c 22b6 973e 0a45 d4bd
00000290: 80cc 363e 4b85 fc3d db80 973c 2647 10be
000002a0: 681c ce3c 20ef 953b 5013 8fbd b687 583e
000002b0: fc96 063e f660 873d f275 233e dc3f 123e
000002c0: 7ec9 5e3e 3763 703e 75ac 5e3e dbd8 2ebe
000002d0: 0eb8 563e 5a55 fb3d 1096 81bc 7d72 4fbd
000002e0: 3cce 32be 92b0 723e 78d8 79bd ac81 4dbe
000002f0: 2085 0fbe 8169 173e f042 253c 9ec8 09be
00000300: 942e 55bd 2ec5 ec3d 2277 cbbd d177 553e
00000310: be0d 06be 2054 c13e 32e9 2dbe 9a17 d8bd
00000320: 80ab db3a e663 8c3e de40 3a3e 3362 f6bd
00000330: 95ec 4ebe 28c7 f2bc e634 1dbe dcb2 a9bd
00000340: 5bb6 8d3e c86a 34bd 49e4 443e b2c9 8b3d
00000350: cbe9 3e3e f0f6 193c 1db5 07bd 68f0 9c3c
00000360: f0d7 753e 9214 543d d1c0 633d 8dea 243e
00000370: f0f6 64bd c800 493d 9f2c 42be 9532 763d
00000380: 526b b03d d304 8b3d 4ebc 46be 509f 3fbe
00000390: 0427 52be 149b 173d ccf0 303d d946 ec3d
000003a0: 7659 22be 2c4d 8ebd 3064 0dbe 06cb 923d
000003b0: c577 91bd 381f 803c 7b45 1d3e a8f6 ad3c
000003c0: d231 5d3d 98ca 37bd 4e08 01be 4a16 0fbe
000003d0: 4852 fbbc a667 8dbd b2f9 763e 4b71 0a3e
000003e0: b36c b03d 2d07 673e b4a6 a3bd 7794 4dbe
000003f0: e3ab ac3d ceb7 80bd 0078 d638 b752 0dbd
0.078565344 -0.19750167 -0.079988584 -0.014367044 -0.016206712 -0.023594767 0.23020072 0.15131576
0.20815505 -0.08660123 0.20841017 0.086568706 -0.09620659 0.14020844 -0.104615755 -0.07165533
-0.20122308 0.18268555 0.22373398 0.021769196 -0.16900583 -0.06547092 -0.12158049 0.028887391
-0.07566188 -0.049381018 -0.102030255 0.25302994 0.21252689 -0.1038373 0.16284244 -0.094275385
-0.025729695 0.01340501 -0.18927963 0.23447719 -0.106159724 0.17376609 -0.08829672 -0.17240296
-0.07575014 0.13709964 -0.0075275004 -0.20556773 0.050106063 -0.033951983 0.05190511 0.05819523
-0.15710512 -0.016121909 -0.12419742 -0.19019315 0.12692541 -0.026415333 0.1563448 0.28513747
0.18205513 0.17155348 -0.158936 0.13799457 -0.15089095 -0.12323283 -0.0049308427 0.047209904
-0.17738181 -0.1738939 -0.15320595 0.13990462 0.10277371 -0.11471503 0.16976936 -0.0021355748
0.028574334 0.1015711 0.017272428 -0.17554863 -0.17246966 -0.006091669 0.17774332 -0.14630911
0.03063935 0.24579549 0.112389654 -0.17927817 0.016487926 -0.17109366 0.024478741 0.015529811
0.1250637 -0.04196264 -0.061364383 -0.04731743 -0.12397779 -0.19276235 0.17858973 0.004807884
0.022497013 0.028413257 0.009153739 0.34809372 -0.074781865 -0.10094677 0.074268915 0.27111036
0.16207963 -0.026604682 -0.010120505 -0.1581437 0.056880735 -0.02803187 0.38576207 -0.07422885
-0.10206274 0.0026625693 -0.043665856 0.11483161 -0.121155985 0.18521841 0.11516017 0.04633919
-0.11309136 -0.18306583 0.0836466 -0.00036652695 -0.03042183 -0.050290257 0.1394806 0.0066471486
0.022312228 -0.12729806 0.007865608 -0.17102209 -0.0651965 -0.062860355 0.19008073 -0.019777574
0.31786534 -0.17754585 -0.20666061 0.22971492 0.30908185 0.07168946 -0.010862663 0.2503107
0.14573774 0.14489742 -0.10005935 0.19485396 -0.15699597 -0.09624067 0.2809684 -0.13684668
-0.16964453 -0.10167938 0.21145847 0.09203823 -0.19457446 -0.18053257 -0.13323978 0.112285264
0.08547434 0.026197502 0.29631144 -0.10364731 0.17851448 0.12330111 0.01849406 -0.14089641
0.02516003 0.004575625 -0.069861054 0.2114552 0.13143533 0.06610291 0.15962961 0.14282173
0.2175655 0.23475347 0.21745475 -0.17074911 0.20968649 0.12272139 -0.015818626 -0.050646294
-0.17461485 0.23700169 -0.060997456 -0.20068997 -0.14015627 0.1478634 0.01008676 -0.13455436
-0.052046373 0.115610465 -0.09934832 0.20846488 -0.1309118 0.37759495 -0.16983488 -0.10551377
0.0016759485 0.27419966 0.18188807 -0.12030449 -0.20207436 -0.02963598 -0.1535221 -0.08286068
0.2767819 -0.044047147 0.19227709 0.0682558 0.18643872 0.009397253 -0.033131707 0.019157603
0.24008155 0.05177743 0.055603806 0.16105099 -0.05589956 0.04907301 -0.18962334 0.060106833
0.0861422 0.067880295 -0.1940777 -0.18713117 -0.20522696 0.03701313 0.04319839 0.115369506
-0.15854439 -0.06948313 -0.1380775 0.0716763 -0.07102922 0.015639886 0.15358536 0.021235779
0.05400259 -0.044870943 -0.12600824 -0.13973346 -0.030678883 -0.06904535 0.24118689 0.1351978
0.08614483 0.22561331 -0.079907805 -0.20076166 0.08431222 -0.06285058 0.00010226667 -0.03450271

fc2.weight f4 [300, 400]
00000000: ee4c 633d 68fb fbbb 708f 34bc 408f b73b
00000010: 6c68 643d 7a1e d4bc 77c9 ed3c 6675 6bbd
00000020: a30f 01bd 1ad3 adbc d8bb 57bd cd8c fe3c
00000030: 0052 8c3a 1058 e8bc d0fb 00bb b6d1 21bd
00000040: 7098 5fbd 9651 05bd c2dd d8bb 7c16 52bd
00000050: 17b6 22bd d086 683d fc7d e43c ee0d febc
00000060: fd41 05bd 10ee 2dbb cf79 fdbc 2c53 3c3d
00000070: 6d6f e1bc a6ae 11bd 91b6 75bc 28af ec3c
00000080: b042 6a3c 059d bd3c 02d6 5c3d 3b22 0e3d
00000090: 9c66 363d 58ff 16bd e426 2e3d 687f f5bc
000000a0: 887b e8bb 2af7 c3bb f831 0a3c 751b 0abd
000000b0: 5c56 ba3c e6b9 673d 0c40 9f3c e25c cc3b
000000c0: 306e e83c 92bd 3f3d a062 bb3c 9a49 2c3d
000000d0: 6045 d0bc ad8b 0ebd e2cf aa3c 23bc 533d
000000e0: 81ed fab9 770d f33c f058 c63b 6eec 113d
000000f0: 1c32 afbc 78aa ee3c d3b5 4c3c 5830 263d
00000100: 402f 863c 68f9 f73c 6a7f 273d 1b6e 50bd
00000110: f24a a13b 0af0 6a3d e333 a83c e435 c63c
00000120: b797 11bd 8dd4 db3c 98da c53c a0a0 fc3c
00000130: 6030 3ebc 0188 62bd c29b 9bbb 82c0 1b3d
00000140: 90df 493d ff2d f43c f81e 17bd 3c65 4bbc
00000150: 0a98 88bc e07b 4d3c ff94 57bd 50ff 593d
00000160: 38e6 3dbb a8bd eebb 22f3 5cbd 00d9 703c
00000170: 7cf1 293d 54b6 943c 041b 56bd a952 313c
00000180: 70a6 e43c bd91 303d 9ad9 34bd 07e6 f1bc
00000190: c8ba 50bc 31c0 5cbd f327 613d 1c92 653b
000001a0: 8256 82bc bb51 67bd 7983 2dbc 54fa 673d
000001b0: 6256 1bbd 0227 1b3d df89 433d 1092 8d3c
000001c0: 9bbe e2bc d01d d3bc acea 07bd 869f 1bbd
000001d0: 58d8 5d3c cb32 f63a 2783 f33c 33db 463b
000001e0: 8374 67bd 5c0e 30bc 618a 633c ce92 b6bc
000001f0: e8b3 7fbd a021 3dbd 3cfe 213d f813 233d
00000200: 49bf 0e3d cccb 2c3d 1c5f c13c 0097 913a
00000210: 2ce7 9f3c 16eb b3bc 6da3 1cbc ab1c 553b
00000220: a520 eb3c f220 b5bc 7405 14bc e59d a7bc
00000230: 4729 5b3d 8102 aebd 00c7 c63b b472 4ebc
00000240: 9d47 2e3d 2f97 80bd b255 efbc 87c8 203d
00000250: 4ab2 4f3d f096 ccbc a966 e1bc 802d e33b
00000260: d5e5 4bbd afc9 e5bc da86 503c 9e48 36bd
00000270: 0a6a 013d 68c5 c4bc 7d57 dfbc 7254 48bd
00000280: 847e 68bd bf04 5fbd dfef 13bd 9b84 7fbd
00000290: 34c4 5abd ccbb 15bd b810 c8bc 2cda 213d
000002a0: 6c17 bc3c 5ad1 61bd cc45 35bc 1f46 3e3d
000002b0: 6421 c53c 8b8a 04bd 371f 54bd 0f3b e7bb
000002c0: 334f 203d 6aca 5c3d 2d3f 90bc a865 7f3c
000002d0: 911c c23a 3093 f83c 66ed 423d 104d 8cbc
000002e0: 186c 57bd f3d0 1bbd 3219 153d 4057 293c
000002f0: 423b babc d937 59bd b4a9 4dbd 800c 7bbc
00000300: 4eb7 1fbd 8a93 26be 6d4c 2fbd ed27 bbbc
00000310: 8063 063a b4b7 4a3d c670 06bd c8b2 2a3d
00000320: 00ae 1a3c 5e4e 1c3d 3a92 953c 2ce4 c23c
00000330: a4ef b23c 2a3f 2dbd b021 02bc acca 07bd
00000340: d230 7dbd a02c e0ba 4c93 233d 98fa fb3c
00000350: 7214 8cbb 0075 073c d044 123c c03d 9c3b
00000360: 2cbf 15bd 7e8b 4c3c f4e1 76bc e0b3 15bd
00000370: 2886 343c fafa 37bd e0d3 0bbd 1e5a 3e3b
00000380: c078 2b3d 9585 34bb 348f bbbc 82bf 593d
00000390: aaf6 13bd 324c 57bd 2e7f b8bc 875b bf3c
000003a0: acd8 20bc 22f1 513d da51 123d 9428 94bc
000003b0: d2d4 923c d9e3 7ebd 5b75 e6bc f07c 70bc
000003c0: fe2d a9bb 56b4 4c3d be79 633b e60d 5d3d
000003d0: 2443 523d 32b8 edbc cee1 2bbd bbbd 31bd
000003e0: 3cf6 01bc f854 4f3d 0bf6 2dbd 6ec7 0f3d
000003f0: 476f 093d 56fb afbc 5434 e93c 8c8b 403d
0.055493288 -0.007689882 -0.011020526 0.0056017935 0.055763647 -0.025893439 0.02902673 -0.057485007
-0.031509053 -0.021218825 -0.052669376 0.031072998 0.001070559 -0.028362304 -0.0019681342 -0.039506637
-0.054588735 -0.03254851 -0.0066182325 -0.051290974 -0.039724436 0.056769192 0.027892105 -0.031012502
-0.032533634 -0.0026539601 -0.030941872 0.045977756 -0.027518952 -0.03556695 -0.0149971405 0.028892115
0.014298126 0.023146162 0.05391503 0.034700613 0.04453145 -0.03686461 0.042517558 -0.029967979
-0.007094804 -0.005980392 0.008434765 -0.03371759 0.022746257 0.05657377 0.01943972 0.0062366584
0.028372854 0.046811648 0.022874177 0.04206238 -0.025423706 -0.034801174 0.02085108 0.051693093
-0.0004786067 0.029669506 0.0060530826 0.035625868 -0.021386199 0.02913402 0.012494522 0.040573448
0.016379952 0.030270293 0.040892996 -0.050886255 0.0049222643 0.057357825 0.020532554 0.024195619
-0.035545077 0.02683475 0.024152085 0.03083831 -0.011608213 -0.055305485 -0.0047487924 0.038025387
0.04928547 0.029807089 -0.03689477 -0.012414273 -0.01667406 0.012541741 -0.052632328 0.053222
-0.0028976332 -0.0072857924 -0.053942807 0.014700174 0.041490063 0.018153347 -0.052271858 0.01082293
0.027911395 0.043107737 -0.044152834 -0.02952863 -0.012739845 -0.053894226 0.05496974 0.0035029715
-0.01591039 -0.05647443 -0.010590428 0.056635216 -0.037924178 0.037878998 0.047738906 0.017281562
-0.027678778 -0.025771052 -0.033182785 -0.03799393 0.01354035 0.0018783448 0.029725624 0.0030343055
-0.0565076 -0.010745611 0.013887973 -0.022286799 -0.06242743 -0.046174645 0.039549097 0.039813966
0.034850392 0.042186543 0.023604922 0.0011107624 0.019519411 -0.021962684 -0.009560448 0.0032518308
0.02870209 -0.022110436 -0.009034503 -0.020461032 0.053506162 -0.08496571 0.006066203 -0.01260059
0.042548764 -0.06278836 -0.029215667 0.039253738 0.05070714 -0.024974316 -0.027514772 0.0069329143
-0.04977973 -0.028050272 0.012727464 -0.044502847 0.031595267 -0.024019912 -0.027263397 -0.04890866
-0.05676128 -0.054447886 -0.03611743 -0.06238232 -0.05340977 -0.03655605 -0.024422035 0.039514706
0.022960387 -0.055131294 -0.011064004 0.04645359 0.024063773 -0.032358687 -0.05178758 -0.007056601
0.03913803 0.053903975 -0.01760825 0.015588202 0.0014809539 0.030343622 0.047589682 -0.01712659
-0.05259332 -0.038041066 0.03640098 0.010335743 -0.022733334 -0.053031776 -0.05021067 -0.015322804
-0.038993172 -0.16267219 -0.042797495 -0.022846187 0.0005126521 0.0494916 -0.032822393 0.041674405
0.009440899 0.038160674 0.018258203 0.023790441 0.021842785 -0.042296566 -0.007942602 -0.033152267
-0.061814137 -0.0017103143 0.039935395 0.03075914 -0.004274898 0.008267641 0.008927539 0.0047681034
-0.03655927 0.012484429 -0.01506852 -0.036548495 0.0110183135 -0.044917084 -0.034137607 0.0029045413
0.041863203 -0.0027545441 -0.022895433 0.05316115 -0.03612391 -0.0525629 -0.022521582 0.023359073
-0.009817284 0.051255353 0.03572259 -0.018085755 0.017923746 -0.06222901 -0.028132131 -0.014678225
-0.0051629534 0.04997667 0.0034710015 0.053968333 0.05133356 -0.029018495 -0.04196339 -0.04339383
-0.007932242 0.050618142 -0.042470973 0.0351023 0.033553388 -0.021482151 0.028467335 0.047008082

fc2.bias f4 [300]
00000000: 0e15 95bb f1da 133e 8093 a83b 3224 49bd
00000010: 95b5 a43c 1def 493b 2d4b e03d 1d16 053c
00000020: 13ef 263d e2ff 353b a065 073d 9332 36bd
00000030: f8b0 1f3d 9f5d d4bc 4b4e e0bc 48e0 283d
00000040: 2c81 403d 346f 033e 88cc 2b3c d321 4d3d
00000050: bdee 1dbd 19e7 e03c d81c 69bc 707b 353d
00000060: a9fc 903c bad6 793b 7fa2 d8bc ec58 ef3c
00000070: 352f 0ebd c272 273c 06b8 20bd fdd7 23bd
00000080: a798 ecbc f1da 44bc 56be f63c d22a 893c
00000090: d43c 03bd 0285 febc c08a 49ba 157b 3abd
000000a0: 211a 2cbc 10c5 933b 29a1 9fbc ecba 22bd
000000b0: d365 c7bc 8751 273d 17de fabc fdf2 d5bc
000000c0: f63a 253d 61c7 8e3d 61c0 f23d d4b3 533d
000000d0: dd05 c3bc 91af 9bbc 9e1a a03c 134a a03b
000000e0: e217 e23c 8cd8 093d d3c0 8a3d 1b6e 82bc
000000f0: 8a19 0ebd d08f 12bd f350 a23d 3f59 55bd
00000100: eecc 183e a092 87bc 453f 913c 0e2f a1bc
00000110: 9006 203d 66c1 93bb 5318 27bd 981f 963d
00000120: dddf bebc eb95 0a3d 15e9 40bc 2a83 29bd
00000130: 3459 303c 2e82 f73c 78d9 2d3d 223e f63c
00000140: bb14 e83c 95e2 a1bc 01f3 d83c 586e 4abd
00000150: e821 373c 6c64 e33d a8bf 49bd a47c c33c
00000160: e1ea 383d 92a1 523e 9f0e d2bc 1b55 20bc
00000170: c076 d1bc b86f 13bd 6812 db3c 93c8 5e3c
00000180: 4492 88bc a0f2 1bbc 53e4 413b 5a23 9c3c
00000190: 1d18 e4bc bbbf 1abd 50f8 dfbc 24f8 673d
000001a0: 2dfc f23d 92ce b43c 2bfb 7bbc 9799 3e3d
000001b0: c9c2 053c c07c f8bc c0dc ea3b 019e 323d
000001c0: 557f 12bd 700e e9bb 3391 643d e78c 32bd
000001d0: eff1 313d b8ed 663d 5860 0f3d 9653 963d
000001e0: 0476 05b9 19a1 1dbd 8d8e 283d c8bc 44bd
000001f0: ccb2 3b3d 9974 5abd 8eca 223d 8cfb 0ebd
00000200: b17c 433d f235 2a3d 8322 0a3d 64b9 083d
00000210: 4e8a 0e3d 4b96 2fbb 12aa d63c f6a0 953c
00000220: da0a 003d d081 0bbd 9e33 353e ee95 eb3c
00000230: 5284 463d 9729 1f3d 3e86 cb3c 5c8c 20bd
00000240: c3cb 613b a6d8 b4bc 80d4 863b faeb 43bd
00000250: 544a 793c 1691 883c 95a6 2cb9 02b0 303d
00000260: 015e 0ebd 6a81 19bc 27b4 cb3c 5841 313c
00000270: e0d1 3bbd 7a3d a83d 2d93 d4bc 9775 f8bc
00000280: 865f 9c3d 7d58 6e3b c076 0e3c eadf 92bb
00000290: b0e3 093c 6b9b 093d 37c7 c2bc 3e2f 31bb
000002a0: ddbe 253d 6c2f 20bc be3f ad3c 75ee 4bbd
000002b0: 08d0 f93c 051b 053e f9e9 053d a167 063d
000002c0: 6a8c 52bd 682d a53d c7cd 293d abeb 343d
000002d0: 366e 903b d0e3 17bd 4051 0b3c f06a a23b
000002e0: c275 9c3c 690f fdbc 544d a23c 9e07 923d
000002f0: 5512 cfbc f2b8 323c 316e 1bbd c94c 383d
00000300: 5fd9 cdbc 5438 ce3b a82f 08bd e344 0bbd
00000310: c029 443c d2e9 8f3d 6525 cf3d d125 3c3d
00000320: 6a7a e43c a011 6b3c 984c 0bbc 78b9 43bd
00000330: 52c3 08bd b739 c93c f9a5 7a3d 077f 0a3a
00000340: 668d bd3c 46cf 2abd bbf6 2dbd abb5 0d3d
00000350: 32dd 9a3c 766b 443d c69c a4bc 04f1 bfbc
00000360: 7f6d 33bd 4525 ef3c d99f 293d f60e 9dbc
00000370: 2656 d73d fcac 643e 770a 3ebd b3eb 51bd
00000380: b06d eabb c058 993c 1252 95bc 09b6 aa3c
00000390: b7cb 8ebc 84fc 083d 8c73 0d3c 889d 403c
000003a0: d268 f43c dc37 dc3c 50ba a5bb 14a8 26bc
000003b0: 4df7 243c fca2 903c 7c63 0d3d 7910 56bd
000003c0: 48bf a33d 1584 11bd 9955 ab3c e307 febc
000003d0: 0b49 a93c 3c65 933d c5c9 17bd 7bad 01bd
000003e0: 95a4 bd3c e3e5 ea3c c3e4 48bd c977 443e
000003f0: 3c82 43bd 9d26 ecbc e91e 0c3e cb95 03bd
-0.004549629 0.14438988 0.0051445365 -0.049106784 0.020106116 0.0030812689 0.10951839 0.008122948
0.040755343 0.0027770926 0.0330559 -0.044481825 0.03898713 -0.025923548 -0.027381083 0.041229516
0.046998188 0.1283539 0.010485776 0.050081085 -0.038557757 0.027453946 -0.014228068 0.044307172
0.017698603 0.0038122372 -0.026444672 0.029217206 -0.03471299 0.0102202315 -0.039238 -0.040000904
-0.028881384 -0.01201509 0.030120056 0.016744051 -0.032040432 -0.031069282 -0.0007688217 -0.045527536
-0.0105042765 0.0045095757 -0.019486027 -0.039729044 -0.024340546 0.040849235 -0.030623479 -0.026116842
0.040339433 0.06971622 0.118530996 0.05168517 -0.023806507 -0.019004615 0.019543942 0.004891643
0.027599279 0.03365378 0.067750596 -0.015921643 -0.034692325 -0.03578168 0.07925596 -0.052087065
0.14921924 -0.016549408 0.017730365 -0.019675758 0.03906876 -0.004509139 -0.04079468 0.07330245
-0.023300106 0.03383438 -0.011774321 -0.041384853 0.010763455 0.030213442 0.042443722 0.030058924
0.028330198 -0.019761363 0.02648306 -0.04942164 0.0111775175 0.11103138 -0.049255043 0.023863144
0.045145873 0.20569447 -0.025641738 -0.009785916 -0.02556932 -0.035995215 0.026742175 0.013597625
-0.016671307 -0.0095182955 0.0029585555 0.019059826 -0.02784353 -0.037780505 -0.027340084 0.05663313
0.11864505 0.022071157 -0.015379707 0.046533193 0.008164116 -0.030332923 0.0071674287 0.043607716
-0.035765965 -0.007112317 0.055802535 -0.043591406 0.043443616 0.05637905 0.03500399 0.073401615
-0.00012727833 -0.038483713 0.041151572 -0.0480316 0.04582481 -0.053333852 0.039743952 -0.034907863
0.047726337 0.041555353 0.03372432 0.033379927 0.034799866 -0.0026792462 0.026204143 0.018265229
0.03126035 -0.034059346 0.17695472 0.028758015 0.048466034 0.038858023 0.024844285 -0.039196357
0.0034453727 -0.022075962 0.0041146874 -0.047832467 0.015215475 0.016670745 -0.00016465255 0.043136604
-0.034757618 -0.009369234 0.024866177 0.010818802 -0.04585445 0.08214851 -0.025949085 -0.030329509
0.07635407 0.003636866 0.008695304 -0.004482259 0.008416101 0.033595484 -0.023776634 -0.0027036215
0.040465225 -0.009776931 0.021148559 -0.049787957 0.030494705 0.12998588 0.032693837 0.032813672
-0.05140344 0.08065301 0.04145601 0.044170063 0.0044076694 -0.037082493 0.008503258 0.0049565956
0.01909912 -0.030891137 0.019812264 0.07130359 -0.025277296 0.010908352 -0.037946884 0.044995103
-0.025128065 0.006293336 -0.033248574 -0.034001242 0.011972845 0.070270196 0.10114554 0.045934502
0.027890403 0.014347464 -0.008502148 -0.0477843 -0.033389397 0.024563653 0.06119344 0.0005283211
0.023138713 -0.041701578 -0.04247163 0.03459708 0.018904302 0.047954045 -0.020094287 -0.023430355
-0.043805595 0.029192576 0.04141221 -0.019172173 0.105144784 0.22331613 -0.0463967 -0.05125017
-0.007154189 0.018719077 -0.01822761 0.020838754 -0.017431123 0.033443943 0.008633506 0.011756308
0.029835138 0.026882105 -0.0050576106 -0.010171909 0.010068727 0.017655842 0.034518704 -0.052261803
0.079954684 -0.035526354 0.02091484 -0.03100962 0.020664712 0.07197043 -0.037057657 -0.031659584
0.023149768 0.028674072 -0.04904629 0.1918632 -0.047731623 -0.028827006 0.13683666 -0.032125276

fc3.weight f4 [12, 300]
00000000: 1bfd c4bc cdfc ea3d 6222 b6bc 816d d4ba
00000010: 3a1e b0bc de94 d4bc f82b 46bd 76e8 35bb
00000020: c7bd a4bc e6b8 d1bc 978b 11ba d6c9 dcba
00000030: 9da6 a7bc a318 a539 7c03 e9bb 512f 0e3e
00000040: 94ff 33be 54be 83bc 5f22 6bbe 4818 d7bc
00000050: 8a10 5bbd 28ab cfbc 0e5b 983a 5c01 a33d
00000060: 4dd7 c8bc de85 b1bc 6a04 c2bc dddf 41be
00000070: 58d9 8c3a 7749 c5bc d391 b7ba 91ad a8bc
00000080: 5cdc d63a 70c2 9abd adb0 b1bc 2819 133a
00000090: 35e9 11bd 68f9 c4b9 3cdb ce3a 1abc 16bc
000000a0: 3f0e 5dbe 9894 393a 55b2 aebc deac bdbc
000000b0: 42ee 0bbb 6029 cfbc 5c65 183b 3ccb 41ba
000000c0: 9cb6 b6bd e615 ddbd 1917 e7bd fe8e 71be
000000d0: 9416 b73a 3ed0 733a 4891 f339 68d8 80be
000000e0: 5495 c2bc 6e1b acbc 4dc4 44be f565 ccbc
000000f0: d417 29bb d7e0 c0bc cb23 28be b4f4 c93a
00000100: 2c15 ee3d d0e3 2eba f543 b03b f029 85be
00000110: ac4d 02ba 82be a5bc b213 3ebb 30e9 37b9
00000120: 4c2f f23a 5695 29be c1e8 d2bc a06b 35b9
00000130: 597a 08be 5ac7 fdba 95ec 7a3e 7c9d c4ba
00000140: 4ca9 bebc c13e bdbc 47cd 95bc e6c7 a7ba
00000150: cda9 b9bc a551 2bbd 0cdb 82bc a456 9bbc
00000160: 965f a2bc 3fb8 ac3d 0789 a8bc b651 89be
00000170: 812d f3ba 4095 bfb9 5bd8 033a e472 98ba
00000180: 593f b4bc ff76 a6bc a0ff fabd 24a7 30bb
00000190: db7c 1cbb 265d bebc b919 b2ba 8238 053e
000001a0: 7f10 e93d 81a5 10bb d689 143b 0df8 cdbc
000001b0: 0c02 b3bc 304a 4c3a 5402 193b 84b4 be3a
000001c0: 58b4 8fbe 395e ebbc 57e0 16be bf87 e3bc
000001d0: 9472 a3bc 9942 1cbe 8d78 b5bc bef0 cf3d
000001e0: f0b2 68bc 23e9 aebc b0db a3bc a24c b4ba
000001f0: 052e 76be 80c4 b3bc e64e a0bc c132 363b
00000200: 3b15 24be 88b3 b8bc f409 d8ba a42a 56b9
00000210: 5602 003e a378 82bc 17f2 d2ba f82d 14ba
00000220: af3f c2bc 1483 c93a e4d5 b33d 9837 a33a
00000230: d7bd 1cbd 565a a4bc 73d5 ceba 9a20 d1bd
00000240: 1f26 bdbc 66a1 013b 6869 dc39 e992 c8bc
00000250: a102 dd38 31bd c8bc e009 9a39 0797 dabc
00000260: 21d8 5639 854d c8bc 510e 28be ce31 10bb
00000270: 5239 163b 86ce 24be 98f9 453a 9ce6 cfbc
00000280: d7ed 1fbe e50b 5fba 2c10 0c3a a9d8 d6bc
00000290: 8f92 1fbe 3038 7ab9 1382 cabc cc35 d0bc
000002a0: c087 a4bc fe7f bbb9 001a 853a 7019 da3a
000002b0: 80ec 25be 2a5e b73d 0de7 d3bc 54f2 8b3e
000002c0: 898f 26bb 616a 0a3e 3cd0 29bb f00a 813a
000002d0: 67ad 1ebb 5b4a daba 3c7e b4bc 8819 1fba
000002e0: 9efd 163b 012d 723b e109 ccbc 1c69 bebc
000002f0: beaf f63a 0208 b5bc 8425 dfbc 60ce d1bc
00000300: e521 d8bd b575 cbbc 4281 373b 7e43 533a
00000310: 41ec a8bc 81a5 ce3d e2cc 48bb f4d9 a73a
00000320: f019 c3bc eaea 143b aa99 69bd 1de2 b5bc
00000330: d3ae 04bb 069b a5bc ad8f 1dbe ee6c c9bc
00000340: 7301 adbc 844c ca3a 58a8 e0b9 e020 4abb
00000350: 6401 d73a 013b 2dbe 90ce 6dbe 9dba cabc
00000360: a4c9 4e3a 752d bcbc 6f39 9fba ebd5 92bc
00000370: 07b9 26bc e886 ff3d e8e1 cfba 0e0c dbbc
00000380: 59d7 0abb 8935 d4bc b41f 49ba cbbf d6bc
00000390: e873 b2bc 9c27 b9bc 5268 8eba 0a33 18bb
000003a0: a8e3 6cbe 08b7 b5bc 4a78 dbba aa3d 043b
000003b0: 706a 2dbe 7676 b7bc f0a4 ae3a 8945 d1bc
000003c0: 2d88 0f3e ee3c 3fbb 031a c1bc 80ff 40bb
000003d0: 3e38 ccbc 007e 8ab7 7422 1f3b 99ef cfba
000003e0: 8400 f5ba e429 a9bc d47c 113a 9b91 363d
000003f0: 7bf9 cfbc ba7d 9bba c7aa c33d e7b6 7dbe
-0.024046471 0.11473999 -0.022233192 -0.0016206951 -0.021498788 -0.025949892 -0.048381776 -0.0027756966
-0.020110024 -0.025600862 -0.00055521115 -0.001684482 -0.02046519 0.00031489608 -0.007111011 0.13885237
-0.17577964 -0.016081966 -0.2296233 -0.026256695 -0.05348257 -0.025350168 0.0011623816 0.07959244
-0.024516726 -0.021670278 -0.023683745 -0.18933053 0.0010745926 -0.024082882 -0.0014005251 -0.020590575
0.0016392577 -0.07556617 -0.02169069 0.00056113536 -0.035622794 -0.00037569855 0.001578189 -0.00920012
-0.21587466 0.0007079332 -0.02132527 -0.023153719 -0.002135173 -0.025288284 0.0023253774 -0.000739265
-0.08921549 -0.107951924 -0.112837024 -0.23589703 0.0013968521 0.0009300745 0.00046456815 -0.25165105
-0.023752846 -0.021009173 -0.19215508 -0.02495096 -0.0025801556 -0.023544712 -0.16419904 0.001540801
0.11625132 -0.000667152 0.005379195 -0.26008558 -0.00049706805 -0.020232443 -0.0029003439 -0.00017539109
0.001847723 -0.16560873 -0.025745751 -0.00017301599 -0.13327922 -0.001936178 0.24504311 -0.0015000547
-0.023274086 -0.023101212 -0.01828636 -0.0012800663 -0.022663975 -0.04182591 -0.01597359 -0.018962212
-0.01982097 0.0843358 -0.020573152 -0.26820153 -0.001855299 -0.0003654156 0.0005029493 -0.001163092
-0.022002863 -0.020320414 -0.12255788 -0.0026955092 -0.002387813 -0.023237776 -0.0013587988 0.13009837
0.113800995 -0.0022071304 0.0022665164 -0.025142694 -0.021851562 0.0007793037 0.0023347335 0.0014549647
-0.2806728 -0.028731452 -0.14734016 -0.02777469 -0.019952096 -0.1525978 -0.02215221 0.1015334
-0.014202818 -0.021351403 -0.020002216 -0.0013755749 -0.24040993 -0.021944284 -0.019568872 0.0027801248
-0.16023724 -0.022546545 -0.0016482458 -0.00020424515 0.12500891 -0.015926665 -0.0016093877 -0.0005652602
-0.023712007 0.0015374147 0.08781031 0.0012452481 -0.038266983 -0.020062607 -0.0015780166 -0.102112964
-0.023089467 0.001978004 0.00042040204 -0.024484115 0.00010538591 -0.024504276 0.00029380526 -0.026683344
0.00020489145 -0.024451027 -0.16411711 -0.0022002342 0.002292235 -0.16094407 0.0007552146 -0.025378518
-0.15618072 -0.00085085473 0.0005342986 -0.026226358 -0.15583251 -0.0002386279 -0.024720227 -0.025416277
-0.020084262 -0.0003576278 0.0010154843 0.0016639661 -0.16203499 0.08953507 -0.02586701 0.2733332
-0.0025415143 0.13517143 -0.002591147 0.0009845179 -0.0024212243 -0.001665424 -0.02203285 -0.0006069173
0.0023039351 0.0036953094 -0.024907054 -0.02324348 0.0018820686 -0.022098545 -0.027239569 -0.025611103
-0.1055334 -0.0248364 0.0028000628 0.00080590684 -0.020620467 0.10090161 -0.0030639698 0.0012806044
-0.023816079 0.0022723028 -0.05703131 -0.022202546 -0.0020245805 -0.020215522 -0.15386839 -0.024588075
-0.021118855 0.001543418 -0.00042850035 -0.003084235 0.0016403613 -0.1691704 -0.23223329 -0.024747187
0.0007888323 -0.022970894 -0.0012147854 -0.01792427 -0.01017595 0.12476903 -0.0015860172 -0.026739147
-0.0021185486 -0.025904434 -0.00076722656 -0.0262145 -0.021783784 -0.022601895 -0.001086483 -0.002322378
-0.23133719 -0.022182003 -0.0016744223 0.0020178356 -0.16935134 -0.022395354 0.0013324302 -0.025545852
0.1401679 -0.0029180604 -0.023571974 -0.0029449165 -0.024929162 -1.6509555e-05 0.002428201 -0.0015864252
-0.001869217 -0.020649858 0.0005549912 0.044572454 -0.025387516 -0.0011863031 0.095540576 -0.24776803

fc3.bias f4 [12]
00000000: 0617 9d3d 3cb7 9fbd a03d 99bd 2196 163d
00000010: ea84 4f3d e26f 86bd 0c46 1dbb 8fef 3bbd
00000020: c593 563d c42e b73c 67b8 37bd 361e 0239
0.07670407 -0.07798621 -0.07482457 0.036764268 0.050663866 -0.06564309 -0.002399805 -0.045882758
0.052387018 0.022361167 -0.044853594 0.0001240902
