algorithm/pytorch-ddpg-master/output/ParallelCableDrivenRobot-v11-run17/actor.pkl (torch, 535943 bytes, 6 tensors)

fc1.weight f4 [400, 23]
-0.049442537 -0.03928235 0.008908302 0.02260987 0.009181719 0.03752229 -0.02144186 0.023428794
0.029305335 0.03281826 -0.006044943 -0.04066094 0.032024194 0.013640236 0.029037278 0.039920066
0.048993442 -0.013428818 -0.01670627 0.030104738 0.009648245 -0.0130656175 -0.022084003 -0.0017427094
0.048608247 0.010948241 -0.041999023 -0.01702714 -0.04433906 0.03335428 0.021147314 0.03511544
-0.04727764 -0.035484783 -0.034895413 0.042326886 0.04616404 0.046012286 -0.049735975 0.0027299821
0.04476561 0.047967132 -0.026497532 -0.02062927 0.015205134 0.043092128 -0.015879162 -0.03085261
0.021284658 0.04958793 0.02363019 0.0473963 0.021509249 0.02056073 0.029635701 -0.035243116
-0.033010893 0.0442467 0.045476172 0.035762634 -0.0029517934 0.029625218 -0.039208036 0.028173167
0.033535715 -0.0022126138 0.048745822 -0.048264094 -0.012653641 0.02033643 -0.002052147 -0.0022158101
-0.006138414 0.03271583 -0.0048975945 -0.04206104 0.034487043 -0.047157496 0.017479304 0.048881937
-0.020064717 0.028797071 -0.046781898 -0.024785353 -0.0020644255 0.027706806 0.038599823 -0.02459094
-0.016836476 -0.0045215674 -0.0025838986 -0.00089810044 -0.021862894 -0.008537341 0.048089433 0.003784459
0.00465966 -0.037672818 -0.019982582 -0.016255654 0.0331829 0.041170236 0.02435575 0.033902
-0.0025012866 -0.04305775 0.028756674 0.02001306 0.035707023 -0.035784967 0.016185347 0.049312387
-0.030765736 0.020552564 0.048759077 0.021955121 0.041675586 0.048112627 0.03610221 0.037396315
-0.002663292 -0.04701078 -0.010239273 -0.009215616 -0.0016526058 0.013185997 -0.0050709024 0.036546897
0.012582932 -0.005151987 0.027520921 -0.03971045 0.0034286082 -0.018072069 0.015258502 0.025496792
-0.013973832 0.040247407 0.045967214 0.783552 -0.39381564 -1.3579811 0.24495278 0.20350203
0.007055839 -0.26085138 2.1823862 1.2843871 1.3164903 -1.0023903 0.2173562 0.040622503
-0.5026071 -0.2616355 -1.062717 1.6522648 -0.32656258 -0.3719989 -0.075314626 0.35703254
-0.37941885 0.005100966 3.0328898 -1.8735504 -1.937091 0.09082765 0.55458295 -0.026331259
0.45192716 -1.6265485 -0.12211904 2.9927766 -2.488288 2.5558002 -0.039926644 0.3711806
-2.3827474 -2.6098564 1.7307595 0.17903675 -0.17996226 0.13310845 0.23394512 0.1101671
0.031591512 -0.8702422 0.99904567 1.5540868 -0.45056075 0.1680411 -0.00051743013 -0.7029208
0.21193957 -0.80027485 -3.019104 0.39150333 -1.1649154 0.012455692 0.26159704 1.1523527
0.5023755 -1.5808802 0.058504973 -0.27153566 0.65453 0.2756508 0.13474372 -0.046323713
-0.015399314 0.038314123 -0.020316977 0.037910003 -0.021536732 0.0071082823 -0.017951049 -0.02245797
0.015309047 -0.043359753 -0.041148286 0.017975528 0.036457073 -0.008011945 -0.010353059 -0.0035904758
0.02112263 0.011291124 -0.032342747 -0.030289097 -0.020793844 0.0007119402 0.018356409 -0.5602711
-0.8082733 -1.950765 -0.19787465 0.22442439 -0.04943222 -1.2921106 -1.3328855 -0.4509355
3.0400074 1.359017 0.9397522 0.008113262 -1.8787115 -0.875668 1.2406682 1.7809488
0.92996407 -0.2410222 -2.7267854 0.22576836 0.8568172 0.033301797 0.011130698 -0.04281827
00000000: 4284 4abd 88e6 20bd 20f4 113c 5638 b93c
00000010: ec6e 163c f9b0 193d d7a6 afbc beed bf3c
00000020: be11 f03c 716c 063d a814 c6bb 168c 26bd
00000030: cd2b 033d 4c7b 5f3c 96df ed3c 3983 233d
00000040: 59ad 483d 8c04 5cbc 96db 88bc 369e f63c
00000050: ac13 1e3c 2c11 56bc 83e9 b4bc a06b e4ba
00000060: 7119 473d 4060 333c 2b07 2cbd 807c 8bbc
00000070: e09c 35bd 7f9e 083d 223d ad3c 35d5 0f3d
00000080: 33a6 41bd 7e58 11bd 7eee 0ebd f55e 2d3d
00000090: 8116 3d3d 6177 3c3d f3b7 4bbd 80e9 323b
000000a0: 255c 373d 2f79 443d 5a11 d9bc b7fe a8bc
000000b0: f41e 793c 5f81 303d 0415 82bc 9dbe fcbc
000000c0: 2a5d ae3c b71c 4b3d 1a94 c13c 9f22 423d
000000d0: 2a34 b03c fa6e a83c 92c6 f23c 165b 10bd
000000e0: 6e36 07bd 073c 353d 3945 3a3d d77b 123d
000000f0: e072 41bb 96b0 f23c 9b98 20bd 6acb e63c
00000100: bf5c 093d 8001 11bb b3a9 473d 92b0 45bd
00000110: 3851 4fbc 9698 a63c 507d 06bb 2037 11bb
00000120: c024 c9bb 0901 063d 007c a0bb 3248 2cbd
00000130: 4942 0d3d 3828 41bd c230 8f3c 6d38 483d
00000140: c35e a4bc d6e7 eb3c 609e 3fbd a70a cbbc
00000150: 504b 07bb 62f9 e23c d91a 1e3d f072 c9bc
00000160: a6ec 89bc a829 94bb a056 29bb 806e 6bba
00000170: d019 b3bc 34e0 0bbc 6df9 443d b004 783b
00000180: 10b0 983b d04e 1abd 83b2 a3bc 942a 85bc
00000190: cbea 073d 1fa2 283d b685 c73c d3dc 0a3d
000001a0: a0ec 23bb 535d 30bd 1e93 eb3c 6ef2 a33c
000001b0: 8741 123d 4293 12bd 2297 843c c9fb 493d
000001c0: 6d08 fcbc da5d a83c 99b7 473d 3adb b33c
000001d0: 05b4 2a3d bf11 453d e9df 133d e12c 193d
000001e0: a08a 2ebb 608e 40bd a0c2 27bc 18fd 16bc
000001f0: 409c d8ba 140a 583c d029 a6bb 33b2 153d
00000200: a428 4e3c 00d2 a8bb 8e73 e13c 6da7 22bd
00000210: 80b2 603b e00b 94bc ccfe 793c a6de d03c
00000220: 80f2 64bc 77da 243d 1e48 3c3d dd96 483f
00000230: 34a2 c9be 53d2 adbf e7d4 7a3e d662 503e
00000240: ab34 e73b 508e 85be 37ac 0b40 cc66 a43f
00000250: c182 a83f 534e 80bf a092 5e3e c863 263d
00000260: dcaa 00bf 17f5 85be 1c07 88bf 6a7d d33f
00000270: 3633 a7be a476 bebe 8e3e 9abd f8cc b63e
00000280: 3043 c2be 0126 a73b de1a 4240 80d0 efbf
00000290: 99f2 f7bf d903 ba3d 26f9 0d3f a7b4 d7bc
000002a0: ff62 e73e be32 d0bf 8c19 fabd a789 3f40
000002b0: 1c40 1fc0 3b92 2340 1f8a 23bd 620b be3e
000002c0: ef7e 18c0 e307 27c0 8789 dd3f 6955 373e
000002d0: 0748 38be 954d 083e 4f8f 6f3e 4a9f e13d
000002e0: 1a66 013d 31c8 5ebf 75c1 7f3f 51ec c63f
000002f0: e6af e6be f712 2c3e 26a4 07ba 9ef2 33bf
00000300: b006 593e d0de 4cbf 0039 41c0 2073 c83e
00000310: f31b 95bf f512 4c3c 0cf0 853e 4b80 933f
00000320: ae9b 003f 485a cabf e9a2 6f3d b906 8bbe
00000330: 478f 273f 1a22 8d3e 42fa 093e efbd 3dbd
00000340: 684d 7cbc 45ef 1c3d ca6f a6bc 8547 1b3d
00000350: cd6d b0bc 98ec e83b 140e 93bc c7f9 b7bc
00000360: ccd2 7a3c ff99 31bd 1b8b 28bd 6a41 933c
00000370: 0354 153d 8844 03bc e09f 29bc 304e 6bbb
00000380: 5e09 ad3c 68fe 383c d479 04bd d720 f8bc
00000390: da57 aabc 80a1 3a3a 2e60 963c ed6d 0fbf
000003a0: 00eb 4ebf abb2 f9bf a79f 4abe 82cf 653e
000003b0: 7179 4abd e163 a5bf fe9b aabf 05e1 e6be
000003c0: 7b8f 4240 45f4 ad3f 9a93 703f 7ded 043c
000003d0: 9e79 f0bf c72b 60bf 37ce 9e3f 21f6 e33f
000003e0: 2012 6e3f 86ce 76be a783 2ec0 d22f 673e
000003f0: 5f58 5b3f 7767 083d 885d 363c 3662 2fbd

fc1.bias f4 [400]
0.078565344 -0.19750167 -0.079988584 -0.014367044 -0.016206712 -0.023594767 0.12366154 0.111348495
0.2102533 -0.08660123 0.182451 -0.10583038 -0.09620659 0.08142382 -0.0728449 -0.07165533
-0.20122308 0.07538842 0.06670405 -0.047696095 -0.16900583 -0.06547092 -0.12158049 0.028887391
-0.07566188 -0.049381018 -0.102030255 0.08889307 0.026403593 -0.1038373 0.092812374 -0.094275385
-0.005645612 -0.06682001 -0.18927963 0.026641952 -0.106159724 0.083675146 -0.08829672 -0.17240296
-0.07575014 -0.030227985 -0.0075275004 -0.20556773 0.050106063 -0.036652684 0.05190511 -0.035318688
-0.15710512 -0.016121909 -0.12419742 -0.19019315 -0.05240556 -0.026415333 0.08833301 0.15534228
0.023322556 0.032094933 -0.158936 0.13483125 -0.15089095 -0.12323283 -0.054583553 0.047209904
-0.17738181 -0.1738939 -0.15320595 0.096512616 -0.0062321196 -0.11471503 0.12325563 -0.0021355748
0.026343632 0.14628346 0.043161616 -0.17554863 -0.17246966 -0.006091669 0.13870132 -0.14630911
0.02746472 0.16597225 0.07337341 -0.17927817 0.016487926 -0.17109366 -0.1474571 -0.048367463
0.09294202 -0.04196264 -0.061364383 -0.04731743 -0.12397779 -0.19276235 -0.047507383 -0.07054668
0.022497013 -0.024216814 0.009153739 0.19708955 -0.074781865 -0.10094677 0.07372821 0.15727799
0.031946614 -0.057881936 -0.1057329 -0.1581437 -0.01297234 -0.02803187 0.12177631 -0.07422885
-0.10206274 0.0012035534 -0.043665856 0.10338491 -0.121155985 0.12598136 0.083401434 -0.20966385
-0.11309136 -0.18306583 -0.032935347 -0.07603039 0.008980147 -0.03993736 0.16755867 -0.003414707
-0.030913664 -0.12729806 0.007865608 -0.17102209 -0.0651965 -0.062860355 0.15784381 0.047352698
0.13965313 -0.17754585 -0.20666061 0.13294783 0.12189089 -0.07245221 -0.010862663 -0.022864081
0.0024082311 0.01110431 -0.10005935 0.020736106 -0.15699597 -0.09624067 0.18053302 -0.13684668
-0.16964453 -0.10167938 0.2031636 0.09203823 -0.19457446 -0.18053257 -0.13323978 0.028347515
0.18276612 0.055657197 0.14209491 -0.095028654 0.22208917 0.048007883 -0.022861822 -0.14089641
0.02516003 0.004575625 -0.069861054 0.071221784 0.035613667 0.096217565 -0.023258287 0.0638317
0.07572348 -0.005277243 0.11175884 -0.17074911 0.03798683 0.12272139 -0.015818626 0.048752334
-0.17461485 0.2411919 -0.060997456 -0.20068997 -0.14015627 -0.026566021 0.01008676 -0.13455436
-0.052046373 -0.04425636 -0.09934832 0.013261088 -0.1309118 0.11227519 -0.16983488 -0.10551377
0.0016759485 0.12817465 0.063580565 -0.12201467 -0.20207436 -0.02963598 -0.1535221 -0.08286068
0.22900903 -0.044047147 0.15200366 0.0682558 0.2248586 0.009397253 -0.06946554 0.019157603
0.08699712 -0.03198819 -0.01209514 0.06757329 -0.05589956 0.036720533 -0.18962334 0.043732096
0.14079833 0.046184465 -0.1940777 -0.18713117 -0.20522696 0.03701313 0.04319839 0.04113105
-0.15854439 -0.06948313 -0.1380775 -0.10374469 -0.06420343 0.018036395 -0.089636065 0.021235779
0.055463053 -0.044870943 -0.04673221 -0.13973346 -0.03230472 -0.06904535 0.09928713 0.051184382
0.027530631 0.08425848 -0.079907805 -0.20076166 0.040982384 -0.06285058 0.00010226667 0.019464236
00000000: dee6 a03d e13d 4abe 0ed1 a3bd c063 6bbc
00000010: f0c3 84bc d049 c1bc 4342 fd3d ae0a e43d
00000020: a44c 573e fc5b b1bd 6fd4 3a3e 99bd d8bd
00000030: f607 c5bd 88c1 a63d b52f 95bd 08c0 92bd
00000040: 6c0d 4ebe 3e65 9a3d 229c 883d fb5c 43bd
00000050: dd0f 2dbe 9e15 86bd 31ff f8bd 40a5 ec3c
00000060: 9ef4 9abd c043 4abd 3df5 d0bd 920d b63d
00000070: 594c d83c a6a8 d4bd 6a14 be3d 7413 c1bd
00000080: d3fe b8bb eed8 88bd 85d2 41be 3940 da3c
00000090: 456a d9bd e05d ab3d e9d4 b4bd 678a 30be
000000a0: e422 9bbd aea0 f7bc 40a9 f6bb 5980 52be
000000b0: 043c 4d3d 2021 16bd 749a 543d 54aa 10bd
000000c0: 2ae0 20be 1812 84bc 385b febd fec1 42be
000000d0: 36a7 56bd f864 d8bc f0e7 b43d 0c12 1f3e
000000e0: f20e bf3c fa75 033d 1ec0 22be 3411 0a3e
000000f0: 2883 1abe 7e61 fcbd 0193 5fbd 2c5f 413d
00000100: 94a3 35be 3e11 32be 05e2 1cbe 68a8 c53d
00000110: cf36 ccbb b7ef eabd 736d fc3d 00f5 0bbb
00000120: 9ace d73c 55cb 153e 3cca 303d 05c3 33be
00000130: e39b 30be a09c c7bb b807 0e3e 0ed2 15be
00000140: b1fd e03c a1f4 293e cc44 963d b294 37be
00000150: b011 873c 2d33 2fbe fefe 16be f61c 46bd
00000160: 6358 be3d 04e1 2bbd 3859 7bbd eccf 41bd
00000170: 11e8 fdbd 7e63 45be 1a97 42bd c77a 90bd
00000180: a84b b83c 5762 c6bc 90f9 153c d8d1 493e
00000190: 3c27 99bd 2ebd cebd d1fe 963d 7b0d 213e
000001a0: 74da 023d 9c15 6dbd 7e8a d8bd 6cf0 21be
000001b0: f089 54bc 18a3 e5bc dc65 f93d 4c05 98bd
000001c0: 4506 d1bd 8dc0 9d3a f8da 32bd 78bb d33d
000001d0: a120 f8bd 4201 013e 5fce aa3d 1fb2 56be
000001e0: 719c e7bd 9c75 3bbe 37e7 06bd d2b5 9bbd
000001f0: 7721 133c 5b95 23bd 8094 2b3e 47c9 5fbb
00000200: a73e fdbc 6c5a 02be c0de 003c 6a20 2fbe
00000210: be85 85bd eebc 80bd cfa1 213e e7f4 413d
00000220: 3b01 0f3e 94ce 35be d79e 53be 7a23 083e
00000230: eea1 f93d d361 94bd 50f9 31bc 744d bbbc
00000240: 6ad3 1d3b daee 353c ebeb ccbd c4de a93c
00000250: 8dc3 20be d419 c5bd a6dd 383e 8921 0cbe
00000260: 4cb7 2dbe 473d d0bd 1e0a 503e 8a7e bc3d
00000270: 873e 47be 88dd 38be 0270 08be 0c39 e83c
00000280: 0b27 3b3e cdf8 633d 5481 113e 629e c2bd
00000290: 586b 633e eaa3 443d b748 bbbc 2647 10be
000002a0: 681c ce3c 20ef 953b 5013 8fbd badc 913d
000002b0: a3df 113d b70d c53d 2a88 bebc 32ba 823d
000002c0: e914 9b3d b9ec acbb d2e1 e43d dbd8 2ebe
000002d0: 1498 1b3d 5a55 fb3d 1096 81bc 87b0 473d
000002e0: 3cce 32be 02fb 763e 78d8 79bd ac81 4dbe
000002f0: 2085 0fbe fca0 d9bc f042 253c 9ec8 09be
00000300: 942e 55bd 2846 35bd 2277 cbbd 0945 593c
00000310: be0d 06be 89f0 e53d 32e9 2dbe 9a17 d8bd
00000320: 80ab db3a 3740 033e 8736 823d d4e2 f9bd
00000330: 95ec 4ebe 28c7 f2bc e634 1dbe dcb2 a9bd
00000340: 5881 6a3e c86a 34bd d9a6 1b3e b2c9 8b3d
00000350: 5541 663e f0f6 193c f343 8ebd 68f0 9c3c
00000360: 8c2b b23d 0c06 03bd b22a 46bc dd63 8a3d
00000370: f0f6 64bd 4568 163d 9f2c 42be 6d20 333d
00000380: 702d 103e ec2b 3d3d 4ebc 46be 509f 3fbe
00000390: 0427 52be 149b 173d ccf0 303d 0879 283d
000003a0: 7659 22be 2c4d 8ebd 3064 0dbe 1978 d4bd
000003b0: 177d 83bd 10c1 933c 1d93 b7bd a8f6 ad3c
000003c0: 3a2d 633d 98ca 37bd 466a 3fbd 4a16 0fbe
000003d0: f451 04bd a667 8dbd 0d57 cb3d b7a6 513d
000003e0: eb87 e13c b68f ac3d b4a6 a3bd 7794 4dbe
000003f0: 25dd 273d ceb7 80bd 0078 d638 7673 9f3c

fc2.weight f4 [300, 400]
0.055493288 -0.007689882 -0.011020526 0.0056017935 0.055763647 -0.025893439 -0.019978452 -0.30149102
0.123146534 -0.021218825 -0.23886068 0.041046746 0.001070559 -0.09163672 0.07048743 -0.039506637
-0.054588735 -0.02947981 -0.4680982 -0.061545778 -0.039724436 0.056769192 0.027892105 -0.031012502
-0.032533634 -0.0026539601 -0.030941872 -0.023248257 -0.02561626 -0.03556695 0.023341961 0.028892115
-0.11190431 0.022695875 0.05391503 0.0350774 0.04453145 -0.644012 0.042517558 -0.029967979
-0.007094804 -0.0064965114 0.008434765 -0.03371759 0.022746257 0.05657377 0.01943972 0.016310154
0.028372854 0.046811648 0.022874177 0.04206238 -0.02649257 -0.034801174 -0.1357169 0.33511844
0.23443256 0.32546884 0.0060530826 0.035625868 -0.021386199 0.02913402 -0.24277288 0.040573448
0.016379952 0.030270293 0.040892996 0.15794788 0.009298282 0.057357825 0.027985035 0.024195619
-0.03483757 0.19284931 -0.07729945 0.03083831 -0.011608213 -0.055305485 -0.1260882 0.038025387
0.04928547 0.20420489 -0.004872308 -0.012414273 -0.01667406 0.012541741 -0.04743979 0.055760648
-0.2873794 -0.0072857924 -0.053942807 0.014700174 0.041490063 0.018153347 -0.04713234 0.12242883
0.027911395 0.12073811 -0.044152834 0.2619088 -0.012739845 -0.053894226 0.057015896 -0.42359012
-0.015104166 -0.033093434 0.25872722 0.056635216 -0.033829425 0.037878998 -0.10705367 0.017281562
-0.027678778 -0.025771052 -0.033182785 0.17619929 0.01354035 -0.10183522 0.07160372 0.0064252326
-0.0565076 -0.010745611 -0.08391701 -0.019114247 0.092555694 0.057682578 0.26489976 0.12928607
-1.0644993 0.042186543 0.023604922 0.0011107624 0.019519411 -0.021962684 -0.5834985 0.18020298
-0.066263944 -0.022110436 -0.009034503 0.07879568 0.13678706 -0.045451555 0.006066203 -0.0070961476
0.046865284 0.110134326 -0.029215667 -0.33395433 0.05070714 -0.024974316 -0.09308192 0.0069329143
-0.04977973 -0.028050272 0.11432613 -0.044502847 0.031595267 -0.024019912 -0.027263397 -0.041850016
0.014110128 -0.032153703 -0.8100111 -1.2424823 0.16424064 -0.5181115 -0.00033869964 0.039514706
0.022960387 -0.055131294 -0.011064004 0.084147535 0.03669769 0.044983175 -0.04864077 -0.34984317
-0.012177737 0.054173563 -1.1427566 0.015588202 0.008718567 0.030343622 0.047589682 -0.120027825
-0.05259332 0.082860745 0.03640098 0.010335743 -0.022733334 -0.24986263 -0.05021067 -0.015322804
-0.038993172 -0.058642413 -0.042797495 -0.020032287 0.0005126521 -0.2095563 -0.032822393 0.041674405
0.009440899 -0.07529324 -0.0855956 0.022215499 0.021842785 -0.042296566 -0.007942602 -0.033152267
0.0972944 -0.0017103143 0.29779026 0.03075914 0.0864992 0.008267641 0.11421842 0.0047681034
-0.032213837 0.0177889 -0.017623859 0.023901986 0.0110183135 -0.19125628 -0.034137607 0.22405526
0.12531154 -0.3456226 -0.022895433 0.05316115 -0.03612391 -0.0525629 -0.022521582 0.22671685
-0.009817284 0.051255353 0.03572259 -0.011657668 -0.5002571 -0.043280683 -0.022625946 -0.014678225
0.251739 0.04997667 0.037123814 0.053968333 0.05133356 -0.029018495 0.18465959 -0.039406516
-0.018293375 -0.30595204 -0.042470973 0.0351023 0.20309801 -0.021482151 0.028467335 0.024231859
00000000: ee4c 633d 68fb fbbb 708f 34bc 408f b73b
00000010: 6c68 643d 7a1e d4bc daa9 a3bc 085d 9abe
00000020: 4034 fc3d 1ad3 adbc e597 74be a220 283d
00000030: 0052 8c3a 08ac bbbd b75b 903d b6d1 21bd
00000040: 7098 5fbd a47f f1bc 91aa efbe 6d17 7cbd
00000050: 17b6 22bd d086 683d fc7d e43c ee0d febc
00000060: fd41 05bd 10ee 2dbb cf79 fdbc 2173 bebc
00000070: 31d9 d1bc a6ae 11bd a437 bf3c 28af ec3c
00000080: 162e e5bd b3ec b93c 02d6 5c3d 52ad 0f3d
00000090: 9c66 363d f8dd 24bf e426 2e3d 687f f5bc
000000a0: 887b e8bb b0e0 d4bb f831 0a3c 751b 0abd
000000b0: 5c56 ba3c e6b9 673d 0c40 9f3c df9c 853c
000000c0: 306e e83c 92bd 3f3d a062 bb3c 9a49 2c3d
000000d0: f206 d9bc ad8b 0ebd 5ff9 0abe a594 ab3e
000000e0: 170f 703e daa3 a63e f058 c63b 6eec 113d
000000f0: 1c32 afbc 78aa ee3c 7499 78be 5830 263d
00000100: 402f 863c 68f9 f73c 6a7f 273d 17bd 213e
00000110: d257 183c 0af0 6a3d df40 e53c e435 c63c
00000120: d7b1 0ebd 4a7a 453e 2d4f 9ebd a0a0 fc3c
00000130: 6030 3ebc 0188 62bd 441d 01be 82c0 1b3d
00000140: 90df 493d 161b 513e e2a7 9fbb 3c65 4bbc
00000150: 0a98 88bc e07b 4d3c 3a50 42bd 4765 643d
00000160: 6523 93be a8bd eebb 22f3 5cbd 00d9 703c
00000170: 7cf1 293d 54b6 943c d70d 41bd f7bb fa3d
00000180: 70a6 e43c 8b45 f73d 9ad9 34bd e918 863e
00000190: c8ba 50bc 31c0 5cbd 8089 693d cee0 d8be
000001a0: 7777 77bc fb8c 07bd e577 843e 54fa 673d
000001b0: b990 0abd 0227 1b3d f43e dbbd 1092 8d3c
000001c0: 9bbe e2bc d01d d3bc acea 07bd 966d 343e
000001d0: 58d8 5d3c fc8e d0bd f9a4 923d c28a d23b
000001e0: 8374 67bd 5c0e 30bc aedc abbd 7b95 9cbc
000001f0: d78d bd3d 9144 6c3d f1a0 873e 9163 043e
00000200: 8341 88bf cccb 2c3d 1c5f c13c 0097 913a
00000210: 2ce7 9f3c 16eb b3bc 2860 15bf 2187 383e
00000220: 64b5 87bd f220 b5bc 7405 14bc a15f a13d
00000230: e811 0c3e 692b 3abd 00c7 c63b cd86 e8bb
00000240: d0f5 3f3d 1b8e e13d b255 efbc 10fc aabe
00000250: 4ab2 4f3d f096 ccbc bca1 bebd 802d e33b
00000260: d5e5 4bbd afc9 e5bc d123 ea3d 9e48 36bd
00000270: 0a6a 013d 68c5 c4bc 7d57 dfbc ec6a 2bbd
00000280: 2b2e 673c 9ab3 03bd e35c 4fbf a909 9fbf
00000290: b32e 283e f5a2 04bf 7f93 b1b9 2cda 213d
000002a0: 6c17 bc3c 5ad1 61bd cc45 35bc 8b55 ac3d
000002b0: 5150 163d 4740 383d 8b3b 47bd a51e b3be
000002c0: 2285 47bc 19e5 5d3d d945 92bf a865 7f3c
000002d0: 52d8 0e3c 3093 f83c 66ed 423d 26d1 f5bd
000002e0: 186c 57bd e5b2 a93d 3219 153d 4057 293c
000002f0: 423b babc fddb 7fbe b4a9 4dbd 800c 7bbc
00000300: 4eb7 1fbd 0733 70bd 6d4c 2fbd c01a a4bc
00000310: 8063 063a ed95 56be c670 06bd c8b2 2a3d
00000320: 00ae 1a3c 5833 9abd bf4c afbd 47fd b53c
00000330: a4ef b23c 2a3f 2dbd b021 02bc acca 07bd
00000340: 4942 c73d a02c e0ba f777 983e 98fa fb3c
00000350: 7e26 b13d 0075 073c 59eb e93d c03d 9c3b
00000360: a8f2 03bd 07ba 913c e95f 90bc 19ce c33c
00000370: 2886 343c b0d8 43be e0d3 0bbd be6e 653e
00000380: ab51 003e 72f5 b0be 348f bbbc 82bf 593d
00000390: aaf6 13bd 324c 57bd 2e7f b8bc 7628 683e
000003a0: acd8 20bc 22f1 513d da51 123d ceff 3ebc
000003b0: d910 00bf 1647 31bd 0c5a b9bc f07c 70bc
000003c0: efe3 803e 56b4 4c3d 240f 183d e60d 5d3d
000003d0: 2443 523d 32b8 edbc 6717 3d3e ba68 21bd
000003e0: fddb 95bc bfa5 9cbe 0bf6 2dbd 6ec7 0f3d
000003f0: edf8 4f3e 56fb afbc 5434 e93c e481 c63c

fc2.bias f4 [300]
0.013100938 -0.046675228 -0.0406119 0.13758147 0.039717764 -0.072511375 -0.026154198 0.004275887
-0.009340192 0.0772144 0.07600825 -0.14765276 -0.01498034 0.002332758 -0.051329356 -0.018679637
0.007246368 0.08239246 -0.024936792 0.12140407 -0.12704226 0.017615877 -0.034699712 -0.047281794
-0.14119093 -0.0028058877 0.043578614 0.011451416 0.02653411 0.026876837 -0.0406643 -0.0024369075
-0.031979114 -0.05897752 0.03793715 0.09050323 0.09527362 0.09316838 0.17673546 -0.0030447275
-0.06335569 -0.012131129 0.057281487 -0.0077492828 -0.02842871 0.060725957 -0.034514025 -0.032337435
-0.025102323 -0.09517523 -0.10694549 0.10440366 -0.101040326 0.04169577 0.010661959 0.077119544
0.026475066 0.028008552 0.12115511 0.09846695 0.13291004 0.045913827 0.057217713 -0.07681761
-0.04781559 -0.058926765 0.069927745 0.02788444 0.04274888 -0.031003702 -0.040475674 -0.032017924
-0.0034235453 -0.0024595275 -0.01177173 0.056709237 0.12842184 0.085608445 -0.39979374 0.2065468
0.031225495 0.007949757 0.16366231 0.015038597 -0.00101902 0.038339708 0.083436064 0.015086311
0.119075984 -0.015994942 -0.028975116 0.06669586 -0.0292979 0.11963032 -0.08898643 0.099716045
-0.020081865 0.02151322 0.1728126 0.08477145 -0.041907966 0.017933244 0.048908312 -0.047567226
0.084309936 0.012850504 0.026168453 0.028544629 0.0024152324 -0.033029623 0.07325493 -0.12144672
-0.11863971 0.035181794 0.039166983 -0.07960652 0.058984872 0.027928118 0.026586983 -0.048899002
-0.009276179 0.0048948657 -0.119110174 -0.05623629 -0.045626104 -0.036314406 0.09576292 0.100325786
0.0063237245 0.033813804 0.017423058 0.11669267 -0.07303238 0.13222723 0.017978473 0.07867275
0.033676658 -0.03718206 0.09869107 0.049749777 0.017753812 0.096547894 0.091762766 0.1430386
0.03413461 -0.024608858 0.15342572 -0.048226025 -0.04701578 0.016356539 -0.010532899 0.12921542
0.062275745 -0.032295704 0.038380016 -0.08919062 -0.11786559 0.064848 -0.025949085 -0.06901973
0.021532608 0.052793637 -0.005601378 -0.0050947447 -0.0004805955 0.090180896 -0.063871 -0.011405467
0.14342318 0.07072294 0.21394515 -0.05604845 -0.006268063 0.07757273 0.110701144 -0.01609589
-0.14082171 -0.030841498 0.031417597 -0.08077575 -0.014215317 0.066796824 0.005814399 0.020051753
-0.053353485 -0.036008794 0.016299775 0.05456872 0.028271219 -0.21611342 0.0012519168 -0.17408125
0.16656238 0.034312773 0.15739346 -0.026917085 0.08097186 -0.026055038 0.0036842038 0.045934502
0.017478283 0.0954846 -0.022828287 -0.04980833 0.08099304 0.013901611 -0.18922065 -0.10271007
0.047537558 -0.04139679 0.07373243 0.15158053 -0.053977624 0.00528649 -0.25963774 -0.034817725
0.14536417 0.028085215 0.030789906 0.028580783 0.09218878 -0.021334976 -0.049667027 -0.04004369
-0.012939146 -0.020606522 0.14667252 0.016553663 -0.0014273734 0.036209688 0.011184322 0.03187248
0.01820092 0.047884252 -0.01153052 -0.013629922 0.049836047 0.17012414 0.07148965 -0.05770095
0.10974694 -0.050406285 -0.031030409 0.06043481 0.14092273 -0.06224676 -0.046280675 -0.03016314
-0.045859277 -0.14596839 0.07060877 0.006898209 0.045401078 0.04155203 0.07353742 -0.05995549
00000000: 51a5 563c 862e 3fbd aa58 26bd 28e2 0c3e
00000010: 18af 223d d880 94bd 5441 d6bc bd1c 8c3b
00000020: 9b07 19bc 9522 9e3d 37aa 9b3d 4932 17be
00000030: 1a70 75bc 2fe1 183b bb3e 52bd 0a06 99bc
00000040: f172 ed3b 61bd a83d 3e48 ccbc b2a2 f83d
00000050: 5e17 02be 2c4f 903c 4921 0ebd 8eaa 41bd
00000060: 5b94 10be fce2 37bb 7d7f 323d b89e 3b3c
00000070: 105e d93c d02c dc3c 9c8f 26bd 86b4 1fbb
00000080: 88fc 02bd 6992 71bd fc63 1b3d c259 b93d
00000090: d11e c33d 10cf be3d 24fa 343e 0d8a 47bb
000000a0: a1c0 81bd a5c1 46bc fe9f 6a3d b2ed fdbb
000000b0: 53e3 e8bc c8bb 783d 945e 0dbd 4274 04bd
000000c0: 63a3 cdbc 3beb c2bd 3d06 dbbd 96d1 d53d
000000d0: 3bee cebd 2fc9 2a3d 7faf 2e3c daf0 9d3d
000000e0: 3de2 d83c 3172 e53c 2c20 f83d 0aa9 c93d
000000f0: 9219 083e 2310 3c3d 1f5d 6a3d 8d52 9dbd
00000100: 48da 43bd 315d 71bd 4736 8f3d e96d e43c
00000110: 7319 2f3d 7afb fdbc d2c9 25bd 3a25 03bd
00000120: 8f5d 60bb 0630 21bb 37de 40bc f247 683d
00000130: 0481 033e 7b53 af3d c4b1 ccbe 0181 533e
00000140: 9ccc ff3c b33f 023c 1897 273e 7364 763c
00000150: a390 85ba 190a 1d3d 87e0 aa3d 932c 773c
00000160: 1cde f33d d307 83bc 395d edbc d797 883d
00000170: 2602 f0bc be00 f53d 843e b6bd ed37 cc3d
00000180: b982 a4bc 7e3c b03c c9f5 303e a79c ad3d
00000190: b0a7 2bbd bde8 923c 1554 483d dad5 42bd
000001a0: b0aa ac3d ec8a 523c 395f d63c 6dd6 e93c
000001b0: e048 1e3b 124a 07bd ae06 963d 0fb9 f8bd
000001c0: 60f9 f2bd c91a 103d 8f6d 203d be08 a3bd
000001d0: 1f9a 713d 82c9 e43c f2cc d93c 524a 48bd
000001e0: 1dfb 17bc 1c65 a03b 09f0 f3bd 0658 66bd
000001f0: 70e2 3abd 6abe 14bd 5a1f c43d 9b77 cd3d
00000200: 3f37 cf3b 5880 0a3d cdba 8e3c 91fc ee3d
00000210: 0092 95bd 9366 073e 9747 933c 2e1f a13d
00000220: 89f0 093d 374c 18bd 8b1e ca3d 6cc6 4b3d
00000230: 7170 913c e7ba c53d 1eee bb3d b678 123e
00000240: bcd0 0b3d 8498 c9bc a21b 1d3e a788 45bd
00000250: 9e93 40bd 26fe 853c 2e92 2cbc 0c51 043e
00000260: da14 7f3d 8048 04bd 5d34 1d3d 92a9 b6bd
00000270: 8463 f1bd 07cf 843d 2d93 d4bc 375a 8dbd
00000280: 2765 b03c 243e 583d c48b b7bb d1f1 a6bb
00000290: 70f8 fbb9 c3b0 b83d cdce 82bd ffdd 3abc
000002a0: 87dd 123e 30d7 903d 7014 5b3e 0f93 65bd
000002b0: 5364 cdbb 74de 9e3d 48b7 e23d 87db 83bc
000002c0: 9133 10be 4fa7 fcbc bdaf 003d c26d a5bd
000002d0: 5ce7 68bc c6cc 883d b786 be3b 9343 a43c
000002e0: 2f89 5abd f57d 13bd 1b87 853c 7383 5f3d
000002f0: 0b99 e73c d64c 5dbe 5b17 a43a 5b42 32be
00000300: 548f 2a3e 8d8b 0c3d c02b 213e 3881 dcbc
00000310: 93d4 a53d 6071 d5bc af72 713b d125 3c3d
00000320: 9e2e 8f3c 6e8d c33d 6302 bbbc d203 4cbd
00000330: aedf a53d 95c3 633c 0fc3 41be a859 d2bd
00000340: beb6 423d ae8f 29bd 0701 973d ed37 1b3e
00000350: a417 5dbd 4b3a ad3b 3def 84be 089d 0ebd
00000360: 58da 143e f712 e63c 1d3b fc3c 3f22 ea3c
00000370: 79cd bc3d b0c6 aebc a76f 4bbd da04 24bd
00000380: b6fe 53bc 02cf a8bc 5231 163e 8c9b 873c
00000390: b416 bbba 9c50 143d 723e 373c b88c 023d
000003a0: 191a 953c 4722 443d 82ea 3cbc 0950 5fbc
000003b0: e220 4c3d 0635 2e3e 2a69 923d d557 6cbd
000003c0: 01c3 e03d d276 4ebd 7c33 febc 7e8a 773d
000003d0: 0c4e 103e 75f6 7ebd ce90 3dbd b018 f7bc
000003e0: f0d6 3bbd bd78 15be 559b 903d 5f0a e23b
000003f0: 7bf6 393d 7632 2a3d c99a 963d e393 75bd

fc3.weight f4 [12, 300]
0.109836176 -0.5457716 0.32645565 -0.011803375 0.0834336 -0.05635257 -0.008642005 -0.0116977
-0.4250197 0.36967862 -0.9934694 0.12301197 -0.4394509 -0.095059626 0.21023132 0.28452346
0.0016226507 -0.5232119 0.046443153 0.46523267 -0.05774706 -0.015418757 -0.008990407 -0.0017318177
0.031865768 -0.0031351985 -0.287242 0.22025907 0.21996607 -0.12456105 0.00029222827 -0.1063704
0.0015200259 -0.10810363 -0.0632692 0.19951142 -0.26958853 0.038345996 0.6746831 -0.31084675
-0.19145378 -0.32963997 -0.22364098 -0.17640276 -0.002135173 0.01620364 0.0023268505 0.0015671907
-0.0027393966 -0.37931094 -0.7272711 -1.5502614 0.62450415 0.01939127 0.003619325 -0.98079634
-0.01100421 -0.6462523 -0.17888239 0.37501854 0.83006835 0.06413843 0.12901203 -0.09432353
-0.0013470558 0.31185168 0.13264704 -0.101334766 0.11666377 0.6019055 -0.0021656507 0.0015233149
0.10266081 -0.007860096 -0.013948674 -0.16673225 0.0031729897 -0.12265265 -1.2756666 -0.08471919
-0.05185257 0.36612114 -0.27412266 0.73562664 -0.00011140338 -0.024362992 -0.11237974 -0.009136628
0.11814926 -0.00092297094 -0.0050547062 -0.11361996 -0.0077842185 0.31288442 0.032467358 0.14158803
-0.0118080275 -0.069973215 1.3729239 0.16203871 -0.0028213384 0.055799108 0.13289933 -0.00069740356
-0.059834093 -0.003482411 -0.094444975 -0.1368961 -0.010217439 -0.002461478 -0.33392712 0.084956236
-0.079327784 0.20424432 0.03825923 0.33152455 -0.33851942 0.055902604 -0.010602966 -0.004244979
0.25470713 -0.8520402 -1.276548 -0.0013797192 -0.35438046 -0.13171986 -0.45418924 0.09520765
-0.0084551135 0.3467764 -0.0026044024 -0.012121097 0.16067971 0.69297403 -0.0025894253 0.8526713
-0.9465381 0.0015680159 0.042407654 -0.18294059 0.070554435 -0.10563169 0.3178854 -0.430787
-0.07880458 -0.00015763646 -0.10752197 -0.011785883 0.07828153 -0.0151091 -0.00023826452 0.57653856
0.3098847 0.051709536 -0.9323685 0.63438827 -0.61169815 -0.53337884 0.0007552146 -0.09309569
-0.147164 -0.101137854 0.24723679 -0.013669394 -0.05866164 -0.032899555 -0.2716477 0.39835593
0.100678794 -0.6202994 0.7647155 0.0016703504 -0.016802156 -0.6230423 0.18979791 0.00057631894
0.013498582 -1.1453853 -0.010865923 0.0027567996 -0.9324605 -0.011298976 -0.0077679995 0.026032923
0.009493586 -0.0016690003 -0.009333001 -0.18235047 -0.0034920007 -0.56656027 0.17652792 -0.88246304
0.18464138 0.1277889 0.39875382 -0.21286175 0.19695647 0.20096897 -0.014292913 0.0012806044
-0.004955223 0.17822348 0.0011205297 -0.012177323 0.07271528 -0.008899891 -0.7997741 -0.46673173
-0.29583836 -0.030016199 -0.061156042 0.06630314 0.2076741 -0.014343497 0.45591217 -1.6343255
-0.079173796 -0.011978194 0.0019393754 -0.0790443 0.020673571 0.36057425 -0.0015859365 0.042923603
-0.0011928385 -0.25114447 0.2586067 -0.0040132394 0.053792767 -0.08629863 -0.013034339 0.34091374
-1.1234313 -0.06216419 -0.0058524953 0.0020178356 0.39135504 -1.6869948 -0.10819556 -0.01641295
-0.3016019 -0.14338855 -0.8254448 0.2653173 0.039207704 0.21633539 -0.00040187853 0.23341824
0.17476775 0.4657435 0.5943018 0.32309932 -0.37575597 -0.8195494 -0.36128154 -0.08112635
00000000: caf1 e03d b0b7 0bbf 3225 a73e f162 41bc
00000010: 3cdf aa3d f4d1 66bd 3297 0dbc b6a7 3fbc
00000020: 2f9c d9be 8446 bd3e 0354 7ebf b3ed fb3d
00000030: b5ff e0be 9fae c2bd e146 573e 0fad 913e
00000040: 1faf d43a 37f1 05bf 2d3b 3e3d fa32 ee3e
00000050: 2e88 6cbd f49e 7cbc 804c 13bc 29fe e2ba
00000060: ae85 023d e777 4dbb 6211 93be 988b 613e
00000070: c93e 613e dd19 ffbd 3736 9939 b9d8 d9bd
00000080: 9b3b c73a 7065 ddbd 4893 81bd b94c 4c3e
00000090: 8207 8abe b110 1d3d 08b8 2c3f 4e27 9fbe
000000a0: 760c 44be 92c6 a8be 2402 65be eda2 34be
000000b0: 42ee 0bbb 7fbd 843c 137e 183b 326a cd3a
000000c0: 7387 33bb 0b35 c2be 702e 3abf f76e c6bf
000000d0: 81df 1f3f 71da 9e3c 3332 6d3b 7815 7bbf
000000e0: 014b 34bc ca70 25bf f22c 37be 6e02 c03e
000000f0: 5c7f 543f 025b 833d bb1b 043e b22c c1bd
00000100: b18f b0ba 06ab 9f3e a0d4 073e 9a88 cfbd
00000110: 6aed ee3d 7b16 1a3f 97ed 0dbb f7a9 c73a
00000120: d53f d23d a2c7 00bc fb88 64bc dcbb 2abe
00000130: eff1 4f3b 5031 fbbd 0b49 a3bf 4181 adbd
00000140: 5c63 54bd 3b74 bb3e ce59 8cbe 0752 3c3f
00000150: 3ca1 e9b8 e694 c7bc 5927 e6bd ccb1 15bc
00000160: 3df8 f13d 88f3 71ba f3a1 a5bb 95b1 e8bd
00000170: c212 ffbb 6332 a03e 7efc 043d 74fc 103e
00000180: 7576 41bc 1e4e 8fbd f8bb af3f 7aed 253e
00000190: 34e6 38bb 9b8d 643d c316 083e f6d1 36ba
000001a0: 9814 75bd 2939 64bb 5e6c c1bd 7e2e 0cbe
000001b0: 0c67 27bc c050 21bb 7ff8 aabe 89fd ad3d
000001c0: 9b76 a2bd 6c25 513e b6b5 1c3d 96bd a93e
000001d0: 6b52 adbe 21fa 643d 10b8 2dbc 7719 8bbb
000001e0: f968 823e 4e1f 5abf ed65 a3bf b2d7 b4ba
000001f0: 5b71 b5be 92e1 06be 7e8b e8be 3afc c23d
00000200: 5187 0abc ad8c b13e 9fae 2abb 9197 46bc
00000210: 3989 243e bf66 313f 59b3 29bb ab48 5a3f
00000220: 5250 72bf e285 cd3a a6b3 2d3d c754 3bbe
00000230: d87e 903d 6d55 d8bd e0c1 a23e 1d90 dcbe
00000240: 4c64 a1bd 374b 25b9 7b34 dcbd 9419 41bc
00000250: 1152 a03d 298c 77bc a5d6 79b9 0898 133f
00000260: 35a9 9e3e 61cd 533d b4af 6ebf 4567 223f
00000270: 4098 1cbf 848b 08bf 98f9 453a f4a8 bebd
00000280: 29b2 16be 5d21 cfbd a42b 7d3e 98f5 5fbc
00000290: 3047 70bd afc1 06bd 6815 8bbe 4ff5 cb3e
000002a0: af30 ce3d f1cb 1ebf 65c4 433f a9ef da3a
000002b0: ada4 89bc b37f 1fbf 625a 423e 1c14 173a
000002c0: 2829 5d3c fc9b 92bf fc06 32bc 6cab 343b
000002d0: bbb5 6ebf 571f 39bc b48a febb ff42 d53c
000002e0: fc8a 1b3c 5bc2 daba 72e9 18bc 15ba 3abe
000002f0: 0dda 64bb 180a 11bf bcc3 343e 19e9 61bf
00000300: a112 3d3e 18db 023e 7629 cc3e 6ef8 59be
00000310: f5ae 493e cfca 4d3e d22c 6abc f4d9 a73a
00000320: 6c5f a2bb 3780 363e bdde 923a 6583 47bc
00000330: c0eb 943d d9d0 11bc ffbd 4cbf 76f7 eebe
00000340: 2078 97be 88e4 f5bc c27e 7abd f1c9 873d
00000350: 85a8 543e fd00 6bbc 526d e93e 9431 d1bf
00000360: df25 a2bd 3040 44bc a432 fe3a fae1 a1bd
00000370: 9f5b a93c 309d b83e 33df cfba a9d0 2f3d
00000380: 0559 9cba 0296 80be 1968 843e 7e81 83bb
00000390: ce55 5c3d 56bd b0bd fb8d 55bc 3f8c ae3e
000003a0: 99cc 8fbf e19f 7ebd 4ac6 bfbb aa3d 043b
000003b0: b05f c83e 72ef d7bf a295 ddbd 7374 86bc
000003c0: 906b 9abe 73d4 12be 5a50 53bf abd7 873e
000003d0: 4298 203d 0687 5d3e 39b3 d2b9 3105 6f3e
000003e0: 51f6 323e ef75 ee3e 2a24 183f 466d a53e
000003f0: 1663 c0be fdcd 51bf e5f9 b8be 9225 a6bd

fc3.bias f4 [12]
0.054156277 -0.040629216 -0.09219457 -0.09043537 0.0672448 -0.15868826 -0.06207102 0.13967343
0.0014053894 0.063089706 0.11607982 0.11701812
00000000: f9d2 5d3d d26a 26bd 82d0 bcbd 2e36 b9bd
00000010: a4b7 893d 2d7f 22be 2f3e 7ebd 8d06 0f3e
00000020: 0b35 b83a 2d35 813d 42bb ed3d 32a7 ef3d
