algorithm/pytorch-ddpg-master/output/ParallelCableDrivenRobot-v11-run17/critic.pkl (torch, 537167 bytes, 5 tensors)

fc1.weight f4 [400, 23]
000000 cd 64 e8 bc 25 62 29 3d fa e2 a6 3c 23 ff 2e bd
       -0.028368378 0.041353364 0.020371903 -0.042723786
000010 40 63 23 bc d0 cb 30 3b f4 8b 4c bc a0 84 25 3b
       -0.0099723935 0.002697695 -0.012484539 0.0025256053
000020 80 fa 49 3b 38 7a 76 bc 28 99 c6 bb 00 df b8 3a
       0.0030819476 -0.015043788 -0.006060738 0.0014104545
000030 f6 87 8e bc d0 49 a7 3b 37 cf 12 3d 28 87 ac bb
       -0.017398816 0.0051052347 0.035842147 -0.0052651353
000040 5d 79 f7 bc 30 d4 df bc 60 d2 3d bd 03 00 c9 bc
       -0.030209238 -0.027322859 -0.046343207 -0.024536138
000050 88 d2 07 3c b3 a7 a4 bc 38 94 0d bd fa dc 95 bc
       0.008289941 -0.020099496 -0.03456518 -0.018293846
000060 9f a7 45 bd 80 37 0a 3a b8 f6 24 3c 20 94 90 bc
       -0.04825556 0.00052725524 0.010068588 -0.017648757
000070 55 45 26 3d 70 43 fa bc 1e 0d a9 3c da aa a3 bc
       0.040593464 -0.030549735 0.020636138 -0.01997893
000080 a3 be d6 bc 30 d4 1c 3b 00 91 8b 39 80 8e cb 3b
       -0.02621395 0.0023930185 0.0002662018 0.0062120557
000090 52 6b af 3c 60 1c 9e 3a da f4 a8 bc c2 e7 91 3c
       0.021413479 0.00120629 -0.020624567 0.017810706
0000a0 90 0e c8 3b d8 43 40 bd ba 67 ee 3c fa ac 1b bd
       0.0061052516 -0.0469397 0.029102195 -0.03800676
0000b0 2a cf d7 3c 3a 9b 3a bd 92 42 d1 3c cb d6 26 3d
       0.0263439 -0.04555819 0.025544439 0.040732186
0000c0 8f 45 36 bd 00 a4 d6 3b d0 18 4a 3b 40 6a fd bc
       -0.04449993 0.006550312 0.0030837543 -0.030934453
0000d0 52 58 82 3c 51 50 25 3d d0 11 39 bb 4a 97 8b bc
       0.015911255 0.0403598 -0.0028239377 -0.017039914
0000e0 d0 81 d2 bb 8b 0c 14 3d 65 99 1b 3d 68 e0 29 3c
       -0.0064241663 0.036144774 0.037988085 0.010368444
0000f0 18 9c a1 bb 96 3a 94 3c a2 11 db 3c f4 7b 80 bc
       -0.004931938 0.018094342 0.026741806 -0.015684105
000100 a2 32 95 3c fa 1f 85 bc 8f d0 40 3d 72 2d af 3c
       0.01821262 -0.0162506 0.047073897 0.021383975
000110 06 e1 d4 3c 26 14 7b bd 91 13 87 40 5e a3 08 c0
       0.025986206 -0.061298512 4.2211385 -2.1349711
000120 b2 aa 68 c0 87 08 c5 3d e7 9b 4a 40 49 04 84 bd
       -3.6354184 0.09620767 3.1657655 -0.0644613
000130 18 39 53 c0 ec 40 61 c0 6d 7e 5a 40 61 82 5c 41
       -3.3003597 -3.5195875 3.4139664 13.781831
000140 00 f5 96 c0 56 58 72 40 e7 02 84 bd a3 e0 9c c0
       -4.717407 3.7866416 -0.06445866 -4.9024215
000150 9f cf 60 c0 0c 47 a8 c0 9e 30 99 40 84 88 2f 40
       -3.5126722 -5.2586727 4.7871847 2.7427073
000160 30 1c 4d c0 ad f4 df c0 d9 39 4c 40 ca ba 09 40
       -3.2048454 -6.9986176 3.1910307 2.1520257
000170 38 ab 42 bd 9d 80 13 3d 1d aa ed bc 8e 56 f0 3c
       -0.04752657 0.036011327 -0.02901178 0.029338147
000180 ae 42 27 bd 00 10 ab 37 02 89 d6 3c 20 34 08 bd
       -0.040835075 2.039224e-05 0.026188377 -0.033252835
000190 2a 33 82 3c 40 fa ca ba ab aa 2e bd fe cf 1d bd
       0.015893538 -0.0015485957 -0.04264323 -0.038528435
0001a0 80 b1 28 bd 4d 2e 2e 3d 40 f8 cf ba dc b4 6b 3c
       -0.041184902 0.042524625 -0.0015866831 0.014386382
0001b0 4b 54 34 bd 1a bf da 3c b8 53 45 3c 12 26 ca 3c
       -0.0440257 0.026702452 0.012043886 0.024676356
0001c0 40 2f d5 3a c1 e9 42 3d a5 47 1d bd 57 43 bf bd
       0.0016264692 0.047586206 -0.038398404 -0.09339016
0001d0 b1 41 6f 40 ab 6c e2 bf 26 a1 c9 bf 35 ae e1 c0
       3.7383845 -1.7689413 -1.5752304 -7.0525155
0001e0 05 63 cb 3f 81 d0 a4 bd dd 9e e3 3f 6e 92 e0 bf
       1.5889593 -0.080475815 1.7782856 -1.7544687
0001f0 de 69 d4 3f 12 7f 8b 41 47 5a 82 c0 d2 a7 91 40
       1.6594808 17.437046 -4.07352 4.551736
000200 ab 97 62 bd 4a 02 45 c0 2c 11 88 c0 90 88 8d c0
       -0.055320423 -3.0782647 -4.252096 -4.42292
000210 9f 47 36 40 3c 35 1b 41 25 f1 ad bf 50 e0 a7 3f
       2.8481214 9.700497 -1.3589216 1.311533
000220 c3 d6 b4 3f 78 f5 14 41 00 04 57 bb e4 25 51 3c
       1.412804 9.309929 -0.003280878 0.0127653815
000230 d4 24 95 bc 78 c0 29 3c 60 a2 a1 3a 87 40 4a 3d
       -0.018206038 0.0103608295 0.0012331717 0.049377944
000240 5e 4a 81 3c 78 a5 11 bc e9 ba 1d 3d 91 b0 39 3d
       0.015782531 -0.0088895485 0.03850833 0.045334402
000250 00 fd 0f bb 53 c3 e2 bc a0 84 60 3b e8 36 d6 3b
       -0.0021970868 -0.027681028 0.0034258738 0.006537307
000260 33 6e 07 3d 3d 92 31 bd 80 57 21 bc a3 c5 48 3d
       0.03306408 -0.043352354 -0.009847522 0.049016606
000270 1f c1 2e bd 59 49 04 3d c3 ee c6 bc 5b 3b 42 bd
       -0.042664643 0.032296512 -0.024283772 -0.047419887
000280 a0 a1 96 3a 3b 46 e6 bb 73 08 de 40 8b c0 b4 c0
       0.001149226 -0.007027415 6.9385314 -5.648504
000290 2c e6 84 c0 db 70 37 40 0e 7f cc be 5b 73 62 bb
       -4.153097 2.8662632 -0.39940685 -0.003455362
0002a0 f2 60 e3 3d 21 76 80 bf 4c 34 fd 3f ef 36 cf 41
       0.11102475 -1.003605 1.9781585 25.901823
0002b0 a4 20 00 c1 b7 0a ee 40 cd 25 84 3b fe 09 09 c1
       -8.007969 7.438808 0.0040328265 -8.5649395
0002c0 0a 12 e6 c0 dd a7 07 c1 f3 3a bf 40 8e c3 fc be
       -7.189702 -8.478482 5.975946 -0.49367946
0002d0 b9 b4 2f 3f ea 32 8b c0 94 56 24 bf bb 2b 56 bf
       0.68635136 -4.349965 -0.6419461 -0.8366048
0002e0 a4 3f a7 bd c6 76 68 bd b8 2a b9 3e 7c a5 38 3f
       -0.08166435 -0.056753896 0.36165404 0.7212751
0002f0 1c 5e ef be fe a7 fb 3e c7 60 ba bc 24 ee ca 3e
       -0.46751487 0.49151605 -0.022751225 0.39634812
000300 78 d8 58 be 66 4e 24 be 2f d6 07 bf 65 b0 c1 3d
       -0.21176326 -0.16045532 -0.53061193 0.09457473
000310 4b 9b ab be c8 9b 93 bd 0e 2d 0e bf 68 f7 a6 3e
       -0.33516917 -0.07207447 -0.555375 0.3261063
000320 49 fb 2c 3e c1 7b 1f bf 99 a2 ef 3e a4 07 b9 be
       0.16892733 -0.6229821 0.4680374 -0.36138642
000330 31 d6 32 bf c6 3d c6 3e a7 14 e6 3e a0 cd be ba
       -0.6985808 0.38719004 0.4493763 -0.0014557131
000340 fa e7 43 bd b9 69 49 3d 32 22 fc 3c c0 9d de 3b
       -0.047828652 0.04917309 0.030778024 0.0067937076
000350 03 35 37 3d 1a 02 c7 3c 98 c5 f9 3b 27 03 03 3d
       0.04472829 0.024292994 0.007622432 0.03198543
000360 12 68 f0 3c b8 77 48 3c 57 19 3a bd ab c0 0c 3d
       0.0293465 0.012235574 -0.045434322 0.03436343
000370 43 a3 31 bd aa 8c 1a bd dc a0 78 3c ba 45 b3 bc
       -0.04336859 -0.037731804 0.015175071 -0.021883834
000380 00 10 a2 bc 7d a1 a3 bc d3 4e dd bc 20 4b 63 bb
       -0.01978302 -0.019974465 -0.027015125 -0.003468223
000390 f8 df 49 bd 94 b3 74 3c 25 4a 12 3d 40 ff b0 3b
       -0.04928586 0.014935393 0.03571524 0.005401522
0003a0 10 92 00 bd 46 18 d6 3c c2 4f ce 3c 17 02 df bc
       -0.031389296 0.026134621 0.025184516 -0.027222676
0003b0 25 1c 1e bd 36 4c aa 3c d1 a5 43 3d 28 34 bb bb
       -0.03860106 0.020788293 0.047765557 -0.0057130046
0003c0 77 3e 31 bd 4a cb e0 bc c0 ff fc bb 6c d8 10 3c
       -0.04327246 -0.027440686 -0.0077209175 0.0088406615
0003d0 ba 4d 3c bd f2 91 8e 3c 31 51 1a 3d 32 01 05 bd
       -0.045972563 0.017403577 0.037675086 -0.032471843
0003e0 c8 18 1f bd e2 a9 08 bd d2 25 af 3c 50 ec 68 bb
       -0.038841993 -0.033365138 0.021380339 -0.0035541244
0003f0 50 66 d1 3b 69 88 e0 3c 78 9d 31 3d a6 34 49 3d
       0.0063903704 0.027408795 0.043363065 0.049122475

fc1.bias f4 [400]
000000 30 18 53 bc ca 34 55 be 16 14 32 be 00 d2 17 3d
       -0.012884185 -0.20820919 -0.17390475 0.037065506
000010 75 e5 b3 bd 83 e0 6c be 28 9c 3a be 7c 7e fc bd
       -0.08784 -0.2313252 -0.18223631 -0.123288125
000020 9e 43 cc 3d f4 f5 75 bd ab 87 19 be 72 2b 4a bc
       0.099738345 -0.060049012 -0.1499316 -0.01233946
000030 00 85 97 bd 8b ea e7 bd 0d 52 d5 bd a0 a2 04 be
       -0.073984146 -0.113240324 -0.104160406 -0.12952662
000040 7c 73 17 3d 3b 19 64 3c a0 d5 57 3c ba f6 bd bc
       0.03697537 0.013922031 0.013173491 -0.023188937
000050 36 25 09 3e 98 d1 95 bd 0d 10 b4 3d ef e6 2f be
       0.13393101 -0.073153675 0.08792124 -0.17177938
000060 d0 fe 3e 3d a8 ba 4a bd 59 0e fc 3d 0e d9 13 be
       0.046629727 -0.049494416 0.12307424 -0.14438269
000070 73 ee 03 be d4 08 c7 bd c2 19 f4 3d 11 ab b3 bd
       -0.1288393 -0.09718481 0.119189754 -0.08772863
000080 fa 1b 86 bd 93 7c c9 bd e6 47 e2 3c b8 14 0e be
       -0.06548305 -0.09838214 0.027622174 -0.13875091
000090 ef ba 1d 3d d9 3b 34 be 44 ae b6 3c 3c b2 48 bd
       0.038508352 -0.17600955 0.022299893 -0.048998103
0000a0 40 9d 1c be 04 da 57 bd 92 34 ae 3d 53 06 3c 3d
       -0.15294361 -0.05269815 0.08506121 0.04590447
0000b0 e1 55 c7 be 72 98 72 3d 28 05 e6 3d 60 8c 38 bc
       -0.38932708 0.059227414 0.11231452 -0.011263937
0000c0 89 58 1a be c5 78 42 be 4f 2a f0 bd 30 6c 10 3c
       -0.15072836 -0.18991382 -0.1172682 0.008814856
0000d0 93 78 17 be 99 10 0d be 10 50 2d be de 93 98 bd
       -0.14792089 -0.13775863 -0.16925073 -0.074500784
0000e0 30 d9 d2 3c fd d1 bb bd 80 25 98 3c d4 f7 0e 3d
       0.025738329 -0.091709115 0.018572569 0.034904316
0000f0 74 35 79 bd bd 09 ed bd 86 8f 42 be 14 53 a8 bd
       -0.060841992 -0.11574123 -0.19000062 -0.08218971
000100 6d 69 07 3e 9a f1 c6 3d b3 c2 c8 3d 8b f1 8a 3d
       0.1322381 0.097140506 0.09802761 0.06784352
000110 48 d7 6a 3d 50 34 38 be b4 38 1a be 55 c1 3e be
       0.057334214 -0.17988706 -0.15060693 -0.18628438
000120 3e 32 04 be 18 00 05 be db 0b b8 bd 3d 83 0b bd
       -0.12909791 -0.12988317 -0.08986636 -0.034060705
000130 bd b6 6a bd dc 43 07 bc 1a 5d 37 be 26 7d a1 bd
       -0.05730318 -0.008255925 -0.17906609 -0.07885198
000140 0c 90 44 bd 81 73 04 be 26 54 25 be 6c ae 91 bd
       -0.047988936 -0.12934686 -0.16145381 -0.071133465
000150 96 be 9a bd 69 f7 44 bd 8d e0 69 3e 59 23 65 3e
       -0.07555883 -0.04808751 0.22839566 0.22376765
000160 ee b1 11 be cb c0 da bb 49 0d db bd d1 4b 3d bc
       -0.14228031 -0.0066758147 -0.10695893 -0.011553721
000170 44 77 20 be 67 83 26 be c8 ea 92 3c dc 57 2b be
       -0.15670496 -0.16261064 0.017934218 -0.16732734
000180 b9 c6 cb bd 50 83 05 bd d0 54 8e 3c a1 6a 9e 3d
       -0.09950013 -0.032595932 0.017374426 0.077351816
000190 00 8b 8f 3c f5 64 4e be 70 6e d5 bd f3 b7 ac bd
       0.017522335 -0.201557 -0.10421455 -0.08433523
0001a0 28 3b 0a bd 8e 96 d3 bd 75 ab 77 bc 30 0f d2 bc
       -0.033747822 -0.103314504 -0.015116562 -0.025642008
0001b0 aa 64 16 3d 0f 8b f2 3d f7 bf 06 be e0 1b 61 3c
       0.036717094 0.118429296 -0.13159166 0.013739556
0001c0 18 4b 19 be 37 68 3f bc cb a8 39 3d c8 d1 c4 3d
       -0.14970052 -0.011682562 0.04532699 0.09610325
0001d0 73 b1 c5 3d 6a cd 7e bd c6 60 99 bd 89 c2 83 3d
       0.096529864 -0.062207617 -0.07489161 0.06433589
0001e0 d5 d8 13 be ca a6 18 bd 5b b0 f1 3d e8 b2 0e be
       -0.14438184 -0.037268437 0.11801215 -0.13935435
0001f0 5a a3 a9 bd be 88 dd bd 80 08 81 3d f3 ef 50 3e
       -0.0828311 -0.10817097 0.06300449 0.20404033
000200 04 ba 4c 3d d4 94 0c 3d 05 13 31 3e 4a 2c ff bd
       0.049982086 0.03432162 0.17292412 -0.12459619
000210 20 af e1 3c c4 59 2f bd bd a2 28 3d ea 78 85 bd
       0.027549326 -0.042810217 0.041170824 -0.06517203
000220 c4 89 2c be 95 2e 03 be c7 58 0a be 95 39 c0 bd
       -0.16849428 -0.12810738 -0.13510428 -0.09385983
000230 72 b0 bb bd 00 84 6a bc 48 b5 ba 3d 3c e0 d9 3d
       -0.09164514 -0.014313698 0.09116608 0.106384724
000240 80 40 52 be ba e1 0f be ce 5a cf bd a2 7a ea 3c
       -0.20532417 -0.14050952 -0.101247415 0.028622929
000250 56 17 ed bc 25 24 39 3d 20 21 60 bd aa ac 3f be
       -0.028941792 0.045200486 -0.05471909 -0.1871821
000260 4b 68 da bd e6 6e a3 3d c4 1e 6e bd b4 88 6f be
       -0.106644236 0.079801366 -0.05813481 -0.23391992
000270 ab 18 de bd a4 9d c3 3d df 7b 9c bb 29 ac 76 3d
       -0.10844549 0.09551552 -0.004775509 0.06022278
000280 f3 64 78 3d 18 57 a4 bd a0 e0 ae bd 9a c3 79 bc
       0.060643148 -0.08024424 -0.085389376 -0.015244389
000290 4c 0a 13 be f3 94 8f be 9a 56 e5 3d d5 90 db 3d
       -0.14359397 -0.28043327 0.111981586 0.10720984
0002a0 33 a3 17 be 34 15 1c 3d 28 a3 82 3c 22 02 87 3c
       -0.1480835 0.03810616 0.01594694 0.01648051
0002b0 f1 32 51 bd a0 fc d5 bd 04 c7 0c be e5 b3 01 3f
       -0.051073972 -0.10448575 -0.13747793 0.5066512
0002c0 74 9b 03 be 14 40 42 3d 70 a7 00 be d6 46 c4 bd
       -0.1285227 0.04742439 -0.12563872 -0.095838234
0002d0 92 6e 8b 3d 32 2a b6 bd a3 4f 69 bd 82 3c 31 be
       0.06808199 -0.08894767 -0.056960713 -0.17308238
0002e0 8c 96 21 3d c0 39 2f be 66 f3 86 3d b3 7d 3e be
       0.039450213 -0.17111874 0.06589393 -0.18602638
0002f0 35 c9 8a be 08 58 ab bc c4 a0 be bd 7a 23 97 bd
       -0.27106634 -0.020916 -0.09308007 -0.073798135
000300 68 ca 7f be 72 a0 ab bd e8 89 02 be 53 13 d3 3d
       -0.24979556 -0.08380212 -0.1274792 0.1030642
000310 d3 02 37 3e e1 d5 3d be b8 b6 d3 bd e8 9f 32 be
       0.17872171 -0.1853862 -0.10337585 -0.17443812
000320 e3 d4 a0 bc 15 f6 10 bc 95 ad 92 bd a2 c1 d4 bd
       -0.019632762 -0.008847733 -0.071620144 -0.10388495
000330 bc a6 4d 3c ed 3a f3 bd 41 a5 2e be da a5 02 3e
       0.01255196 -0.118764736 -0.17055227 0.1275858
000340 2d 8f c3 3d b5 9c 36 be 9b cf 31 3d fc 2c ad 3e
       0.09548793 -0.17833216 0.04341088 0.33823383
000350 1c 52 0f be b2 70 18 bd 64 22 09 3d 37 24 21 bd
       -0.13996166 -0.03721685 0.033480063 -0.039341178
000360 13 ca f4 3d c8 19 fe bd cf f2 2c be 3b 74 f9 3c
       0.11952605 -0.12407261 -0.16889499 0.03045093
000370 63 d7 26 be 97 35 4c 3d cb 30 5e be bb 72 c0 bd
       -0.16293101 0.049855795 -0.216983 -0.09396883
000380 29 83 0f 3e 25 2d 3d be a1 ef 69 bd 00 42 8c bb
       0.14014877 -0.18474253 -0.057113294 -0.0042803288
000390 ac 50 0d bd 99 a8 56 3d 6c 23 55 bd 19 90 c0 3d
       -0.034500763 0.05240688 -0.052035734 0.094024844
0003a0 d6 68 1a 3c 48 96 6b 3e f1 f9 25 3e ac 5a 47 3d
       0.009424409 0.23006546 0.16208626 0.048670456
0003b0 7e 10 a8 3d 5d e2 c8 bd 01 79 52 be b9 d2 74 bc
       0.08206271 -0.098088 -0.20553972 -0.014942818
0003c0 15 14 09 be d0 45 a1 3c 6e 77 a8 bd a3 5f 54 3b
       -0.13386567 0.01968661 -0.082259044 0.0032405637
0003d0 32 c8 e1 3d 50 e7 19 be 86 9d 03 be 43 ad df bd
       0.11024512 -0.15029645 -0.12853059 -0.10921719
0003e0 7a 44 54 3d 3b ea 9b 3c 2a bd f6 3d 34 fa 1f be
       0.051823117 0.019032588 0.12047799 -0.15622789
0003f0 00 7b 94 bd 75 64 1b be 56 cd 36 be 18 1c 3e bd
       -0.07250023 -0.1517504 -0.17851767 -0.04641351

fc2.weight f4 [300, 412]
000000 a0 f6 25 3d 2c 97 c7 3c 9a 55 d2 bc 43 08 c5 bf
       0.040518403 0.024364077 -0.025675584 -1.5393146
000010 02 bd c3 bc eb 83 ec bf 12 8e 5e 3d c3 50 a5 3e
       -0.023893837 -1.8477758 0.054334708 0.3228818
000020 96 75 db 3c 00 07 04 bb b0 4f 71 3b b5 b3 bb bc
       0.026789468 -0.0020145774 0.003682118 -0.02291284
000030 2e 4f 46 3d 70 e7 b1 3c db 41 e4 3d 08 fa ea 3c
       0.048415355 0.021716803 0.111453734 0.028683677
000040 7a 0d d1 3d 15 51 7c 3d 5c 21 32 3d 80 64 5b 3f
       0.102076486 0.061600763 0.043488845 0.85700226
000050 fe 17 88 3d 6c dd 1b 3d a4 e1 27 3d 74 33 32 bd
       0.06645201 0.03805296 0.040986672 -0.0435061
000060 f8 bb bc 3d 54 6f 5f bc 22 19 72 bb d0 1a e5 3c
       0.0921554 -0.013637383 -0.003694125 0.027966887
000070 82 c9 ca be a4 74 f7 3c e8 a0 c8 bc 22 40 c4 3d
       -0.39606863 0.030206986 -0.024490789 0.09582545
000080 f0 56 54 3b 74 43 3a bf a0 4f 8b 3d 4c 74 8a 3c
       0.0032400452 -0.72759175 0.06802297 0.016901158
000090 17 36 7b 3c c4 90 0f bd 68 7b 0a 3e c2 e5 21 3d
       0.01533272 -0.03505017 0.13523638 0.039525755
0000a0 38 b6 4b 3c e0 69 1e 3c 86 ec 04 3e d3 35 c5 bc
       0.012433581 0.009668797 0.12980852 -0.024073517
0000b0 9f 0b d0 bf 29 82 10 3e 82 cd 24 3e 98 64 d5 bc
       -1.6253546 0.14112152 0.1609402 -0.026048943
0000c0 80 cc 74 bb b8 bc 45 3d 78 62 0d 3c 9a b8 1c 3d
       -0.0037353337 0.04827568 0.008629434 0.038261987
0000d0 fa fa 09 3e 20 9f 01 3c e4 a2 09 3e 80 84 8b 3a
       0.13474646 0.0079114735 0.13441044 0.0010644346
0000e0 bc 27 63 bd 50 71 8d 3c a4 96 8a 3c 08 5a 08 3d
       -0.055457816 0.017265946 0.016917534 0.033288985
0000f0 97 03 50 bd 9e f9 d9 3d 56 3f 37 3d c8 f0 08 3d
       -0.050784674 0.10643314 0.044738136 0.033432752
000100 cb 66 74 3d e8 b7 42 bc 67 4d e8 bd a8 8b 07 3e
       0.059668344 -0.011884667 -0.11342888 0.13236868
000110 ff dd 87 bc d2 fb a7 3d d0 56 e4 bb 48 4c 9f bc
       -0.016585348 0.08202328 -0.0069683567 -0.019445553
000120 b6 a1 91 bc d0 0a 2e 3e 96 fe eb 3d 8e ce 37 3f
       -0.017777305 0.16996312 0.11523168 0.7179955
000130 76 65 e9 3d 90 3e 06 40 90 82 83 3c d4 cc 36 3d
       0.11396305 2.0975685 0.016053468 0.044628933
000140 2e 71 56 3d 1c 65 c8 3c 20 7a cd ba a9 6e b0 3d
       0.05235403 0.024462275 -0.0015676655 0.08614857
000150 fe fb 08 bd 7e 5b 0e 3e 74 ef e0 bd 82 3c 73 3d
       -0.033443443 0.13902089 -0.10983172 0.059383877
000160 90 95 34 3c 35 cb c8 3c 26 9f 00 3e 3e a7 da 37
       0.011021987 0.02451096 0.1256071 2.6065503e-05
000170 e0 3e 1a 3c c8 2b 2d 3d b8 4a e7 bc a4 db 23 bd
       0.009414405 0.04227808 -0.02823387 -0.040004387
000180 fc f0 b1 3c d2 91 2f 3d 0b 25 33 3e bf d1 90 3d
       0.021721356 0.042863674 0.174946 0.07071256
000190 50 a7 43 3b 96 c6 c4 bc b8 14 c5 bb 0f 5c 04 3e
       0.0029854365 -0.024020474 -0.0060144328 0.12925743
0001a0 83 cb 03 bd 10 02 68 3c a7 4b 76 bd d0 6d a7 3c
       -0.032176506 0.014160648 -0.06013074 0.020438105
0001b0 34 88 e0 3d 12 d1 ad 3f 40 ae 82 3c 60 a9 33 3d
       0.10963479 1.3579428 0.01595223 0.0438627
0001c0 28 3d 8a 3c b6 95 b3 3d 11 59 6d 3d fe ee 70 bb
       0.016874865 0.087687895 0.05794627 -0.0036763544
0001d0 f4 cb 18 3e 9d b0 4f bf b8 33 bb 3c c3 8f a4 3d
       0.14921552 -0.81128865 0.02285181 0.08035233
0001e0 d9 eb 6b 3c 94 e4 e2 3d 13 f5 34 3d f6 9e 80 3d
       0.014399492 0.11078754 0.044179033 0.062803194
0001f0 e1 2c 2b 3d cd f5 c0 3c 3c 8d 8c c0 29 c4 85 bf
       0.041790847 0.023554707 -4.3922405 -1.0450488
000200 43 5e dc 3d 9c 4f 61 bd fb 29 6b bf 68 51 a6 3d
       0.107601665 -0.055007562 -0.9186093 0.08120996
000210 cb 22 4c bd 94 17 98 3c 9a a4 60 3d 10 52 6d 3c
       -0.04983787 0.01856593 0.054844476 0.014484897
000220 22 d1 11 3d a5 2f 32 bf 96 48 92 bc c0 25 8e ba
       0.035599835 -0.6960395 -0.017856877 -0.0010844991
000230 81 1e a5 bf 44 00 24 3d a9 d9 14 bf c3 7a 6b ba
       -1.2899934 0.040039316 -0.58144623 -0.00089828315
000240 04 e0 09 3d 84 c4 1c 3d a4 b3 14 bc fb 50 76 bf
       0.033660904 0.03827335 -0.009076033 -0.96217316
000250 02 72 0e bf ab 11 92 3d 14 82 0d 3d 10 1e f1 3b
       -0.5564271 0.07132276 0.03454788 0.00735832
000260 50 75 ca bc 21 19 3d 3e 20 9c 2f 3d 8d 47 f5 3c
       -0.024714142 0.18466617 0.0428735 0.029941345
000270 df b8 21 3d f6 16 b4 3d 05 6d 8a be b3 03 81 3a
       0.039482947 0.08793442 -0.270363 0.0009843021
000280 5e 36 8d bf e8 19 05 bd 0f 38 2c 3f af 8d 89 bb
       -1.1032217 -0.03249541 0.6727304 -0.004197798
000290 60 0b 60 bb 6f 41 b2 bd 44 c1 a5 3d e5 0a ca 3d
       -0.0034186468 -0.08703887 0.08093503 0.09865359
0002a0 d0 5a 5b 3c c0 24 a4 3c e1 2e da 3f f2 4f b2 3f
       0.013388351 0.020037055 1.7045556 1.3930647
0002b0 1a b6 6a be ce 2e d2 3c 18 ca 7a bc 34 9b e4 be
       -0.22921029 0.025657084 -0.015306972 -0.4464966
0002c0 dc 47 e2 bc 4c c5 0d bd e4 4e 88 bc a2 d5 20 3f
       -0.027622156 -0.034611985 -0.01663918 0.6282598
0002d0 84 07 e5 3d 3a 4c aa bc e8 0a 09 3c 18 12 16 3d
       0.11183074 -0.0207883 0.008364417 0.03663835
0002e0 52 8b 3a be d0 6c 63 3d 5b 0f a4 3d bc f3 76 c0
       -0.18217209 0.055523694 0.08010741 -3.8586264
0002f0 41 b2 c3 bd 08 67 17 3d 3f b2 3d bf a8 8d 1b bd
       -0.095554836 0.036963493 -0.74100107 -0.03797689
000300 3e 8b 3b c0 b4 c1 af 3b 13 0c bd 3d 9d 42 f8 3d
       -2.9303737 0.0053636674 0.092308186 0.121220805
000310 30 db 93 3f 7c 6e 14 3d 10 d0 96 bb 68 f5 25 3c
       1.1551266 0.03623818 -0.0046024397 0.01012931
000320 2a 16 8c bc a7 96 ff 3d f1 69 68 3e 12 91 13 3d
       -0.017100412 0.124799065 0.22696663 0.03602702
000330 f7 df e0 3c 1e 79 42 bd 60 d3 9c 3a 5f 9e 58 3d
       0.027450545 -0.047478788 0.001196485 0.05288541
000340 bf 1d 8b 3d 24 75 06 bd cb ec f6 3d 56 21 19 3d
       0.06792783 -0.032826558 0.120568834 0.037385307
000350 b4 24 8d 3d 6a 54 57 bd 50 10 b4 bc c8 14 04 3e
       0.06891766 -0.052570738 -0.021980435 0.12898552
000360 a5 cf 92 bf 4a 1a 5f 3d c8 3e 33 bc 58 b9 20 bf
       -1.1469618 0.05446843 -0.010940261 -0.6278281
000370 f4 1c 11 3d 68 3c e3 3d 5f 6a d8 3e 24 c1 da bc
       0.035428002 0.11095506 0.42268655 -0.026703425
000380 84 2a 44 3d 98 8c 5f 3d c5 7f d4 3f 7a 7b 3b 3d
       0.04789211 0.05457744 1.6601492 0.045772053
000390 21 f7 8d 3d 68 24 bc 3d 20 8f c7 bc 32 eb 5e 3d
       0.06931902 0.091866314 -0.02436024 0.05442352
0003a0 a0 bd bf 3d 0d 02 b0 be c9 30 fd bf 8b 9a 82 bf
       0.0936234 -0.34376565 -1.9780513 -1.0203413
0003b0 ce e4 be bc 62 ab 89 bc 80 90 ab 3c 34 5e dd 3d
       -0.023302462 -0.016805355 0.020942926 0.108089834
0003c0 a4 62 14 bc 40 37 3c 3b 8c f1 05 bc 3f ef 81 bf
       -0.009056721 0.0028719455 -0.008175265 -1.0151137
0003d0 2f 40 35 3d 74 0e 39 3d de 02 af bc 20 f4 5b bd
       0.044250663 0.0451798 -0.021363672 -0.053699613
0003e0 b1 f9 d0 3d 69 fd 22 3e 9e 43 42 3d 68 7a a8 bc
       0.10203875 0.15916981 0.047427766 -0.02056618
0003f0 52 c5 18 3f d8 2f da 3c 0e b2 96 bc 00 48 30 3e
       0.59676087 0.026634142 -0.01839545 0.17214966

fc2.bias f4 [300]
000000 22 6c 72 be d5 8e 30 bf d9 66 a0 3e ed 9c e9 3d
       -0.23674062 -0.68967944 0.31328467 0.11406884
000010 89 68 9d be ec e9 a1 3d 8f 76 4b bd 40 76 1f 3f
       -0.30743816 0.07905945 -0.049673613 0.6228981
000020 6b fa a8 be 9d d5 4c 3f 21 3c 3a bf 4b a8 5a 3f
       -0.33003554 0.8001345 -0.72748 0.85413045
000030 a5 c9 41 3f 40 84 23 3f 77 d2 98 be 79 86 5a 3f
       0.7569831 0.6387367 -0.29848072 0.8536144
000040 51 ab 5e 3f cb dd 19 bd e8 dc 36 3f 2a ba 08 bc
       0.8698016 -0.037565034 0.71430826 -0.008345166
000050 f9 e6 52 3f 05 a2 05 3e b6 c8 91 bd 12 ea 4f 3d
       0.82383686 0.13050087 -0.07118361 0.050760336
000060 3f ef 17 bf 29 be 5a 3f c1 a7 f4 3e 79 83 87 bf
       -0.59349436 0.8544641 0.47784236 -1.0586997
000070 2a f8 6d 3f ff 60 81 be 01 f0 54 3f 36 42 6b bf
       0.92956793 -0.25269315 0.83178717 -0.91897905
000080 2c 48 76 3f 11 27 dd be 74 6e 09 3f 9f 87 ea 3e
       0.96203876 -0.43193868 0.53684163 0.45806596
000090 58 1f c3 be 7a f1 95 bf 3d 99 5b 3f dd 23 88 be
       -0.3810985 -1.1714318 0.857807 -0.26589862
0000a0 72 c8 18 bf df 95 93 bd 9e 76 89 be 16 c1 ee bc
       -0.59680855 -0.0720632 -0.2684831 -0.029144805
0000b0 c0 96 d3 be 23 0d 0b 3f a4 36 53 3e 44 34 43 3e
       -0.4132595 0.5431692 0.20626312 0.19062907
0000c0 75 ff 42 bf 1e 59 0b be ff a7 bf bc c9 4c 5e 3f
       -0.76171046 -0.13608214 -0.023395536 0.86835915
0000d0 8e 8d 24 be 3b ed 00 be 65 9e cf bd 17 0a 52 bf
       -0.16069624 -0.12590496 -0.10137633 -0.82046646
0000e0 a5 4c a5 be e7 d6 47 3f db 56 07 bf 71 61 54 3f
       -0.32285038 0.7806229 -0.52866906 0.82961184
0000f0 53 04 f3 3d e3 34 08 be 3b 98 c3 be 2e a3 62 3f
       0.11866059 -0.13301425 -0.3820208 0.8853024
000100 e4 f8 52 3f 57 95 2e 3e 42 3a 7c 3e a5 35 14 bd
       0.82411027 0.17049156 0.24631599 -0.036183972
000110 fb 6f 27 bf 2a 44 06 3f 48 98 62 3d df 36 e2 be
       -0.65405244 0.5244776 0.055321008 -0.44182488
000120 a7 38 59 3f 1c 64 67 3f e6 5f 2e 3f ee f7 62 3f
       0.8485207 0.9038713 0.6811508 0.8865956
000130 ae da de bd ce 36 c7 3e 10 e2 03 bd 0a cd 96 be
       -0.108815536 0.38909 -0.032198012 -0.29453307
000140 ae 73 8f bf d5 be 80 3e a8 1e 82 be e9 0d 8a be
       -1.1207178 0.25145593 -0.25414014 -0.26963738
000150 3d fd 4e 3f ae e6 88 3e 95 73 cb 3b e1 3e 8f 3d
       0.8085516 0.26738495 0.006208847 0.06994415
000160 a3 10 4d 3f d5 6e bc 3f 98 77 ae bd 53 e5 4c 3e
       0.8010351 1.4721323 -0.085189044 0.20009355
000170 d8 26 a6 3e 8d e9 29 3f b8 ce 79 bd 74 2d 78 3f
       0.3245151 0.66371995 -0.060988158 0.96944356
000180 8d b6 63 3f 78 b7 4c 3f 98 60 62 bf 9f 21 56 bf
       0.88950425 0.7996745 -0.8842864 -0.8364505
000190 12 65 4f 3f 62 7e ac be 92 d2 58 3f ec 6d 32 3f
       0.81013596 -0.33690172 0.84696305 0.6969898
0001a0 57 21 b2 3f af 09 8f 3e dd 6c e4 be ee db a8 be
       1.3916425 0.27937075 -0.44614306 -0.32980293
0001b0 db c6 5b 3f de ea 97 3e 19 8f 00 bf 8e 39 10 be
       0.85850304 0.29671377 -0.5021835 -0.14084455
0001c0 8d 75 8b 3f 85 8d 21 3f c8 be f2 be d1 32 a6 3f
       1.0895249 0.63106567 -0.4741118 1.2984258
0001d0 2f c2 4c 3f a8 c3 4b 3f e0 40 0d 3f 71 5e 33 3e
       0.799838 0.7959542 0.55177116 0.17516495
0001e0 eb 6e 29 bd e6 10 4a 3e aa d7 16 3f c7 44 92 3f
       -0.041365545 0.19733009 0.5892283 1.1427239
0001f0 57 ff fe be 77 49 45 3f f3 79 9f 3e 5b 0e c5 bd
       -0.49804184 0.77065223 0.31147727 -0.09621879
000200 08 f4 35 be 29 c8 c9 bd 52 48 98 3f be 5b 98 3e
       -0.17768872 -0.09852631 1.189707 0.29757494
000210 22 28 54 3f d5 ac 3d 3f dd a0 5a 3f 24 92 68 be
       0.8287374 0.74091846 0.8540171 -0.22711998
000220 83 23 27 be aa 8f 0b bf e8 99 84 3d 8f 94 85 3f
       -0.1632214 -0.5451609 0.06474668 1.0435961
000230 cf f4 13 bd 13 36 50 3f 0b 99 56 3f 7e 54 04 bf
       -0.03612214 0.8133251 0.83827275 -0.51691425
000240 6b 48 4a 3d fa bf ba 3e 55 fc 0f 3f e8 25 9f bb
       0.04938547 0.36474591 0.56244403 -0.0048568137
000250 3e 91 8f 3f 26 0b 6a 3f b0 30 1f 3f bb be 8c bc
       1.1216199 0.9142326 0.62183666 -0.017180791
000260 46 6c 25 3f 9c b9 79 bd bd c2 5a 3d bc 7f 5c 3f
       0.6461834 -0.060968027 0.053408373 0.8613241
000270 4c 55 24 bd cc 1b 83 3f 1d 6b a7 bd 34 e9 db 3e
       -0.040120408 1.0242858 -0.08174727 0.42951357
000280 60 47 5c be 8c 79 94 3e c8 4c fb 3f f7 b4 8f be
       -0.21511602 0.28998983 1.9632807 -0.28067753
000290 bd 02 e6 bd 68 0a 07 3d bd eb ae 3d d1 c0 7e bd
       -0.11230991 0.03296891 0.08541057 -0.062195603
0002a0 c3 b6 01 be 3b 41 48 3f 48 b0 b5 3e d0 e2 f0 bd
       -0.12667374 0.78224534 0.35486054 -0.11762011
0002b0 b1 a7 35 3e 33 f7 95 3d ba 5d ee bd 5b 14 85 3e
       0.1773975 0.0732254 -0.11638971 0.25992092
0002c0 29 e1 5d 3f 2c 01 97 3e 80 7c 8f be 1b b5 00 3e
       0.8667169 0.29493082 -0.28024673 0.12569086
0002d0 7e 85 1d be f6 30 57 3f bf ee 39 3f 35 16 71 3f
       -0.15382954 0.84059083 0.7262992 0.9417451
0002e0 ea b7 6a 3f 9d e8 6a 3e cf f9 57 3f f4 7b 7b 3f
       0.9168688 0.22940297 0.8436555 0.9823601
0002f0 c1 06 87 3c af f9 f9 3e 21 a7 6e bd 8b 3a 6e 3f
       0.016482713 0.48823306 -0.058264855 0.9305808
000300 84 40 89 3c 7c 35 59 3f 18 55 f3 3e 7c 5a b1 3e
       0.016754396 0.84847236 0.4752586 0.34639347
000310 fb 20 b9 3e ba 65 27 bf c0 80 f3 bd d6 f6 50 3f
       0.36157975 -0.653896 -0.118897915 0.8162664
000320 99 9a c1 3e b4 c5 cf 3e 37 24 5e 3f bf 51 32 3e
       0.3781326 0.40580523 0.8677401 0.17413996
000330 50 b3 cc 3e 72 fd 77 3f cd 23 8d 3f f4 6e 25 3f
       0.39980555 0.968711 1.102655 0.64622426
000340 56 26 7a 3f ea c3 49 3f 45 0e de be 2d 98 30 bf
       0.97714746 0.78814566 -0.43370262 -0.689822
000350 ac b2 a3 3d 44 76 2c be 91 30 99 3f 86 ff c8 3d
       0.07993063 -0.1684199 1.1967946 0.09814362
000360 bd aa 1d 3f fe fd a5 be a7 e8 2c 3f c4 30 e4 bc
       0.6158865 -0.32420343 0.675425 -0.027855285
000370 04 06 70 3f 0b b3 64 3f b0 3e 04 be c1 6d 5e 3f
       0.9375918 0.893357 -0.12914538 0.8688622
000380 b4 7b ff bd 68 2e 57 3f a5 54 27 3f 1f f6 57 3f
       -0.124747664 0.84055185 0.6536353 0.84359926
000390 dc 21 5a 3f f8 1f b9 3e 1f d6 43 3f 9b b3 3a 3f
       0.85207915 0.36157203 0.764986 0.72930306
0003a0 2f 98 31 3f 93 d3 50 3f 18 ed 6b 3f 37 fe 1f 3f
       0.6937284 0.81572837 0.9215865 0.62497276
0003b0 e5 20 25 3e e2 e6 60 3f 62 ed 5e 3f 8c 75 3f 3f
       0.1612583 0.878523 0.8708097 0.7478874
0003c0 9b 7f 8d bf 0c e1 5e bf f0 e4 72 3f cf b8 a9 3e
       -1.1054567 -0.87062144 0.9488058 0.3314881
0003d0 dc 07 07 3e 9d b8 57 3f 74 fc 36 3f ca ad 25 3f
       0.13186592 0.8426607 0.7147896 0.64718306
0003e0 1d 14 89 3f 3d 0d 8c 3f 0e ae d6 3e 91 e1 6a 3c
       1.0709263 1.094154 0.41929668 0.014336006
0003f0 18 3b 54 3f 73 68 07 bf 8d 07 1b bf 03 38 8e be
       0.8290267 -0.5289375 -0.60558397 -0.2777711

fc3.weight f4 [1, 300]
000000 43 30 c4 be ba 06 30 be f7 a4 18 3e d5 04 a2 3f
       -0.3831807 -0.17190066 0.14906679 1.2657725
000010 ee 57 1e 40 f6 c2 58 3f d2 42 1f bf cc 2b 48 3f
       2.4741168 0.84672487 -0.62211335 0.7819183
000020 ea 01 d8 bf 0d 04 cc 3d 56 14 a3 bd 7f 3d 85 3f
       -1.6875584 0.0996171 -0.07962863 1.0409392
000030 bc f9 8a 3f ff be cc 3e 68 6f e7 bf c6 b3 68 3e
       1.0857463 0.39989468 -1.8080873 0.22724828
000040 11 3a 28 3e ca d4 ea be 4c a2 ae 3e 1a 44 92 3f
       0.164284 -0.4586547 0.34108198 1.1427033
000050 b3 fe 95 3f 70 bf b4 3f 58 cd 8e bf b6 e0 70 3e
       1.1718353 1.4120922 -1.1156416 0.2352322
000060 6c 47 f2 be 01 6f 38 3e 42 a0 9d 3f bb 4f f1 bf
       -0.47320116 0.18011095 1.2314532 -1.8852457
000070 39 2f e9 3d 77 61 d9 bc 20 b9 62 3d 12 80 13 40
       0.1138596 -0.026535733 0.05535233 2.3046918
000080 b2 ef 5d 3e 37 6d 90 be 96 c5 47 40 87 13 21 3f
       0.21673468 -0.28208324 3.1214347 0.6292042
000090 9c c7 03 c0 e6 86 09 c1 72 eb 26 3e 73 78 3d c0
       -2.0590582 -8.595434 0.16300753 -2.9604766
0000a0 e3 c1 31 3f 82 67 c7 be 30 2c 4d 3f 7d f8 09 40
       0.6943647 -0.38946158 0.8014555 2.1557915
0000b0 87 bb 46 bf 79 cb 1e 3e 58 e5 37 be c4 50 a1 40
       -0.77629894 0.15507306 -0.17958581 5.041109
0000c0 95 51 e2 bf c9 d0 74 bf dd 68 1d bf 7d 6d 1b 3e
       -1.7681147 -0.9563108 -0.61488134 0.15178485
0000d0 82 58 dc be 80 21 3a 3f 15 81 01 bd b9 ca 77 be
       -0.43036276 0.72707367 -0.031617243 -0.24198426
0000e0 2c 1a 8d be 3e d0 53 3d fa 64 ef bf a3 9c cc 3e
       -0.2755903 0.051712267 -1.8702691 0.39963254
0000f0 d8 85 52 be 83 88 39 be d7 b0 9f be 2c bb 28 3e
       -0.2055887 -0.18118481 -0.31189606 0.1647765
000100 5b 9a 03 3e 4d 75 84 40 7e 52 9a 3d 42 11 76 40
       0.1285185 4.139319 0.075352654 3.8448033
000110 0b 68 d6 c0 35 34 32 3f 4b 63 03 bf dd 0a bb be
       -6.7002006 0.6961091 -0.51323384 -0.36531726
000120 80 11 63 3e b5 1e 18 3f f1 cf a1 40 97 15 02 3e
       0.22174644 0.59421855 5.0566335 0.12703548
000130 e7 04 9a be 54 70 54 40 23 f3 95 3c c6 5d 3f be
       -0.30081865 3.319356 0.018304413 -0.18688115
000140 00 c4 8c bf b4 ed 3d 3e 62 92 71 be 47 dc da 3e
       -1.0997314 0.18547708 -0.23590997 0.42746183
000150 13 a8 91 3d b7 d0 d9 3f 40 06 e6 be f2 f6 69 bf
       0.07112136 1.701682 -0.44926643 -0.91392434
000160 97 78 4c 3e 78 82 a8 3f b2 3a 55 3e 85 83 54 bb
       0.19967876 1.3164816 0.20823172 -0.0032427025
000170 0a eb 59 40 20 08 42 3d 74 17 df 3b 3c 2d 7f 3f
       3.4049706 0.04737103 0.0068082158 0.996784
000180 ff ce 59 3e 06 5a 2e 3f 30 cb fb be 34 21 6d bf
       0.21270369 0.68106115 -0.49178457 -0.9262879
000190 c2 9f fc 3d d9 29 0f 3e aa 4c 0a 3e f5 ed 78 3e
       0.12335159 0.13980807 0.13505808 0.24309523
0001a0 d5 19 93 3f 27 5f 63 bf bf cb 5e be 40 40 40 3f
       1.1492258 -0.88817066 -0.2175741 0.7509804
0001b0 33 71 bd 3d 4c 9f a1 bf c2 3e 98 3f 2c 03 e0 3e
       0.09250107 -1.2626739 1.1894152 0.4375242
0001c0 11 9c 8c 3f 19 20 80 3f fb 1d 16 3f 56 40 5c 3f
       1.0985128 1.0009795 0.58639497 0.8603567
0001d0 bf bd b1 3f 5e bd 8a 3d 4e fb 09 3e 79 4d 0e be
       1.3886031 0.067744 0.13474771 -0.13896741
0001e0 e0 45 04 bf ca 22 97 3e be 99 5a 40 1a ed 66 3f
       -0.5166912 0.2951873 3.4156337 0.9020554
0001f0 30 9c 07 3f 99 f6 f4 3d f2 a7 70 40 7d 1a d1 be
       0.529727 0.11961097 3.7602506 -0.4084052
000200 fc c4 07 bf ce 5e 8a 3f 6b 0d fc 3f 8b ff 18 3f
       -0.5303495 1.0810182 1.9691595 0.5976493
000210 11 0d d7 3d 73 cf e6 3d 47 01 ea 3d d7 3e 55 be
       0.10500539 0.112700365 0.11426025 -0.20824753
000220 03 4b 95 bf 4c e0 1f be f3 bc c8 3e 0f e0 12 3f
       -1.1663517 -0.15612906 0.39206657 0.57373136
000230 43 26 3e bf 6c 76 be 3d c4 d7 06 3e f1 ef f9 be
       -0.7427713 0.09299931 0.13168246 -0.48815873
000240 d1 59 4f bf 4b e0 7a 3e 81 14 61 3e bc 45 99 bf
       -0.80996424 0.24499623 0.21980478 -1.1974406
000250 b8 a1 29 3f a5 b0 0f 3f d1 05 02 3f 76 70 64 ba
       0.6626239 0.56128913 0.50790125 -0.0008714268
000260 26 4a 43 3d db 04 ef 40 d3 5a 95 be 25 da f3 3d
       0.047678135 7.4693427 -0.29170856 0.11906842
000270 39 28 ea 3d ae 3f 94 3f 34 5d 76 be da 24 8e 3f
       0.11433453 1.1581933 -0.24058992 1.1104996
000280 6d a6 ad 3e bc 0a 81 3f 78 a8 16 40 33 19 ea 3d
       0.33916035 1.0081401 2.3540325 0.114305876
000290 fe cc f1 be db 9a 97 40 c7 c8 19 bf 9d d7 ed 3a
       -0.4722671 4.7376533 -0.60071987 0.0018145923
0002a0 c3 ad ce be 21 24 70 3d 2b ca 67 3e 92 f3 9d be
       -0.40366945 0.058628205 0.22635715 -0.30849892
0002b0 6e f7 a6 3e 17 df d4 3d d1 c9 23 3b a9 d8 10 3f
       0.3261065 0.103941135 0.0024992118 0.565806
0002c0 f9 ac 2f 3e 87 32 00 3e 0c 8c 91 40 ec 01 82 3f
       0.17155828 0.12519275 4.5483456 1.0156837
0002d0 41 d1 db be 5e c8 5b 3e ea a1 a2 3d 8f 55 22 3e
       -0.42933086 0.21463153 0.07941039 0.1585295
0002e0 53 e8 3e 3e 58 e0 81 3e b3 3d 21 3e 1b 0c 4b 3f
       0.18643312 0.25366473 0.15746193 0.79315346
0002f0 5e 7b 17 3f a3 98 44 40 6f 10 ae 3b f5 b0 83 3e
       0.5917262 3.0718162 0.0053120176 0.25720945
000300 fb eb a0 3e cd 83 ce 3d 26 1f ae 3e c6 be 4a 3c
       0.3143004 0.10083733 0.3400814 0.0123745855
000310 5f dc 62 3c 71 af 6b bc 47 f5 d2 bc 54 92 24 3e
       0.013846486 -0.01438509 -0.025751723 0.16071445
000320 cd 58 32 3e e1 d1 83 3f 52 25 43 3e cf 2e ea 3d
       0.17416687 1.0298425 0.19057205 0.11434709
000330 cc 2e 85 3f bd eb 6a 3f fe 66 db 3f b3 ba ac 3e
       1.0404906 0.9176596 1.7140806 0.3373619
000340 a6 d2 3f 3e 51 a2 41 3e 85 81 23 bc 07 ad 0f bf
       0.187327 0.18909575 -0.00997961 -0.56123394
000350 a7 01 f3 40 0c 38 05 bf 37 d4 06 3f 88 2d 26 3f
       7.5939517 -0.52038646 0.52667564 0.64913225
000360 c7 b3 13 3e 3f 92 cc bd a8 3d e9 3e e0 9a bf 3b
       0.14424048 -0.09988832 0.45554852 0.00584732
000370 aa 52 3f 3e 04 a2 03 3e bf 9a 09 bf 08 c0 05 3e
       0.18683878 0.12854773 -0.5375175 0.13061535
000380 df f5 d3 3f 12 a6 56 3e d5 b3 4f 3e a5 12 4e 3e
       1.6559409 0.20961788 0.20283444 0.201243
000390 ba 30 10 3e 46 09 90 bf fc fc 37 3e f4 f4 87 3d
       0.14081088 -1.125283 0.179676 0.06638518
0003a0 79 0f 61 3e 9f ab d7 3d 07 d2 19 3e 43 fc 3a 3d
       0.21978559 0.10530781 0.15021525 0.04565073
0003b0 cd 7d 28 3f 4d cf 7a 3e f3 da 1a 3e 2b c4 47 3e
       0.65816957 0.24493141 0.15122585 0.19508426
0003c0 d7 a7 d1 c0 c8 b3 76 3e 3b c7 36 3e 56 9f 3e 3c
       -6.5517383 0.24092019 0.17849438 0.011634668
0003d0 32 a2 d3 3f ef 2b a3 3d f8 fc 18 3d ff f4 8a 3f
       1.6533873 0.07967364 0.037350625 1.0856017
0003e0 22 b4 0d 3f 56 f8 21 40 66 7b 31 40 0d e0 9c 3f
       0.55352986 2.5307822 2.7731566 1.2255875
0003f0 ac a7 e9 3d 81 bd 9c be 2c ca 0e 3e dc 25 61 3c
       0.11408934 -0.3061333 0.1394431 0.013741937
