algorithm/pytorch-ddpg-master/output/ParallelCableDrivenRobot-v0-run8/actor.pkl (torch, 540743 bytes, 6 tensors)

fc1.weight f4 [400, 23]
0	0xbd2d8464	-0.042362586
1	0xbe0ffc8e	-0.14061186
2	0xbd52b6fe	-0.051444046
3	0xbda1c910	-0.07899678
4	0xbe64be2d	-0.22338171
5	0xbe391e01	-0.18077852
6	0x3cd364a0	0.025804818
7	0xba2472c0	-0.00062732026
8	0x3c831cef	0.016005008
9	0x3a9796d1	0.0011565333
10	0xbc1ff88b	-0.009763847
11	0x3db5a6fd	0.08869741
12	0xbc1dc1d6	-0.009628734
13	0x3d022cc7	0.031780984
14	0xbd9f15a7	-0.07767802
15	0x3c81885e	0.015812095
16	0x3dcdeb42	0.100546375
17	0xbcb0e69f	-0.021594344
18	0x3e0ff998	0.14060056
19	0x3e2b8b07	0.16752253
20	0x3b80ed60	0.0039345473
21	0xbe0a8fd2	-0.13531426
22	0x3e6bb490	0.23018098
23	0x3d9ad072	0.07559289
24	0x3f581497	0.8440642
25	0xbf8aa645	-1.0831991
26	0x3ee39091	0.44446233
27	0x3f7df628	0.9920373
28	0xbf647c98	-0.89252615
29	0x3d46d4ea	0.048542894
30	0x3bfd3ff0	0.007728569
31	0x3d2be9ae	0.0419709
32	0x3edd207d	0.4318885
33	0xc00acb63	-2.1686637
34	0xbf5f3f7b	-0.8720624
35	0x3f9602c2	1.1719592
36	0xbc5bcf28	-0.013416089
37	0xbfc3e0af	-1.5302943
38	0xbf8eb304	-1.1148381
39	0xbf6f6bf1	-0.9352408
40	0xbf0204c4	-0.5078852
41	0xbf6cb260	-0.9245968
42	0x3f60e32c	0.87846637
43	0xbfff57e4	-1.9948697
44	0xbf60f655	-0.8787587
45	0xbf6fafc9	-0.936276
46	0xbdc2c1ab	-0.095095955
47	0xbe803ea5	-0.25047794
48	0xbe3a81d6	-0.18213591
49	0xbd57cc6d	-0.05268519
50	0xbed22e5a	-0.41050988
51	0xbe9b870f	-0.3037648
52	0xbca1a25f	-0.019730745
53	0xbaca54c0	-0.0015436634
54	0xbc82f799	-0.015987204
55	0xbd22ed91	-0.039777342
56	0x3db859ef	0.090015285
57	0x3e534486	0.20631608
58	0x3e30d9ae	0.17270538
59	0xbd4c07fd	-0.049812306
60	0x3e008a4d	0.12552758
61	0xbe29a067	-0.16565095
62	0x3e82f12d	0.25574628
63	0x3da581eb	0.080814205
64	0x3eb2a79f	0.3489351
65	0x3ebc261c	0.36747825
66	0x3e1b30bd	0.15155311
67	0xbeb360fb	-0.35034928
68	0x3eccf280	0.40028763
69	0xbd2f0cd2	-0.042736836
70	0x3c277028	0.010219611
71	0x3b060e60	0.0020455346
72	0x3d067dcf	0.032834824
73	0xbcd0681a	-0.025440264
74	0x3d1f5a9f	0.038904782
75	0xbd0cd8c0	-0.034386396
76	0xbbcf3a50	-0.00632409
77	0xbcfc8400	-0.030824661
78	0x3ab27200	0.0013614297
79	0xbcacda7d	-0.021100277
80	0x3cf0377e	0.029323336
81	0xbcdb2b3d	-0.026754016
82	0x3b7208d0	0.0036931522
83	0xbc73116c	-0.014835697
84	0x3d32a81f	0.043617364
85	0xbc78a3c0	-0.01517576
86	0x3d2f5979	0.042809937
87	0xbc90bdec	-0.017668687
88	0x3d01ba6d	0.03167193
89	0x3c07dce0	0.008292407
90	0x3c69f604	0.014279846
91	0xbc9e7337	-0.019342048
92	0xbde16ed4	-0.11007467
93	0xbfa070ab	-1.2534384
94	0xbf6efa48	-0.9335065
95	0xbf3bd89b	-0.7337739
96	0xc00e75d5	-2.225942
97	0xbf976d62	-1.1830256
98	0xbe224d34	-0.15849763
99	0x3c38efac	0.011287611
100	0xbe08e58c	-0.13368815
101	0x3e8961e1	0.26832488
102	0x3f704c91	0.9386683
103	0x3f92c4ca	1.1466305
104	0x3f952369	1.1651431
105	0xbe3c7c8b	-0.18406884
106	0x3f4684a2	0.7754613
107	0xbf8e0155	-1.1094157
108	0x3f911569	1.1334659
109	0x3f3e953d	0.7444647
110	0x3fff4b34	1.9944825
111	0x3fc06d00	1.5033264
112	0x3ed876c2	0.42278105
113	0xbfc12e3d	-1.5092236
114	0x40032da7	2.0496614
115	0xbc7245c8	-0.014787145
116	0xbce9db67	-0.028547002
117	0x3d152d3d	0.036420096
118	0xbce0ab9a	-0.027425576
119	0xbd1ea6ba	-0.03873322
120	0xbc82d006	-0.015968334
121	0xbd120635	-0.03565045
122	0xbc3896c0	-0.01126641
123	0x39ce3180	0.00039328262
124	0xbcee2cda	-0.029074121
125	0xbd222a13	-0.039590906
126	0xbb4a3250	-0.0030852742
127	0xbb1bfd00	-0.0023801923
128	0xbc081154	-0.008304913
129	0x3c5cf754	0.013486702
130	0x3d0541c7	0.032533433
131	0x3c914b92	0.01773623
132	0x3d217f79	0.039428208
133	0xbd18dedd	-0.037321914
134	0xbd0aaef2	-0.033858247
135	0x3d49a953	0.049233746
136	0xbd0f83ce	-0.035037808
137	0xbd0eabe8	-0.03483191
138	0x3c331be1	0.01093194
139	0xbf76fd79	-0.9648052
140	0x3f4a24e6	0.7896255
141	0x3e805c12	0.25070244
142	0xbfe776b9	-1.8083106
143	0xbfb55aa5	-1.4168288
144	0xbc15d0a0	-0.009143978
145	0xbd04be1c	-0.032407865
146	0x3d16ce09	0.036817584
147	0xbe2534fa	-0.1613349
148	0x3fac1976	1.344527
149	0x3f604ed3	0.87620276
150	0xbf4e82d2	-0.80668366
151	0x3d629cf2	0.055325456
152	0x3f2558ff	0.6458892
153	0x3f4f86a5	0.81064826
154	0x3f516888	0.8180013
155	0xbe8d7b37	-0.27633068
156	0x3fbbf66a	1.4684575
157	0x3fc2d886	1.5222328
158	0x3fce6a46	1.6126182
159	0xbfba3945	-1.4548727
160	0x3fbfaebc	1.49752
161	0x3d8fff51	0.070311196
162	0x3fbd0fa9	1.4770404
163	0x3ec6b986	0.38813418
164	0xbe9568bc	-0.29181468
165	0x3e837a4f	0.25679252
166	0x3f911418	1.1334257
167	0x3db886bc	0.090100735
168	0x3d2d5499	0.042317007
169	0x3d437137	0.047715392
170	0xbe9a402f	-0.30127093
171	0xc00ca553	-2.1975906
172	0xbfb58857	-1.4182233
173	0xbf417e07	-0.7558293
174	0x3d3a907b	0.045547944
175	0xbfb779c5	-1.4334036
176	0x3f2ff7d1	0.6873751
177	0xbfbcaa57	-1.4739484
178	0xbce77e02	-0.028258327
179	0xbdf97fed	-0.12182603
180	0xbfb3d19d	-1.4048344
181	0xc0133099	-2.2998412
182	0x3fb09191	1.3794423
183	0xbe2b1b77	-0.16709696
184	0xbd2b4a13	-0.04181869
185	0xbfc33ed8	-1.5253553
186	0xbf1ed991	-0.6205073
187	0xbb3c9eca	-0.002878117
188	0xbfd8ded6	-1.6943004
189	0xc001ce50	-2.0282173
190	0xbc4da6d8	-0.012551986
191	0x3c70682c	0.014673274
192	0xbd89ca57	-0.067280464
193	0x3e8dd613	0.27702388
194	0x3f82b35e	1.0210989
195	0x3fb0ea7d	1.382156
196	0x3f61dfb4	0.8823197
197	0xbd9d3884	-0.07676795
198	0x3ff94320	1.947361
199	0xbf45df6e	-0.7729405
200	0x3fb71e20	1.4306068
201	0xbd06f578	-0.03294894
202	0x3fa96568	1.3234072
203	0x40115932	2.271069
204	0x401ed0f2	2.481503
205	0xc00bbd78	-2.1834393
206	0x3faec03b	1.3652414
207	0xbadcdfe0	-0.0016851388
208	0xbe990e35	-0.29893652
209	0xbee35110	-0.44397783
210	0xbe9d494b	-0.3071998
211	0xbecccce7	-0.40000078
212	0xbf123a7d	-0.57120496
213	0xbcb61ae9	-0.022229629
214	0xbcd456b7	-0.025920255
215	0xbd541b08	-0.05178359
216	0x3e09f5c0	0.13472652
217	0x3eb0d82e	0.34539932
218	0x3e6750cc	0.22589415
219	0x3ecefd29	0.4042752
220	0xbcbefd36	-0.0233141
221	0x3e132f17	0.14373432
222	0xbec4add9	-0.38413885
223	0x3ea21ea0	0.3166399
224	0x3e948267	0.2900574
225	0x3ec4190f	0.38300368
226	0x3f1dc17b	0.6162335
227	0x3e151d81	0.14562036
228	0xbf214597	-0.6299681
229	0x3ec25a64	0.37959588
230	0xbcaa4c24	-0.02078826
231	0xbfbd2c83	-1.4779209
232	0x3f448995	0.76772434
233	0x3eb88674	0.3604008
234	0xbfd518a1	-1.6648141
235	0xbfe1ecba	-1.7650368
236	0xbd32b3ae	-0.043628387
237	0xbc5f0ed8	-0.013614379
238	0x3ba47844	0.0050192196
239	0xbe02e8f4	-0.12784177
240	0x3fe01e26	1.75092
241	0x3fb00942	1.3752825
242	0xbf1edc09	-0.62054497
243	0x3b07ddd6	0.002073159
244	0x3fe592a3	1.7935375
245	0x3f1f00c6	0.62110555
246	0x3fb71fdd	1.4306599
247	0xbe84004d	-0.2578148
248	0x3faf7f4f	1.3710726
249	0x40016fcc	2.0224485
250	0x406317e8	3.5483341
251	0xbff5a37a	-1.9190514
252	0x3fb8b95f	1.4431571
253	0xbb9f91fb	-0.004869697
254	0xbe1efe2a	-0.15526643
255	0xbe361696	-0.17782053

fc1.bias f4 [400]
0	0xbd7fc61f	-0.062444802
1	0x3de9469b	0.1139042
2	0x3e196d61	0.14983131
3	0x3deb4366	0.114874646
4	0x3d52ca14	0.051462248
5	0xbd2f7124	-0.04283251
6	0x3dc9dc4c	0.098564714
7	0x3e84bf63	0.25927266
8	0x3e223f23	0.15844397
9	0xbe380a79	-0.17972745
10	0x3e08d313	0.13361768
11	0xbcaaef03	-0.020865923
12	0xbd8bf7a0	-0.0683434
13	0x3d6cfe64	0.057859793
14	0xbdad88f4	-0.08473387
15	0x3ba59892	0.005053588
16	0xbd0eb5f0	-0.034841478
17	0xbe48fbc7	-0.19627295
18	0x3c83bed5	0.016082207
19	0xbe27176e	-0.16317531
20	0xbc4afb98	-0.012389086
21	0x3e3bae84	0.18328291
22	0xbe036d36	-0.1283463
23	0xbdef5d79	-0.1168775
24	0x3d1cc000	0.038269043
25	0x3dacfe11	0.08446897
26	0x3e348db0	0.17632174
27	0x3da90f2e	0.082548484
28	0xbe38f136	-0.18060765
29	0xbdebd91c	-0.1151602
30	0x3dbcb1f2	0.09213628
31	0x3db09831	0.08622778
32	0x3ce31d17	0.027723832
33	0x3d85d6e5	0.065351285
34	0x3e019722	0.12655309
35	0x3e2adae6	0.16685066
36	0xbe016314	-0.12635452
37	0x3e3abcd2	0.18236092
38	0xbdb5b780	-0.088728905
39	0xbd5417ec	-0.051780626
40	0xbe54f9b2	-0.20798376
41	0xbd83c26d	-0.06433568
42	0x3df694f3	0.120401286
43	0xbc80c45e	-0.015718635
44	0xbdd4a2e7	-0.10382634
45	0x3d1a1594	0.037618235
46	0xbd9f286e	-0.07771383
47	0xbd8a6112	-0.06756796
48	0xbd0b23f8	-0.03396985
49	0xbe3ba754	-0.1832555
50	0xbe3d8793	-0.18508749
51	0xbc66f5f0	-0.014096722
52	0xbd711990	-0.05886227
53	0x3e07c05e	0.13256976
54	0xbe459fc1	-0.19299223
55	0xbe4d4060	-0.20044088
56	0x3d642707	0.055701282
57	0x3d219074	0.0394444
58	0xbe3a8e2a	-0.18218294
59	0xbd9c74b1	-0.076394446
60	0xbe3f8b0d	-0.18705387
61	0xbe03de0e	-0.12877676
62	0xbdc58cfe	-0.09646033
63	0xbd822d2e	-0.063562736
64	0x3cfc793b	0.030819526
65	0x3de57592	0.112040654
66	0xbb693359	-0.0035583584
67	0x3da2e33e	0.07953499
68	0xbde0114f	-0.10940801
69	0xbe14ce14	-0.14531738
70	0x3dbb8f49	0.09158189
71	0x3da4bbf2	0.0804366
72	0xb8950d36	-7.1073344e-05
73	0xbc98834a	-0.018617291
74	0xbd8efaf6	-0.06981461
75	0xbd0f2afd	-0.034953106
76	0xbe2dbbfc	-0.16966242
77	0xbe1eabe0	-0.15495253
78	0x3ccdf858	0.025142834
79	0x3dcd4aed	0.100240566
80	0xbe080912	-0.1328471
81	0x3dde3f5a	0.10851927
82	0xbe220134	-0.15820771
83	0x3d51cf17	0.051222887
84	0x3e513303	0.20429616
85	0x3e242495	0.1602958
86	0x3c8fa968	0.017536834
87	0x3d97cfde	0.074126944
88	0x3e063c3a	0.13108912
89	0xbe44f8b5	-0.19235499
90	0x3c9ec898	0.01938276
91	0x3d3ec3ac	0.046573326
92	0x3d684724	0.05670847
93	0xbd8ec3d1	-0.06970943
94	0x3e43cea0	0.1912179
95	0x3e3788d3	0.17923288
96	0xbd9d33d0	-0.07675898
97	0x3c17fd30	0.009276673
98	0x3dadad57	0.084803276
99	0x3e3039c5	0.17209537
100	0xbe041fb6	-0.12902722
101	0x3e0af946	0.13571653
102	0x3e74d442	0.23909095
103	0x3e011356	0.12605032
104	0xbe2a9c2f	-0.16661142
105	0xbd20cc98	-0.039257616
106	0xbd85db56	-0.06535976
107	0x3d5fddec	0.054655
108	0xbe0a9dd4	-0.13536769
109	0x3e2a1e88	0.16613209
110	0x3e2c042c	0.16798466
111	0xbccffd80	-0.025389433
112	0xbb5ac0c0	-0.0033379048
113	0x3d4109f0	0.047128618
114	0xbd9133d2	-0.07089962
115	0xbd478854	-0.048713997
116	0x3e0958f7	0.13412844
117	0xbdf9cdd8	-0.12197465
118	0x3deb103b	0.11477705
119	0xbe226299	-0.15857925
120	0x3d8b8ff7	0.068145685
121	0xbde20ce3	-0.11037614
122	0xbde560e4	-0.11200121
123	0xbd63aa6f	-0.05558246
124	0xbda4d8c6	-0.08049159
125	0x3d81ebb2	0.063437834
126	0xbdee7756	-0.11643855
127	0xbe0b500a	-0.13604751
128	0xbd8e7eac	-0.069577545
129	0xbcc2e42c	-0.023790441
130	0xbe22643a	-0.15858546
131	0x3d9f796b	0.077868305
132	0x3dd6ae0f	0.10482418
133	0xbe2c5ab9	-0.16831483
134	0x3e05b79d	0.13058324
135	0xbdb1e353	-0.08685937
136	0x3ca17cc4	0.019712813
137	0x3db6cd84	0.08925918
138	0xbd1e6464	-0.03866996
139	0xbdd1bda9	-0.10241253
140	0x3da30f3c	0.0796189
141	0x3d52d2ca	0.051470555
142	0x3e0834a6	0.13301334
143	0x3a5528f4	0.00081314077
144	0xbe0c19cd	-0.13681717
145	0xbe181c66	-0.14854583
146	0x3cc0e488	0.023546472
147	0x3e487af9	0.1957816
148	0x3df2cf08	0.11855894
149	0xbda16821	-0.07881189
150	0x3b699044	0.0035638968
151	0xbd857614	-0.06516662
152	0x3d8fa83a	0.070145085
153	0x3d5d0d56	0.053967796
154	0xbe53380a	-0.20626846
155	0x3d3f2f05	0.0466757
156	0xbcbeb2eb	-0.023278674
157	0xbd31dccc	-0.04342346
158	0xbd94998a	-0.07255848
159	0xbd71a524	-0.05899538
160	0x3caebf40	0.02133143
161	0x3de6ed8d	0.11275778
162	0xbe007bc1	-0.12547208
163	0xbd6702b8	-0.056399077
164	0xbe05db0a	-0.13071838
165	0x3e082291	0.13294436
166	0x3e3f02c6	0.18653402
167	0xbd536c38	-0.051616877
168	0xbdadcaa1	-0.08485914
169	0xbd85a680	-0.06525898
170	0x3e814ce9	0.2525399
171	0xbe21025f	-0.15723561
172	0x3d01c575	0.03168245
173	0xbd029055	-0.031875927
174	0x3dad8b19	0.084737964
175	0x3d9429f3	0.07234564
176	0xbe2579fd	-0.16159816
177	0x3e1e6736	0.1546906
178	0xbd602774	-0.054725125
179	0xbd024ad4	-0.031809643
180	0xbe05f655	-0.1308225
181	0x3e34da62	0.17661431
182	0xbdaf58a5	-0.085618295
183	0xbe0a7760	-0.135221
184	0xbd80f529	-0.062967606
185	0xbccc0e89	-0.024909275
186	0xbe0aa520	-0.13539553
187	0xbdcf1c93	-0.10112872
188	0xbcf474a8	-0.029840782
189	0xbdadbd59	-0.08483381
190	0xbe1653fe	-0.14680478
191	0xbd69f759	-0.057120655
192	0x3e470156	0.19434103
193	0xbd000234	-0.0312521
194	0x3e11e400	0.14247131
195	0x3d8ef285	0.06979851
196	0x3e25f22a	0.1620566
197	0xbd13f140	-0.036118746
198	0x3dc53e9a	0.09631081
199	0x3e94b193	0.29041728
200	0x3e276e90	0.1635077
201	0xbc160410	-0.009156242
202	0x3dac3139	0.08407826
203	0x3d778b51	0.060435597
204	0x3e282138	0.16418922
205	0x3dc4d8f5	0.09611694
206	0xbe4abf90	-0.19799638
207	0x3d0bfa46	0.034174226
208	0xbd9b4730	-0.07581937
209	0x3e4230b6	0.18963894
210	0x3e5835d2	0.21114281
211	0x3e079e80	0.13244057
212	0xbdee4bf7	-0.11635583
213	0xbe194bdc	-0.14970344
214	0xbc5fd0ea	-0.013660649
215	0xbd77db94	-0.06051214
216	0x3db34660	0.08753657
217	0x3de5af07	0.112150244
218	0xbe532952	-0.20621231
219	0x3cc14dc8	0.02359666
220	0xbe4bcb77	-0.19901834
221	0xbb3cd4b7	-0.0028813311
222	0x3d77a4e8	0.06046
223	0xbc9ebbc0	-0.019376636
224	0xbe212248	-0.15735734
225	0xbd783b3b	-0.06060336
226	0xbd517a93	-0.051142287
227	0xbd4d9b00	-0.050196648
228	0xbdb455be	-0.088054165
229	0x3d89b02e	0.06723057
230	0xbdb85431	-0.09000433
231	0xbdabb0ba	-0.08383317
232	0x3da9a601	0.08283616
233	0xbdb48f0b	-0.08816346
234	0xbcf192f6	-0.029489022
235	0x3e216f54	0.15765125
236	0x3c80f55f	0.015742002
237	0x3d343eac	0.04400508
238	0x3b62e840	0.0034623295
239	0xbe1ce547	-0.15321837
240	0xbdf89256	-0.12137286
241	0x3e0db6cc	0.13839263
242	0x3e0e28b5	0.13882716
243	0xbd93ed80	-0.07223034
244	0xb8d62df6	-0.00010212876
245	0xbdc5d41a	-0.09659596
246	0x3e23fd00	0.1601448
247	0x3d50e9c6	0.051004194
248	0x3db14eb6	0.08657591
249	0x3dd01523	0.101602815
250	0x3d3bbec6	0.045836233
251	0x3d560bb1	0.052257244
252	0xbd152292	-0.036409922
253	0x3cdbef41	0.026847484
254	0xbe3df622	-0.18550923
255	0xbddc120d	-0.107456304

fc2.weight f4 [300, 400]
0	0xbcce2b49	-0.025167124
1	0x3d9d767e	0.07688616
2	0x3d81e1f1	0.06341923
3	0x3ad288a0	0.0016062446
4	0x3e7439da	0.23850194
5	0x3baa3110	0.005193837
6	0xbd923c8f	-0.07140457
7	0x3dd87924	0.10569981
8	0x3ef2d068	0.47424626
9	0x3e059948	0.13046753
10	0x3d6b00f1	0.057373945
11	0x3d9be9f8	0.076129854
12	0x383ccc00	4.5012683e-05
13	0x3cab1588	0.02088429
14	0x3e246be6	0.16056785
15	0x3dc944de	0.098275885
16	0x3cbe9004	0.023262031
17	0x3d2e7636	0.042593203
18	0x3e0b48fe	0.13602063
19	0xbd3b83cc	-0.04577999
20	0xbd372ef1	-0.0447225
21	0xbe22d507	-0.15901576
22	0x3dac1ca3	0.084038995
23	0x3d29c0f0	0.041443765
24	0x3c97fc4c	0.018552922
25	0x3daaf99c	0.083483905
26	0x3e1f0e78	0.15532863
27	0x3cabcdb8	0.020972118
28	0x3cdf68a8	0.027271584
29	0x3e260e8d	0.16216488
30	0x3d62ac7c	0.055340275
31	0x3e25b63b	0.16182797
32	0xbe9fb1f3	-0.31190452
33	0x3db7d72f	0.0897659
34	0xbc0d247b	-0.008614655
35	0xbd372c8f	-0.04472023
36	0xbcf0df97	-0.029403491
37	0x3e9f5041	0.31115916
38	0x3d1f42e8	0.038882166
39	0xbcfb9819	-0.030712174
40	0xbd5bb38f	-0.053638037
41	0x3e129068	0.14312899
42	0x3e766f91	0.24065997
43	0x3e8d7e0c	0.2763523
44	0x3bb8dca0	0.005641535
45	0x3cef1b94	0.029187955
46	0xbd5be530	-0.053685367
47	0xbd3c69f8	-0.045999497
48	0x3d1e0a66	0.038584135
49	0x3d26e7da	0.040748455
50	0xbb38d320	-0.0028202012
51	0x3c7cb7a8	0.015424646
52	0x3d2db7f0	0.042411745
53	0x3dedb973	0.11607637
54	0xbc6c48f4	-0.01442169
55	0x3bf21f90	0.0073890164
56	0xbbfdbfba	-0.007743803
57	0x3d92cd26	0.07168035
58	0x3d4883e6	0.048953913
59	0x3df19b53	0.11797204
60	0x3d0e5372	0.03474755
61	0xbd5833fc	-0.05278395
62	0x39f45100	0.00046599656
63	0x3c543a28	0.012953319
64	0x3d1383d9	0.03601441
65	0x3dded52f	0.10880505
66	0x3e09a9d1	0.13443686
67	0x3d2cedf6	0.042219125
68	0xbbefafb0	-0.0073146448
69	0xbd11a1c0	-0.035554647
70	0x3de9235a	0.11383696
71	0x3d378e64	0.04481353
72	0x3cd882b6	0.026429515
73	0xbd1dccbb	-0.038525324
74	0xbd4e1c2d	-0.05031984
75	0x3ba41121	0.0050069247
76	0xbb91ec68	-0.0044532306
77	0x3cb6603c	0.022262685
78	0xbe24cc70	-0.16093612
79	0x3d99af15	0.07504097
80	0xbd210d32	-0.039319225
81	0x3e22b3fd	0.15888973
82	0x3b6b9aa0	0.0035950318
83	0x3d791de7	0.060819533
84	0x3dacfba8	0.08446437
85	0x3ddcd8b6	0.10783522
86	0x3cc8cd20	0.024511874
87	0x3d09d618	0.03365144
88	0x3d99abaa	0.075034454
89	0xbd3d87d3	-0.04627211
90	0x3cc4b080	0.024009943
91	0xbd0061da	-0.03134332
92	0x3c6a7dd8	0.01431223
93	0x3c7ea206	0.015541559
94	0xbd2c7c20	-0.042110562
95	0x3ea55799	0.32293394
96	0xbd269450	-0.040668786
97	0xbd117bbc	-0.035518393
98	0x3e8add90	0.27122164
99	0xbc20f938	-0.009825043
100	0x3d23d8de	0.040001743
101	0xbe36320f	-0.17792533
102	0xbd319dee	-0.043363504
103	0x3def82ef	0.116948955
104	0x3c85ccf8	0.016333088
105	0x3e203818	0.15646398
106	0xbd3beba2	-0.045879014
107	0x3da017ff	0.07817077
108	0xbc59231c	-0.013253
109	0x3de937b2	0.11387576
110	0x3e9632ea	0.2933572
111	0x3c885f48	0.016646996
112	0x3d39f97a	0.045403935
113	0xbc49119c	-0.012272265
114	0x3cd24185	0.025666008
115	0xbd24ec2a	-0.040264286
116	0x3d0aac03	0.03385545
117	0xbd25d202	-0.040483482
118	0x3d7c44f5	0.0615892
119	0xbcfdcac9	-0.030980485
120	0xb9c8eb8a	-0.00038322463
121	0x3d282a66	0.04105606
122	0xbd2e1a5a	-0.0425056
123	0xbd22bbd9	-0.039729927
124	0xbd67087d	-0.05640458
125	0x3dbabca5	0.09118012
126	0xbc99800c	-0.018737815
127	0xbbca1638	-0.0061671995
128	0xbc384ac8	-0.011248298
129	0x3e7c92da	0.24665394
130	0x3a27ba40	0.0006398298
131	0x3d27efac	0.041000053
132	0x3d47dc13	0.048793864
133	0x3d256932	0.040383525
134	0xbe40e180	-0.18836021
135	0xbc08b7e4	-0.008344624
136	0x3bff3ab3	0.00778898
137	0x3ea3f461	0.32022384
138	0x3d0594d2	0.03261263
139	0x3d42b0bd	0.047531832
140	0x3db775b0	0.08957994
141	0x3ce3a5c4	0.027789004
142	0xbe40b19f	-0.18817757
143	0x3d68684a	0.056740083
144	0xbd5c30c3	-0.05375744
145	0xbcee45ef	-0.029086081
146	0x3d3ab0fe	0.04557895
147	0xbd21a411	-0.039463107
148	0x3d6bc012	0.05755622
149	0x3ea2af3e	0.31774324
150	0x3d37def0	0.044890344
151	0xbca0a1be	-0.019608375
152	0x3d54e7f6	0.051979028
153	0x3d903f8b	0.0704337
154	0xbcebf211	-0.02880195
155	0x3dc83c92	0.09777178
156	0x3db3235b	0.08746978
157	0xbc8281a8	-0.015930966
158	0xbbc38af0	-0.0059674904
159	0x3c253330	0.010083005
160	0xba030a40	-0.0004998781
161	0x3b1384b3	0.0022509515
162	0xbae19d00	-0.0017212927
163	0x3a572640	0.0008207299
164	0x3d4d75f2	0.05016131
165	0xbb7b63d3	-0.003835906
166	0x3e9c9776	0.30584306
167	0xbd0dc0d4	-0.034607723
168	0x3d076666	0.03305664
169	0xbd485fd5	-0.048919518
170	0x3c35da31	0.011099384
171	0x3d34f6a2	0.04418052
172	0x3e2bed9e	0.16789863
173	0xbe7f4287	-0.24927722
174	0x3cb0fd2a	0.021605093
175	0xbc4e7c79	-0.012602919
176	0x3be950a0	0.007120207
177	0x3e4be11d	0.19910093
178	0xbd23679c	-0.03989373
179	0x3d15a4ea	0.036534227
180	0x3c3e3268	0.0116086975
181	0x3e4bdfbe	0.1990957
182	0xbc931758	-0.017955467
183	0xbd5fb1a4	-0.05461277
184	0x3f0b3147	0.54372066
185	0x3cf608cc	0.030033492
186	0xbba3c700	-0.004998088
187	0xbcc3f992	-0.023922715
188	0xbd583412	-0.052784033
189	0xbc6f167c	-0.014592763
190	0x3c4361a0	0.011925131
191	0x3d606d96	0.05479201
192	0x3bd181b5	0.006393636
193	0xbd4f95f9	-0.050680134
194	0x3db54522	0.08851077
195	0x3f11d9c0	0.56972885
196	0xbd3776d5	-0.04479106
197	0xbc8b6ce0	-0.01701969
198	0xbd1bf1aa	-0.038072266
199	0x3ccbd780	0.024883032
200	0x3d990ac9	0.0747276
201	0xba82b4a0	-0.0009972043
202	0xbdc80c45	-0.09767965
203	0x3e9f65b6	0.31132287
204	0x3da0b940	0.07847834
205	0x3e19896e	0.14993832
206	0xbc459e10	-0.012061611
207	0x3da04c25	0.078270234
208	0x3d45580c	0.04817967
209	0x3d454dc5	0.04816987
210	0x3decfedb	0.11572047
211	0x3d5619b7	0.052270617
212	0x3d26f884	0.040764347
213	0x3eb0c53e	0.34525484
214	0x3e482ad9	0.19547595
215	0xbbc846a8	-0.0061119385
216	0x3eae5899	0.3405197
217	0x3abd165a	0.0014426217
218	0x3c979558	0.01850383
219	0x3d3909e0	0.045175433
220	0xbcd40b4e	-0.025884297
221	0x3dd4de9b	0.10394021
222	0x3de87c67	0.11351853
223	0xbc515348	-0.012776203
224	0x3d2017c6	0.039085172
225	0x3d3a216e	0.045442037
226	0x3dcc3837	0.0997166
227	0xbd1ed90a	-0.038781203
228	0x3c1ab4e8	0.0094425455
229	0xbcbf7894	-0.023372926
230	0xbcfa5cad	-0.03056177
231	0x3b109840	0.0022063404
232	0x3ef91d4a	0.48655158
233	0xbcb8794a	-0.022518773
234	0x3d6321d9	0.0554522
235	0xbea2145c	-0.31656158
236	0x3ea6a8f1	0.32550767
237	0xbd5dd074	-0.054153875
238	0xbd0aca32	-0.033884235
239	0xbd1f3b46	-0.038874887
240	0x3d52f774	0.05150552
241	0x3c3575aa	0.011075417
242	0x3d810182	0.06299116
243	0xbd65421a	-0.055971242
244	0x3e90df44	0.28295338
245	0x3e15eb42	0.14640525
246	0x3e9fd829	0.31219605
247	0x3945cdb5	0.00018864016
248	0x3d153c28	0.036434323
249	0x3d294c39	0.041332457
250	0x3dd26bbe	0.102744564
251	0x3e12b6d9	0.14327563
252	0x3d6045d6	0.0547541
253	0x3e9c561b	0.30534443
254	0xbb311e08	-0.0027025957
255	0xbd4f9c04	-0.050685897

fc2.bias f4 [300]
0	0x3d747dd9	0.05969033
1	0xbd541245	-0.051775236
2	0x3c877b79	0.016538369
3	0xbd8b7a55	-0.06810442
4	0x3d438224	0.047731534
5	0xbd815d14	-0.06316581
6	0xbbf0a95c	-0.007344408
7	0xbdb74aa9	-0.08949787
8	0xbc13b82a	-0.009016076
9	0x3cdb0252	0.026734505
10	0x3e46855f	0.19386815
11	0x3d0fef19	0.03514013
12	0xbd824021	-0.06359888
13	0x3d8e5e7a	0.06951614
14	0x3a318344	0.0006771574
15	0xbcd3000a	-0.025756855
16	0xbd543664	-0.051809683
17	0x3cad74dd	0.021173889
18	0xbb6b1286	-0.0035869195
19	0x3cd98d4d	0.026556635
20	0x3d4daaac	0.050211594
21	0x3cd2c36a	0.025727946
22	0x3cb0cf4a	0.021583218
23	0xbdc785df	-0.09742331
24	0x3e6184dc	0.22023338
25	0xbd1a26c6	-0.037634633
26	0x3e2e5128	0.17023146
27	0xbd10fb19	-0.035395715
28	0xbe5b7a3b	-0.21433346
29	0x3e43393c	0.19064802
30	0x3e241aca	0.16025844
31	0xbd28cead	-0.041212726
32	0x3d4a70f1	0.049424116
33	0xbe4f765e	-0.20259997
34	0x3dc60027	0.09667998
35	0xbd5873ea	-0.05284492
36	0x3c8895aa	0.016672928
37	0xbd628725	-0.055304665
38	0x3e6f0dff	0.23345183
39	0x3d169768	0.036765486
40	0x3de065a5	0.10956887
41	0xbd1b5175	-0.03791948
42	0xbcb84af0	-0.02249667
43	0xbbf41d74	-0.0074498
44	0x3cd48e63	0.025946802
45	0xbd17b2f7	-0.03703591
46	0xbe07b210	-0.13251519
47	0x3c73df74	0.014884818
48	0xbd047a7e	-0.03234338
49	0xbc05898d	-0.00815047
50	0x3ccfb70f	0.025355844
51	0x3e038a2a	0.12845674
52	0x3e7de45d	0.24794145
53	0xbd209b6f	-0.039210733
54	0xbd484fa6	-0.048904084
55	0xbb178225	-0.0023118344
56	0xbc56e171	-0.013115273
57	0xbd2bd8f0	-0.041954935
58	0x3da4cf41	0.08047343
59	0x3bb7733a	0.005598453
60	0xbd2db6eb	-0.042410772
61	0xbc8a9cfd	-0.016920561
62	0x3c10eacf	0.008845045
63	0xbda94651	-0.08265365
64	0x3d0f8c1a	0.03504572
65	0x3ce7894c	0.02826371
66	0x3d99c847	0.07508903
67	0xbd1844d8	-0.03717503
68	0x3ac827ec	0.0015270687
69	0x3bc6181f	0.006045356
70	0xbd460852	-0.04834778
71	0xbd0b8b00	-0.034068108
72	0x3d8a0f6c	0.06741223
73	0xbce6cfdf	-0.028175293
74	0x3d3eecdc	0.046612605
75	0xbd576796	-0.05258902
76	0xbd2afa55	-0.04174264
77	0x3da83d69	0.08214838
78	0x3d053d18	0.032528967
79	0x3db702a4	0.089360505
80	0xbc209024	-0.009799991
81	0x3d23209f	0.03982603
82	0xbcec43b1	-0.028840872
83	0x3e283e08	0.16429913
84	0x3b6b90f4	0.0035944553
85	0xbcfebcfb	-0.031095972
86	0x3c8a5e08	0.01689054
87	0xbc47e8ec	-0.012201529
88	0x3bda1651	0.0066554924
89	0x3cdfae05	0.027304659
90	0x3cee44b6	0.029085498
91	0xbae50a6c	-0.001747442
92	0xbc7577ef	-0.014982208
93	0xbd1f2813	-0.038856577
94	0xbd9d7922	-0.0768912
95	0xbd2b5065	-0.041824717
96	0x3c2d92c2	0.010594072
97	0xbd9ef6d3	-0.07761922
98	0xba471a00	-0.0007595122
99	0xbbfc7083	-0.007703842
100	0x3e686e02	0.22698215
101	0xbd197720	-0.037467122
102	0xbe2330f9	-0.1593665
103	0xbd3bafe2	-0.04582203
104	0x3c8181ee	0.015809026
105	0x3cf85d6e	0.030317988
106	0xbce96a9c	-0.028493218
107	0x3be9a158	0.0071298294
108	0xbcdb66f8	-0.026782498
109	0x3c654c4e	0.013995243
110	0xbc2bedb1	-0.010493682
111	0x3e75c8ca	0.24002376
112	0xbc072c20	-0.008250266
113	0x3e096249	0.13416399
114	0x3b85bb46	0.0040811626
115	0xbd00ba71	-0.031427804
116	0xbc3934c3	-0.011304083
117	0x3df73c52	0.12072052
118	0xbc6fa9ac	-0.014627855
119	0x3da85916	0.08220117
120	0x3c85f912	0.016354118
121	0xbdc78a91	-0.09743226
122	0x3beacaca	0.0071652876
123	0xbcba5532	-0.022745702
124	0x3b75f777	0.0037531534
125	0xbd903973	-0.070422076
126	0xbd2f26e6	-0.042761706
127	0x3d80eef2	0.06295575
128	0x3bce332d	0.0062927217
129	0xbe2bb32d	-0.16767569
130	0x3c47cf0c	0.01219536
131	0xbe0b7406	-0.13618478
132	0xbd55e777	-0.052222695
133	0xbd08eb74	-0.03342767
134	0xbe4c41b5	-0.1994694
135	0xbaea41ea	-0.0017872427
136	0xbd8597ab	-0.06523069
137	0x3cde8e63	0.027167505
138	0x3bd92acf	0.0066274176
139	0xbca20bf2	-0.019781087
140	0x3c1783fe	0.009247778
141	0xbda03676	-0.078228876
142	0xbd470e9a	-0.04859791
143	0x3c26e28f	0.010185852
144	0x39f61748	0.00046938122
145	0x3ce99c95	0.028517047
146	0xbd00ca3a	-0.03144286
147	0x3c12b062	0.008953186
148	0x3b85275d	0.0040635304
149	0x3c9116fd	0.017711157
150	0x3e466f12	0.19378307
151	0xbba652f8	-0.0050758086
152	0xbd32f88e	-0.04369407
153	0xbc423a6b	-0.011854748
154	0x3c1c9979	0.009558075
155	0x3da56ca5	0.08077363
156	0x3d018c9f	0.031628247
157	0x3c994c97	0.018713279
158	0xbd95ddc0	-0.07317686
159	0xbd2e4956	-0.042550407
160	0x3bc547d4	0.0060205255
161	0x3c874681	0.016513111
162	0x3da5ffb5	0.08105413
163	0xbd2fa632	-0.042883106
164	0x3acb2ba6	0.0015500679
165	0xbe6eb42b	-0.23310916
166	0x3d000685	0.031256218
167	0xbd364427	-0.04449859
168	0x3cefb47f	0.029260872
169	0x3d100198	0.03515777
170	0xbca836a2	-0.020533863
171	0xbb85ac73	-0.0040793954
172	0xbd0b8f9f	-0.034072515
173	0xbd2e26bd	-0.042517412
174	0x3d54b373	0.05192895
175	0xbcd6790e	-0.02618077
176	0xbc2dd924	-0.010610852
177	0x3cde522f	0.027138798
178	0x3acbd097	0.0015549836
179	0xbd038d82	-0.032117374
180	0x3c471325	0.0121505605
181	0x394ac2b2	0.00019336751
182	0x3b0cfe65	0.0021513936
183	0x3b7fd978	0.0039039534
184	0xbe35dd5e	-0.17760226
185	0x3c857598	0.016291425
186	0xbe03ce79	-0.12871732
187	0xbc91b9bc	-0.01778876
188	0xbc4a6c41	-0.012354911
189	0xbc1ac73c	-0.009446915
190	0xbcb5d180	-0.022194624
191	0x3dac14c1	0.08402396
192	0xbd1f6c23	-0.038921487
193	0xbb801f2f	-0.0039099674
194	0x3ce976a2	0.028498951
195	0xbd1af8c8	-0.037834913
196	0xbd41f272	-0.047350354
197	0x3d21e93c	0.03952907
198	0xbe49d89f	-0.1971154
199	0x3dc7c06a	0.09753497
200	0xbd1143f5	-0.0354652
201	0x3c0c0a64	0.008547399
202	0x3bc89492	0.0061212266
203	0x3c5dc8c5	0.013536637
204	0x3c021f71	0.0079420665
205	0x3ccbd3b1	0.024881216
206	0x3c1fd56b	0.009755473
207	0xbd369aab	-0.044581097
208	0x3e238002	0.159668
209	0xbdf1b40d	-0.1180192
210	0xbd14f074	-0.036362126
211	0x3e50f8d4	0.2040742
212	0x3cb941a7	0.022614313
213	0x3c564a04	0.01307917
214	0x3da80698	0.08204383
215	0x3cb42232	0.021988962
216	0xbce0cf5f	-0.027442632
217	0x3d1a0600	0.03760338
218	0x3d7a7219	0.06114397
219	0xbc79e427	-0.01525215
220	0xbd1ca522	-0.03824342
221	0x3d9ac6ae	0.075574264
222	0x3cfc4498	0.030794427
223	0xbdd91cbc	-0.10601184
224	0x3ce9ad75	0.028525094
225	0xbd10a9a0	-0.035318017
226	0x3da3dc1f	0.08000969
227	0xbd57c4a0	-0.05267775
228	0xbbfd00fa	-0.0077210637
229	0xbd3861cc	-0.04501514
230	0x3b93a79b	0.004506064
231	0xbcb684ba	-0.022280086
232	0x3e0e46aa	0.13894144
233	0xbcff39d7	-0.03115551
234	0x3c0a6fe1	0.008449526
235	0x3cc96227	0.024582935
236	0x3e08092a	0.13284746
237	0x3d8630c2	0.065522686
238	0x3b50b472	0.0031845835
239	0xbd316729	-0.04331127
240	0xbcf52baa	-0.029928047
241	0x3cbf8999	0.023381041
242	0x3d0b2711	0.033972804
243	0x3da41418	0.08011645
244	0x3e959f52	0.29223114
245	0xbba7079e	-0.0050973436
246	0x3b04d627	0.0020269246
247	0x3d458c2b	0.048229378
248	0x3d5d3c76	0.05401274
249	0x3d183351	0.037158314
250	0x3d6b6ead	0.057478596
251	0xbc9cbf55	-0.019134203
252	0x3d1f92fb	0.03895853
253	0xbd129fd2	-0.035796948
254	0x3d55f8aa	0.052239098
255	0xbc37d63b	-0.01122051

fc3.weight f4 [16, 300]
0	0x3e9a03e2	0.30081087
1	0xbb5879e3	-0.0033031635
2	0xbb84933e	-0.004045873
3	0x3f41f587	0.7576527
4	0x3e822d9d	0.25425425
5	0x3cd9d8a0	0.026592553
6	0x3c2a2b71	0.010386334
7	0xbf1d7ef5	-0.61521846
8	0x3a6011c4	0.0008547569
9	0x3ae33b18	0.0017336337
10	0xbe1adeda	-0.15124074
11	0xbdf5b79c	-0.11997911
12	0x3e717726	0.23580608
13	0x3ef9f68e	0.4882092
14	0x3daf54d5	0.08561102
15	0xbf2251ed	-0.6340626
16	0xbe8174ae	-0.25284332
17	0xbd82dfe7	-0.06390362
18	0x3e73c430	0.23805308
19	0xbb87bb43	-0.0041421964
20	0x3e0e8393	0.13917379
21	0xb9a833f0	-0.00032082153
22	0xbc7d1eb4	-0.015449215
23	0xbeddb094	-0.4329878
24	0x3eec39e5	0.4613792
25	0xbbe70101	-0.00704968
26	0x3f799cba	0.9750477
27	0xbd6a155a	-0.05714927
28	0xbe4baf77	-0.19891153
29	0x3f31d06a	0.6945864
30	0x3ea34e61	0.31895736
31	0xbb243f08	-0.0025061984
32	0x3ecd38eb	0.40082487
33	0xbe8c9fbf	-0.27465627
34	0xbc20c844	-0.009813372
35	0xbbc9a474	-0.0061536375
36	0x3b30abfa	0.0026957975
37	0x3b06686e	0.0020509022
38	0x3cd3eddc	0.025870256
39	0xbf3a105c	-0.7268121
40	0xbf96dded	-1.1786476
41	0xbb161c99	-0.002290523
42	0x3cc6dcfd	0.024275297
43	0x3b214b28	0.0024611447
44	0x3b7b7dcf	0.0038374548
45	0xbb9f1ed8	-0.004855972
46	0xbf2d2b41	-0.67644125
47	0x3baf92eb	0.00535809
48	0x3e1caafb	0.15299599
49	0x3eb4b112	0.35291344
50	0xbefe5c58	-0.49679828
51	0xbe80ada7	-0.25132486
52	0xbf3d400b	-0.73925847
53	0x3c68e085	0.014213686
54	0x3b943f0a	0.0045241164
55	0xbb8317b0	-0.0040006265
56	0xb9210712	-0.0001535679
57	0x3ae415bc	0.0017401497
58	0xbe852f05	-0.26012436
59	0xbffd1559	-1.977214
60	0xbd907389	-0.070532866
61	0xbabaf25f	-0.0014262906
62	0x3a4a8418	0.0007725372
63	0x3ddc5d8a	0.10760029
64	0xbab7b150	-0.0014014635
65	0xbb5a1318	-0.003327554
66	0xbe600ef0	-0.21880698
67	0xbb05018e	-0.0020295116
68	0x3e08c920	0.13357973
69	0x3e6012e1	0.21882202
70	0x3859dcc6	5.1942443e-05
71	0xbac66fda	-0.0015139536
72	0x3e374ab9	0.17899598
73	0x3e1aff66	0.1513649
74	0x3a12bc2c	0.0005597498
75	0xbdd47959	-0.10374708
76	0x3b3443e4	0.0027506286
77	0x3d84f591	0.064921506
78	0x3b74e67b	0.0037368822
79	0x3e216da8	0.15764487
80	0xbd0e50bc	-0.034744963
81	0x3f27fe58	0.6562247
82	0x3e7bcc97	0.24589764
83	0xbe1503e5	-0.14552267
84	0x3dd72099	0.105042644
85	0xbb7b0927	-0.0038305016
86	0xbc2babd7	-0.0104779815
87	0x3b2c2206	0.0026265397
88	0xbbf0ed74	-0.0073525254
89	0xbe19db0a	-0.15024963
90	0xbf329ceb	-0.6977069
91	0xbdd481a5	-0.1037629
92	0x3aa2a8b4	0.0012409897
93	0x3b7f5921	0.0038963037
94	0xbe71fac5	-0.23630817
95	0xbb8f78f9	-0.0043784347
96	0xbacea616	-0.001576605
97	0x3ea53d83	0.32273492
98	0xbb286c33	-0.0025699257
99	0xb98ef855	-0.00027269372
100	0xbcc5d1df	-0.024147926
101	0xbb0f38ab	-0.0021853845
102	0x3f073477	0.5281443
103	0x3b8783d0	0.0041355863
104	0xbb2e0e64	-0.002655887
105	0xbae50077	-0.0017471452
106	0xbd9b06af	-0.07569634
107	0x3adf9cb4	0.0017060251
108	0x3acf0322	0.001579378
109	0x3e0f5e1e	0.14000747
110	0xbbf5b890	-0.007498808
111	0x3dc091b2	0.09402789
112	0xba636dfc	-0.0008675752
113	0x3e2fb30d	0.17158146
114	0x3ad7fd30	0.0016478654
115	0xbf1ee855	-0.6207326
116	0x3db64c09	0.08901221
117	0x3e24b820	0.16085863
118	0x39a00068	0.0003051788
119	0x3e28d7ae	0.16488525
120	0x3d872794	0.06599346
121	0x3f05fe35	0.52341014
122	0x3b02131f	0.0019847823
123	0x3bee26d1	0.007267811
124	0xbdd53f3a	-0.1041245
125	0xbebf24b3	-0.37332687
126	0xb901d1a2	-0.00012380493
127	0x3e1b4ec8	0.15166771
128	0x3d62b566	0.055348776
129	0xbcb9fc47	-0.022703303
130	0x3fcc361d	1.5954014
131	0xbe011122	-0.12604192
132	0x3e81b6b3	0.253347
133	0xbbd94f24	-0.0066317488
134	0xbf415396	-0.75518167
135	0xbea2bac5	-0.3178312
136	0xbf2a7aa0	-0.6659336
137	0xbe82ec79	-0.2557104
138	0xbacabd37	-0.0015467767
139	0xba76a047	-0.00094080385
140	0x3bb2ad3d	0.0054527805
141	0x3e2d3ab3	0.16916923
142	0x3a329b2c	0.00068132835
143	0x3dc84e10	0.09780514
144	0x3ea0d946	0.31415766
145	0xbffebf6b	-1.9902166
146	0x3e019c6e	0.1265733
147	0x3a49a29e	0.00076917734
148	0x3a9c6724	0.0011932594
149	0xbb7c17a1	-0.0038466232
150	0xbf806feb	-1.0034155
151	0xbb5a7c08	-0.0033338089
152	0xbb1b2587	-0.002367349
153	0xbd05ad46	-0.03263595
154	0x3e6068fb	0.21915047
155	0xbd3ea287	-0.046541717
156	0xb9a81940	-0.0003206227
157	0x3d96bbc8	0.07360035
158	0x3d8802b5	0.06641141
159	0xbb41fd13	-0.0029600307
160	0xbba5616d	-0.0050470144
161	0x3b1c5f7d	0.0023860626
162	0xbe7f1bad	-0.24912901
163	0x38c6d14f	9.4803625e-05
164	0xba193e0e	-0.00058457337
165	0xbf252726	-0.6451286
166	0x3a7c8f78	0.00096344156
167	0x3da69c48	0.08135277
168	0x3df42a6c	0.11922154
169	0x3b0280f4	0.0019913288
170	0xbad3f9b7	-0.0016172443
171	0xba79c7de	-0.0009528379
172	0xbc627e22	-0.013824018
173	0x3b7d1224	0.003861555
174	0xbcfb4484	-0.03067232
175	0x3915a727	0.00014272016
176	0xbe046cf8	-0.12932193
177	0x3ba16401	0.0049252515
178	0xbafd9f97	-0.001934993
179	0xbabafedb	-0.0014266627
180	0xbc5a13b4	-0.013310362
181	0x3b2aadd1	0.0026043544
182	0xbea5de12	-0.3239599
183	0x3bb3b7b0	0.0054845437
184	0x3dc7003e	0.09716843
185	0xbd4f4626	-0.05060401
186	0xbf2cf2a0	-0.67557716
187	0xba7171fc	-0.00092104054
188	0xbbecbaec	-0.0072244313
189	0xbd428efd	-0.047499646
190	0xbb18439b	-0.0023233655
191	0x3eef97cc	0.467955
192	0xbb5c33a0	-0.0033600107
193	0x3bad7d26	0.00529446
194	0xbc3ebbb3	-0.011641431
195	0xbe0a44a6	-0.1350275
196	0x3e24aa92	0.16080692
197	0xbbe62863	-0.0070238574
198	0xbf391237	-0.7229342
199	0x3ed02465	0.40652767
200	0x3b1b611d	0.0023709007
201	0x3b2675a4	0.002539971
202	0xbe73ccc4	-0.2380858
203	0x3aae15e9	0.0013281676
204	0xbc140b0f	-0.00903584
205	0xbb03b9f4	-0.002009985
206	0xbd776456	-0.060398422
207	0xba969b2f	-0.001149034
208	0x3e041196	0.12897334
209	0x3cdd034c	0.026979111
210	0x3accff92	0.0015640131
211	0x3da6eac0	0.08150244
212	0x3cdfeff6	0.027336102
213	0x39c72554	0.0003798405
214	0x3f2793b7	0.6545977
215	0x3c5f395b	0.013624514
216	0x3f27152f	0.652667
217	0xbb3f398d	-0.002917859
218	0xbf046538	-0.5171695
219	0x39ed9af2	0.00045319606
220	0x3d949f85	0.072569884
221	0x3e9483ed	0.290069
222	0xbc788241	-0.015167774
223	0xbec7f77b	-0.39056
224	0xbc66b578	-0.014081351
225	0xbc386d60	-0.011256546
226	0x3f53368a	0.82505095
227	0x3b8e9530	0.0043512806
228	0xbc3bddb5	-0.011466433
229	0x3b218af6	0.0024649478
230	0xbddf497c	-0.10902688
231	0x3a85fbae	0.0010222101
232	0x3ef8a7fe	0.48565668
233	0x3d758c93	0.059948515
234	0xba9c1fb0	-0.0011911299
235	0x3bd4157e	0.0064722886
236	0xbec15f1b	-0.37767872
237	0x3d9d062d	0.076671936
238	0xbf04a37e	-0.5181197
239	0x3e1d55e6	0.15364799
240	0xbb20c88a	-0.0024533593
241	0x3928c035	0.00016093331
242	0x3a1d73b8	0.0006006318
243	0xbdda29c9	-0.10652501
244	0xbf09429e	-0.53617275
245	0xbc386d0e	-0.011256469
246	0xbb1a5db5	-0.002355439
247	0x3e49aee5	0.19695623
248	0xbcd63fc1	-0.026153447
249	0x3aba2790	0.0014202464
250	0x3bd434d9	0.0064760265
251	0xbcb883e8	-0.022523835
252	0xbb1781ed	-0.0023118213
253	0xba358cf4	-0.00069256057
254	0x3eb92e4b	0.3616813
255	0x3a908bbe	0.0011027975

fc3.bias f4 [16]
0	0x3daf7fc6	0.08569293
1	0x3d48252a	0.048863567
2	0x3e01b2b5	0.12665828
3	0x3d310dd1	0.043226067
4	0x3d840226	0.06445722
5	0x3cc22e0d	0.0237036
6	0xbd791031	-0.060806457
7	0xbdb63eb0	-0.088986754
8	0x3d35f464	0.044422522
9	0x3dca61ba	0.09881921
10	0x3c9bfe91	0.019042285
11	0xbd550bae	-0.05201309
12	0xbda30df4	-0.07961646
13	0xbd647522	-0.05577577
14	0xbd340474	-0.04394956
15	0x3d7ef732	0.062247463
