algorithm/pytorch-ddpg-master/output/ParallelCableDrivenRobot-v0-run8/critic.pkl (torch, 541967 bytes, 5 tensors)

fc1.weight f4 [400, 23]
-0.1486066 4.2009406 -4.831914 5.483998 6.635835 3.8935199 -0.18726563 0.027007941
-0.13030076 0.8212841 -4.315787 -3.7466412 3.624245 -0.13884877 2.8312616 -3.8663101
-3.853664 -4.894751 -7.9513693 -4.6087103 4.1008554 4.521169 -7.7243004 -0.05263764
0.26368028 -0.8800396 0.14058852 -0.057936892 -0.5872067 -0.082491875 -0.047503926 -0.09295998
0.009471956 0.31577587 -0.25671518 0.79831165 -0.058107994 1.0717344 -0.7586593 -0.21821998
-0.105190024 0.12458044 0.62739414 1.2290365 -0.6446132 0.0553634 -0.13233486 6.2190394
-1.3065177 3.493443 5.55217 5.971244 -0.059512407 -0.007978313 -0.06650691 0.5254301
-2.07485 -5.748478 0.38672698 -0.14048003 -0.61828434 -0.5635422 -5.8284903 -2.530902
-6.300342 -6.8156834 -3.2877455 6.6548204 -6.1504226 0.01116851 -0.006879352 0.03416125
0.0037704818 -0.033127416 0.046815474 0.041403387 -0.004952587 -0.019267518 0.023189615 -0.027193958
-0.029057657 -0.012048375 0.039488744 0.049864147 0.035576675 -0.049689956 -0.014123369 0.030900639
0.019768734 -0.025294358 0.04142764 0.009460725 0.0027201283 0.37540302 -6.2513084 7.949833
8.024486 2.1482618 0.0666689 -0.0060457066 0.029789092 1.1786869 -4.7384467 0.09697134
4.963678 0.016902799 5.987608 -5.1980834 0.05027112 -6.9574084 -9.569216 -2.4185865
6.8607826 2.4050176 -9.345253 -0.017919648 0.015802767 0.02577966 0.017854083 0.040689606
0.009992629 -0.017956406 0.017522324 -0.017555602 0.031713907 -0.012078591 -0.026320208 -0.009335149
0.042974044 0.0009061992 0.030013468 -0.019835878 -0.041908734 -0.043581795 0.022901688 0.025779877
0.020495217 -0.018129539 0.007482536 0.029143829 0.024586115 -0.013641648 0.0290895 0.02178919
-0.032508418 -0.0204381 0.02908868 0.018908028 -0.0020907223 -0.009245224 -0.045664944 -0.03615315
0.025967795 0.023521658 0.010113992 -0.042489745 -0.031629883 0.031002235 0.014019888 0.0049964264
-0.032791436 -0.10886844 3.3910162 -0.3335343 2.3033242 5.1459475 6.1921215 -0.03412953
0.02489381 -0.10179127 0.2954569 -1.5532926 -3.0467925 -0.8223541 -0.05775793 -0.10166771
0.63059664 -3.0114696 -1.4872675 -5.8935003 -6.854055 -2.9130292 6.8450713 -5.792263
-0.06317272 3.5056496 -1.4344115 3.423751 5.965164 4.4549055 -0.102749735 0.033431258
-0.06005959 0.333631 -2.5392776 -3.2329311 0.12016628 -0.08909964 -0.07168559 -0.30161363
-3.2186785 -2.8179002 -6.672026 -5.186129 -1.8906313 5.0478516 -6.5477557 -0.03736182
-0.008423291 0.02780712 0.025595013 0.041213308 0.044878367 -0.008512277 0.03464145 -0.0076904222
-0.018808914 0.031329866 -0.0202438 0.010913987 -0.04831886 0.03885715 0.010295637 0.018678602
0.021368582 0.03001747 0.035355184 -0.018976772 0.025350306 0.024288874 -0.07096331 2.863372
-0.30575228 2.3159862 4.84967 6.076332 -0.07129718 -0.03954654 -0.05642401 0.19301878
-0.98868525 -2.5814838 -0.8843778 -0.042204708 0.20160624 0.7306575 -2.6174695 -1.3873671
-5.634542 -6.78569 -1.1029555 6.7223744 -5.530209 0.0027552247 0.043930475 -0.033964165
00000000: 542c 18be 1b6e 8640 0a9f 9ac0 e97c af40
00000010: c358 d440 6e2f 7940 90c2 3fbe c23f dd3c
00000020: 906d 05be ad3f 523f ed1a 8ac0 f8c8 6fc0
00000030: a1f3 6740 5f2e 0ebe 6433 3540 a071 77c0
00000040: 6ea2 76c0 cda1 9cc0 9e71 fec0 8e7a 93c0
00000050: 353a 8340 6bad 9040 782d f7c0 919a 57bd
00000060: 1a01 873e 464a 61bf 70f6 0f3e 3c4f 6dbd
00000070: 2e53 16bf 80f1 a8bd 7a93 42bd cd61 bebd
00000080: 4330 1b3c 60ad a13e 2c70 83be 275e 4c3f
00000090: a602 6ebd 982e 893f 7f37 42bf 0f75 5fbe
000000a0: de6d d7bd 0824 ff3d e79c 203f 1151 9d3f
000000b0: 5f05 25bf bcc4 623d ca82 07be 5f02 c740
000000c0: f93b a7bf 9294 5f40 60ab b140 6e14 bf40
000000d0: 48c3 73bd 78b7 02bc c634 88bd 9682 063f
000000e0: 58ca 04c0 88f3 b7c0 1401 c63e ffd9 0fbe
000000f0: e247 1ebf 4d44 10bf fe82 bac0 4cfa 21c0
00000100: 679c c9c0 141a dac0 6c6a 52c0 4af4 d440
00000110: 43d0 c4c0 20fc 363c 306c e1bb abec 0b3d
00000120: 301a 773b 9db0 07bd 95c1 3f3d 9996 293d
00000130: 5049 a2bb ead6 9dbc 26f8 bd3c ddc5 debc
00000140: 530a eebc 8c66 45bc f3be 213d 593e 4c3d
00000150: d9b8 113d b287 4bbd b465 67bc 5623 fd3c
00000160: 0af2 a13c 1d36 cfbc 07b0 293d 2801 1b3c
00000170: 2e44 323b d334 c03e b80a c8c0 0865 fe40
00000180: 4b64 0041 1f7d 0940 b489 883d 101b c6bb
00000190: 4108 f43c 36df 963f 5ba1 97c0 e998 c63d
000001a0: 73d6 9e40 bd77 8a3c 7c9a bf40 b356 a6c0
000001b0: 17e9 4d3d 17a3 dec0 821b 19c1 1fca 1ac0
000001c0: 888b db40 cfeb 1940 2886 15c1 3acc 92bc
000001d0: ce74 813c de2f d33c ba42 923c 25aa 263d
000001e0: 20b8 233c 5019 93bc fa8a 8f3c c4d0 8fbc
000001f0: 71e6 013d 48e5 45bc 7a9d d7bc 74f2 18bc
00000200: 8d05 303d 008e 6d3a cede f53c da7e a2bc
00000210: 7ea8 2bbd d382 32bd 529c bb3c 5230 d33c
00000220: 96e5 a73c 6684 94bc 1030 f53b 0abf ee3c
00000230: d268 c93c 3881 5fbc 1a4d ee3c 3e7f b23c
00000240: 8c27 05bd cd6d a7bc 624b ee3c 02e5 9a3c
00000250: 8004 09bb 4879 17bc 2a0b 3bbd 5315 14bd
00000260: 6aba d43c 7eb0 c03c 28b5 253c ba09 2ebd
00000270: 568e 01bd 66f8 fd3c acb3 653c 10b9 a33b
00000280: 5050 06bd 6bf6 debd 6906 5940 02c5 aabe
00000290: aa69 1340 9aab a440 dc25 c640 68cb 0bbd
000002a0: 1aee cb3c f177 d0bd 2046 973e 4bd2 c6bf
000002b0: a6fe 42c0 cc85 52bf 9493 6cbd 2937 d0bd
000002c0: c86e 213f ebbb 40c0 c85e bebf 8e97 bcc0
000002d0: 6b54 dbc0 126f 3ac0 d30a db40 385a b9c0
000002e0: b360 81bd 905c 6040 cc9a b7bf bd1e 5b40
000002f0: a0e2 be40 968e 8e40 746e d2bd 37ef 083d
00000300: 0b01 76bd afd1 aa3e 8683 22c0 58e8 4ec0
00000310: bd19 f63d df79 b6bd e5cf 92bd 1a6d 9abe
00000320: d4fe 4dc0 7a58 34c0 3d81 d5c0 c5f4 a5c0
00000330: 3500 f2bf 0088 a140 3787 d1c0 b508 19bd
00000340: d801 0abc c2cb e33c a2ac d13c 49cf 283d
00000350: 61d2 373d 1477 0bbc 31e4 0d3d f0ff fbbb
00000360: 2715 9abc bf53 003d 53d6 a5bc 94d0 323c
00000370: ffe9 45bd ad28 1f3d 08af 283c de03 993c
00000380: 2a0d af3c 32e7 f53c 99d0 103d 2d75 9bbc
00000390: 72ab cf3c 76f9 c63c 3655 91bd 7d41 3740
000003a0: 908b 9cbe 1e39 1440 7f30 9b40 5071 c240
000003b0: 4204 92bd 8dfb 21bd dd1c 67bd b7a6 453e
000003c0: 7a1a 7dbf 0837 25c0 9566 62bf d8de 2cbd
000003d0: de71 4e3e 5f0c 3b3f 9f84 27c0 3f95 b1bf
000003e0: 2b4e b4c0 5f24 d9c0 a52d 8dbf b11d d740
000003f0: 79f7 b0c0 0091 343b 71f0 333d 021e 0bbd

fc1.bias f4 [400]
0.04354348 0.022781314 -0.07191224 -0.20395973 0.13015284 -0.084169805 -0.0017775595 -0.0065531335
-0.049742788 -0.05296257 -0.013628405 -0.04177098 -0.2001244 0.12443417 0.039241526 0.05829427
-0.10995569 0.002389893 -0.10789406 0.39290562 0.12437052 0.014208587 0.08246322 -0.16434473
0.10720729 -0.12146908 0.079037175 -0.010265306 0.0999612 -0.115144715 -0.12661421 -0.07165705
0.11585917 -0.07419016 -0.04097016 -0.09121411 0.12693854 -0.007097423 0.09145744 -0.039629888
0.07632846 -0.08155377 -0.025005072 0.10805528 -0.06752944 0.02892308 -0.02531763 -0.195935
-0.16018535 0.23525657 0.090904325 0.115647666 0.037413012 -0.052893326 -0.018056717 -0.058294684
-0.06872317 -0.18033487 0.14514352 -0.07845326 -0.10725134 -0.16993771 0.0108629735 -0.04690267
-0.09713875 0.09238764 -0.022216335 0.029803917 -0.27905408 -0.07167639 -0.13866663 0.020754226
0.01921191 -0.082749814 -0.16186018 -0.17561889 -0.012170136 0.09759469 -0.11258002 0.011443555
-0.11228027 -0.044032123 0.01701199 -0.17750682 0.04018213 0.105778985 -0.007888984 0.12187396
-0.014132802 0.055162646 -0.10633238 0.0040719765 -0.16922636 -0.03339812 -0.048358023 -0.00026105344
-0.2036788 -0.18771337 0.06780527 -0.18555264 0.12788512 -0.18006822 0.018113604 0.01944536
0.26827133 -0.06990189 -0.07064864 -0.04791385 -0.059118345 0.063230306 -0.13418874 0.08048198
-0.10024405 -0.1294547 0.048562422 -0.1104744 -0.091049366 -0.01633796 0.06033262 0.06069128
-0.18708435 -0.09662406 -0.2045105 -0.20719315 0.16537857 -0.2054248 0.10016746 0.05697216
-0.07987599 0.053051896 -0.046285275 0.03328027 -0.17507896 -0.081924066 0.015332614 -0.1876522
0.08985645 0.023807973 -0.03159875 -0.1202423 -0.06534484 0.075362094 0.16752438 0.09856359
-0.11221637 -0.09469544 0.048574015 -0.16219182 -0.18568371 -0.11437834 -0.000447914 0.08613393
-0.027625097 0.058513448 -0.0474879 -0.17280823 0.032047227 -0.13107073 -0.07266042 -0.034407906
-0.15724379 -0.1990476 -0.09336086 0.40143898 0.04608697 0.11068381 0.02252047 0.11871686
-0.052531537 -0.078709304 -0.022169523 0.077483326 -0.16603036 -0.11697191 -0.025548145 -0.1090589
0.14933383 0.03804478 0.067596674 -0.03897343 -0.080595836 -0.102410786 0.060468268 -0.060206175
0.07524045 0.08329237 -0.039742906 -0.06686978 -0.0013718988 0.04654883 -0.040672824 -0.09379619
0.07886579 0.05093886 -0.14343056 0.004625366 -0.025802469 -0.09087569 -0.20117679 -0.115694165
0.012171015 -0.101392776 -0.056327056 -0.17012478 0.035584975 0.026499573 0.09833701 -0.035128154
-0.084262796 0.05183304 0.32517174 -0.101521805 -0.11178755 -0.03783637 -0.029885367 -0.010529262
-0.10248521 -0.18975987 -0.028624028 -0.024389997 -0.17514808 0.10621386 -0.15820768 -0.055399165
-0.1464087 -0.069557786 -0.01229015 -0.031739414 -0.11602342 -0.087036625 -0.17202231 -0.15272567
0.07053071 -0.050815865 -0.16622238 -0.09424903 -0.20093684 -0.14559099 -0.1460243 -0.07204029
0.042056393 -0.12632604 0.12649223 0.021604583 -0.029969439 -0.032232553 0.24269727 -0.14361635
0.013758077 -0.022070315 0.092805706 -0.060763426 0.0875307 0.0034463573 -0.1528477 -0.06596263
00000000: a65a 323d e19f ba3c b946 93bd d2da 50be
00000010: c946 053e 3861 acbd 00fd e8ba abbb d6bb
00000020: 18bf 4bbd 48ef 58bd ac49 5fbc 0c18 2bbd
00000030: 69ed 4cbe 58d7 fe3d b9bb 203d f9c5 6e3d
00000040: 7330 e1bd c09f 1c3b 90f7 dcbd ed2a c93e
00000050: f9b5 fe3d 22cb 683c 7ae2 a83d fc49 28be
00000060: 7f8f db3d c8c4 f8bd 3ede a13d d02f 28bc
00000070: 75b8 cc3d fed0 ebbd 28a7 01be eec0 92bd
00000080: 9347 ed3d 03f1 97bd 54d0 27bd 77ce babd
00000090: 2dfc 013e 8091 e8bb 0a4e bb3d f352 22bd
000000a0: 1852 9c3d aa05 a7bd 70d7 ccbc 164c dd3d
000000b0: e04c 8abd 18f0 ec3c eb66 cfbc 2fa3 48be
000000c0: a107 24be 19e7 703e 0c2c ba3d afd8 ec3d
000000d0: 633e 193d aca6 58bd aeeb 93bc 68c6 6ebd
000000e0: bcbe 8cbd b4a9 38be 81a0 143e 1aac a0bd
000000f0: 97a6 dbbd 2704 2ebe 9dfa 313c 041d 40bd
00000100: aef0 c6bd bb35 bd3d 08ff b5bc 5827 f43c
00000110: 2de0 8ebe 12cb 92bd a0fe 0dbe c404 aa3c
00000120: 4c62 9d3c bc78 a9bd adbe 25be 70d5 33be
00000130: 4065 47bc badf c73d 5b90 e6bd c07d 3b3c
00000140: 33f3 e5bd 075b 34bd bb5c 8b3c 59c4 35be
00000150: 0496 243d a7a2 d83d cc40 01bc 0e99 f93d
00000160: 458d 67bc 3af2 613d cac4 d9bd 376e 853b
00000170: ad49 2dbe 78cc 08bd 1013 46bd 00de 88b9
00000180: 2d91 50be ef37 40be 7ddd 8a3d 8301 3ebe
00000190: 51f4 023e ce63 38be fb62 943c e04b 9f3c
000001a0: dc5a 893e b928 8fbd 3cb0 90bd 5041 44bd
000001b0: 1426 72bd e47e 813d c668 09be bdd3 a43d
000001c0: c14c cdbd c68f 04be 64e9 463d 6740 e2bd
000001d0: 1778 babd 2fd7 85bc 561f 773d 6b97 783d
000001e0: 0a93 3fbe d6e2 c5bd 336b 51be 712a 54be
000001f0: 0059 293e e15a 52be 9924 cd3d a45b 693d
00000200: 0696 a3bd f24c 593d a195 3dbd e450 083d
00000210: e647 33be cec7 a7bd a535 7b3c e627 40be
00000220: a906 b83d f008 c33c b16d 01bd 9841 f6bd
00000230: 84d3 85bd 7157 9a3d 838b 2b3e b5db c93d
00000240: b2d1 e5bd afef c1bd 8cf5 463d 9d15 26be
00000250: df23 3ebe 313f eabd 00d6 eab9 fc66 b03d
00000260: 074e e2bc ccab 6f3d ac82 42bd a4f4 30be
00000270: f443 033d 6837 06be fcce 94bd 4eef 0cbd
00000280: 8404 21be 22d3 4bbe fb33 bfbd 6989 cd3e
00000290: b1c5 3c3d 32ae e23d d97c b83c d321 f33d
000002a0: 4f2b 57bd 5832 a1bd dc9c b5bc 94af 9e3d
000002b0: dd03 2abe f88e efbd 584a d1bc 465a dfbd
000002c0: f8ea 183e d8d4 1b3d 2070 8a3d 9aa2 1fbd
000002d0: 6e0f a5bd bfbc d1bd 93ad 773d c09a 76bd
000002e0: aa17 9a3d 3195 aa3d 75c9 22bd 06f3 88bd
000002f0: 49d1 b3ba fca9 3e3d 8c98 26bd 3818 c0bd
00000300: 6384 a13d 44a5 503d 76df 12be 6290 973b
00000310: b35f d3bc 091d babd 4a01 4ebe 10f1 ecbd
00000320: f068 473c 04a7 cfbd 33b7 66bd 3135 2ebe
00000330: 8dc1 113d a215 d93c ea64 c93d 8ae2 0fbd
00000340: f991 acbd e24e 543d e97c a63e aaea cfbd
00000350: dff0 e4bd 4ffa 1abd 28d2 f4bc ed82 2cbc
00000360: c4e3 d1bd 6950 42be f07c eabc 88cd c7bc
00000370: 055a 33be a786 d93d 3201 22be 3cea 62bd
00000380: 2aec 15be 5074 8ebd a05c 49bc 3001 02bd
00000390: b09d edbd 4240 b2bd 9e26 30be 1e64 1cbe
000003a0: 6872 903d 4c24 50bd 3336 2abe a305 c1bd
000003b0: 63c2 4dbe ce15 15be 6587 15be dc89 93bd
000003c0: 5343 2c3d 9d5b 01be 2e87 013e 18fc b03c
000003d0: 7882 f5bc 4806 04bd a285 783e 2a10 13be
000003e0: 8f69 613c cecc b4bc eb10 be3d 12e3 78bd
000003f0: 4c43 b33d 48dc 613b 1c84 1cbe 6a17 87bd

fc2.weight f4 [300, 416]
-0.3144798 -0.0028633422 -0.54928946 0.01525142 -0.03920943 0.016105928 -0.045346282 -0.039974317
0.022467548 -0.039421644 0.07089552 -0.019867443 -0.02754826 0.05185951 -0.0037440776 0.060903475
0.03397885 -0.038942486 0.0087625235 0.47394806 0.0837873 -0.021749815 -0.014393121 0.051382072
0.039889086 -0.039620873 -0.00271542 -0.014144264 0.049289826 0.13985127 0.02662398 -0.05763527
0.28252164 0.050587814 0.049709983 -0.012182225 -0.012348452 0.018223025 0.027544504 0.08752685
0.07069219 0.044198405 -0.046473872 0.041843053 -0.023145821 0.10608898 0.03989564 -0.033935964
-0.041827343 0.3059806 -0.06882916 0.0057457527 0.08410531 0.042570554 -0.0034151175 0.04904018
-0.009212604 -0.053865984 0.105173655 0.00026964396 0.005671665 -0.010207504 0.062795475 -0.055738438
-0.04166709 0.087808155 -0.0028754063 0.041823372 -0.15333086 0.075962216 0.04925771 -0.06331449
0.047365762 0.01642733 0.03583779 -0.008624066 -0.018935338 0.01653096 -0.040392436 -0.009937577
-0.0027348027 0.01550294 0.03232195 0.039140776 0.014117904 0.049262993 -0.02177354 -0.0017528966
0.020559065 -0.0041238335 0.016304485 0.078355655 -0.029064711 0.04371725 -0.025868736 -0.021293078
0.027907558 0.010459542 0.15809801 -0.011027873 -0.07297061 0.017752185 0.0077687744 0.25915053
0.47328135 -0.1219719 -0.02307297 0.037158884 -0.01227358 0.057408787 -0.03491545 -0.019806793
0.10039014 0.054542482 0.056888934 0.011841908 -0.011460289 0.03380647 -0.024985235 -0.02440741
-0.02331249 -0.014678776 0.033914514 0.018995082 0.30084437 0.030044667 -0.0017966139 -0.055172853
0.05610931 0.31871286 -0.017902073 0.094846785 -0.043996282 -0.14493428 0.019748436 -0.037080593
-0.038096696 0.016756391 0.10644844 -0.032793753 0.0037371777 0.0532407 0.00033878305 -0.005227558
0.00691937 -0.025115043 0.10337413 -0.05272699 -0.021974184 -0.026974749 0.00519713 -0.013944845
0.024010478 -0.014038745 -0.008645255 -0.05235133 -0.5757841 0.042229176 0.0025235638 0.09648367
-0.022606492 0.021302283 0.08061383 0.48851225 0.03193665 0.021864168 0.12913756 -0.76565444
-0.022763053 -0.050582357 0.02146102 0.0050023417 0.11122631 0.022616334 0.048207074 -0.03484609
0.17660484 0.00085764006 0.017683957 0.08179914 -0.052362107 -0.030023424 0.0405329 -0.030584227
0.03005483 -1.257056 0.03810469 0.055742048 0.092213154 0.13105433 -0.0303372 -0.029364798
0.11860713 0.4873925 0.045967802 -0.30451635 0.006738217 0.017030142 0.05031927 0.047515817
-0.042120527 0.030565418 0.005217755 0.012900792 0.03409075 0.053122614 0.025012363 0.10166061
0.040593997 0.0839549 0.48836306 -0.028772052 -0.0029966289 0.041691627 -0.0147447325 0.06911236
-0.05546251 0.05435905 0.016622372 -0.022981651 -0.016088933 -0.22519714 0.027875155 0.09572774
-0.0107182115 -0.014454585 0.04138106 -0.008336347 0.047798805 0.029360048 -0.034130346 0.002191294
0.06364876 0.025207564 -0.027241256 0.059433255 0.052520223 0.0049052164 0.008929141 0.052961618
-0.066655874 -0.01572144 0.033090938 0.036035396 -0.043835156 -0.044627167 -0.13897611 0.04336796
-0.73099935 -0.981141 -0.029947264 0.011429854 0.10703322 0.09534106 0.013022453 0.042932607
00000000: 7f03 a1be e9a6 3bbb 3c9e 0cbf 18e1 793c
00000010: 119a 20bd 94f0 833c 06bd 39bd 1cbc 23bd
00000020: dd0d b83c 9778 21bd ac31 913d 0cc1 a2bc
00000030: e3ac e1bc a36a 543d 335f 75bb ec75 793d
00000040: 682d 0b3d 2882 1fbd b090 0f3c 52a9 f23e
00000050: ad98 ab3d ab2c b2bc 20d1 6bbc 0276 523d
00000060: bd62 233d 7f49 22bd 30f5 31bb 58bd 67bc
00000070: 21e4 493d 2c35 0f3e 881a da3c f612 6cbd
00000080: ada6 903e 2b35 4f3d b29c 4b3d f497 47bc
00000090: 2951 4abc 7448 953c 03a5 e13c 4741 b33d
000000a0: 11c7 903d 6309 353d 635b 3ebd 9f63 2b3d
000000b0: 4e9c bdbc 2e45 d93d 9c69 233d 7000 0bbd
000000c0: 2653 2bbd 7da9 9c3e 4df6 8cbd de46 bc3b
000000d0: 683f ac3d 765e 2e3d 2ad0 5fbb 5bde 483d
000000e0: 76f0 16bc 94a2 5cbd 4965 d73d 005f 8d39
000000f0: 60d9 b93b 603d 27bc ea9a 803d fd4d 64bd
00000100: 1cab 2abd c3d4 b33d 5071 3cbb fc4e 2b3d
00000110: c402 1dbe 1492 9b3d 74c2 493d 07ab 81bd
00000120: 9a02 423d 9c92 863c a6ca 123d f44b 0dbc
00000130: 481e 9bbc f06b 873c 8a72 25bd 38d1 22bc
00000140: 603a 33bb 0b00 7e3c 0564 043d 1452 203d
00000150: c84e 673c fec7 493d 6c5e b2bc 73c1 e5ba
00000160: 7c6b a83c 3921 87bb fc90 853c ee78 a03d
00000170: 1e19 eebc dc10 333d acea d3bc d26e aebc
00000180: 649e e43c 805e 2b3c 72e4 213e 40ae 34bc
00000190: 9d71 95bd 086d 913c 3491 fe3b 61af 843e
000001a0: ef51 f23e 67cc f9bd 8603 bdbc ea33 183d
000001b0: 2017 49bc 7a25 6b3d 8103 0fbd db41 a2bc
000001c0: 5999 cd3d f067 5f3d 5f04 693d 9004 423c
000001d0: f0c3 3bbc a778 0a3d d6ad ccbc 0cf2 c7bc
000001e0: d6f9 bebc 407f 70bc f2e9 0a3d 939b 9b3c
000001f0: 4608 9a3e 3c20 f63c 5c7c ebba eefc 61bd
00000200: e0d2 653d 552e a33e 5ea7 92bc 083f c23d
00000210: 7235 34bd a769 14be 79c7 a13c d2e1 17bd
00000220: 480b 1cbd b344 893c a401 da3d be52 06bd
00000230: 70eb 743b ec12 5a3d b19e b139 ef4b abbb
00000240: e2bb e23b 10be cdbc d1b5 d33d 42f8 57bd
00000250: 3403 b4bc 26fa dcbc b04c aa3b eb78 64bc
00000260: 9fb1 c43c c402 66bc d4a4 0dbc 596e 56bd
00000270: 9666 13bf 80f8 2c3d 6062 253b 3b99 c53d
00000280: 4031 b9bc 2082 ae3c dd18 a53d 471e fa3e
00000290: 01d0 023d 7c1c b33c a33c 043e ee01 44bf
000002a0: 9579 babc 722f 4fbd 05cf af3c afea a33b
000002b0: 9fca e33d e445 b93c c874 453d c6ba 0ebd
000002c0: e6d7 343e 40d3 603a f2dd 903c 4f86 a73d
000002d0: a679 56bd aff3 f5bc d305 263d c68b fabc
000002e0: 8c35 f63c 36e7 a0bf aa13 1c3d c651 643d
000002f0: 40da bc3d 1b33 063e b885 f8bc 728e f0bc
00000300: 4ce8 f23d 828b f93e bc48 3c3d 91e9 9bbe
00000310: 43cc dc3b cc82 8b3c 941b 4e3d f29f 423d
00000320: 9386 2cbd 5464 fa3c b4f9 aa3b d85d 533c
00000330: bea2 0b3d 1997 593d bae6 cc3c 7033 d03d
00000340: e445 263d 8cf0 ab3d b90a fa3e 5eb3 ebbc
00000350: 1763 44bb d7c4 2a3d e493 71bc c88a 8d3d
00000360: a82c 63bd 98a7 5e3d a42b 883c 0444 bcbc
00000370: f0cc 83bc 149a 66be 705a e43c e80c c43d
00000380: 709b 2fbc ecd2 6cbc 307f 293d 2c95 08bc
00000390: aec8 433d 7c84 f03c 43cc 0bbd d09b 0f3b
000003a0: 485a 823d 1880 ce3c 0e29 dfbc 4970 733d
000003b0: 721f 573d f0bb a03b 884b 123c 48ee 583d
000003c0: e082 88bd 40ca 80bc 5d8a 073d da99 133d
000003d0: 7e8c 33bd faca 36bd c14f 0ebe 9aa2 313d
000003e0: c622 3bbf 0e2c 7bbf f753 f5bc 4844 3b3c
000003f0: 3c34 db3d 2c42 c33d 205c 553c 1ada 2f3d

fc2.bias f4 [300]
0.5555747 -0.0489655 -0.18403356 0.57929677 -0.5144229 0.6416588 0.53694546 0.5998725
0.07996274 0.55647 -0.004201341 0.48034498 0.6012298 0.48305643 -0.09174976 0.50491595
0.598511 0.80638087 0.32269317 0.48265436 -0.15300903 0.488371 0.5879548 0.5713521
-0.12190993 -0.36378413 0.17717616 -0.112750016 0.4859998 0.5852176 0.21790197 -0.55188495
-0.13432424 0.43793544 0.5841086 0.5196883 -0.15872367 -0.11235801 0.44342747 -0.49400127
0.5333309 -0.224038 0.07916848 0.4215841 0.5230305 0.62633824 0.5168311 0.7065938
0.20750724 0.6118003 0.5424144 -0.13146625 -0.078744315 -0.08457966 0.6040301 0.54706496
0.8884309 -0.060686603 -0.2601874 0.5048191 0.41366255 0.6521986 0.26343498 -0.12537515
0.5231747 0.5315184 0.4208675 0.55594975 0.12887414 -0.32546577 0.5170097 0.5653621
0.1629441 0.3291292 0.5185255 -0.027148824 0.19749662 0.06961545 -0.015366837 0.5842743
-0.046922836 0.41084096 0.17732051 0.5949976 -0.02978162 0.46168408 0.071287334 0.5015864
0.23486947 0.65105337 0.42017183 0.58412594 0.59912163 0.54773784 0.39266333 -0.019793864
0.5401806 -0.12278598 0.54943275 -0.16247238 -0.24749465 0.43082717 -0.18460792 -0.50454086
0.5123004 0.6466264 -0.03052334 0.4744909 -0.119973294 0.44486088 0.6060244 0.2939685
0.4627297 0.6682345 -0.07610449 0.5184778 0.530769 -0.0024368346 0.5057405 -0.030406926
0.15990418 0.25440058 0.033053804 0.60699034 -0.8086659 0.5812536 0.37462825 0.5399156
0.50282127 0.581353 -0.34183267 0.6092895 0.6553645 0.5476735 0.54989785 0.52313274
0.6481582 -0.06894421 0.50264686 0.56543845 0.04983445 0.27702406 0.16503794 0.5471619
0.50488216 0.55868816 0.53301597 0.590759 0.5416922 0.5018445 -0.7782003 0.5062775
0.8378664 0.5477094 0.5696688 0.6060067 0.56733096 -0.31901154 0.52221936 0.55918556
0.5606795 -0.54345393 0.6358481 -0.09669774 0.50596696 0.46645018 0.45973077 0.60313475
-0.152351 -0.25926265 0.51143956 0.5655275 0.49241933 0.53845483 -0.34450293 0.5640683
-0.38932833 0.98688877 0.66116494 0.5443224 -0.1283651 0.5129732 0.4723565 0.6071137
-0.10388587 0.5973501 0.7867663 0.6461953 -0.5203094 0.5923008 0.5054775 0.4939614
0.6138649 0.54087186 -0.08380667 0.20719814 0.44415733 -0.001881224 0.14101817 0.52253586
-0.0077308067 0.4544749 0.18356736 0.35528684 0.49099597 -0.06060546 0.6350052 0.5544555
0.63171023 0.17518854 0.472742 -0.4343034 0.62036383 0.5955114 0.6535448 0.55532485
0.46350765 0.54979306 -0.023932314 -0.06905308 0.50493234 0.61234903 0.8464284 -0.05275021
0.82172835 0.505788 0.60290617 0.53697294 0.032888994 -0.08441294 0.5472229 0.5136796
0.5840724 0.6421796 -0.22957577 -0.12647036 0.4964077 0.48405373 0.44179812 0.49057704
0.15191689 0.56500643 0.14701807 -0.09414077 0.17866552 -0.08783751 0.593141 0.503869
-0.033288833 0.47126245 0.5997374 0.5291342 -0.1847657 -0.13136065 0.6133238 -0.65063363
00000000: 253a 0e3f 0c90 48bd 4b73 3cbe cb4c 143f
00000010: 38b1 03bf c043 243f 4275 093f 3f91 193f
00000020: 81c3 a33d d174 0e3f 67ab 89bb c7ef f53e
00000030: 32ea 193f 2c53 f73e 4ce7 bbbd 2c42 013f
00000040: 0438 193f fa6e 4e3f 0a38 a53e 791e f73e
00000050: 66ae 1cbe c40b fa3e 3584 163f 2244 123f
00000060: eaab f9bd ea41 babe ab6d 353e 7be9 e6bd
00000070: f7d4 f83e d2d0 153f b221 5f3e 5548 0dbf
00000080: 4b8c 09be 1339 e03e 2488 153f 4b0a 053f
00000090: 7588 22be f51b e6bd ed08 e33e bced fcbe
000000a0: 6088 083f 386a 65be 1623 a23d dfd9 d73e
000000b0: 54e5 053f b457 203f 0b4f 043f 55e3 343f
000000c0: c77c 543e f29e 1c3f acdb 0a3f 179f 06be
000000d0: b344 a1bd 1a38 adbd b7a1 1a3f 730c 0c3f
000000e0: 3570 633f 8492 78bd 4837 85be d33b 013f
000000f0: 94cb d33e 7df6 263f f3e0 863e 5862 00be
00000100: c7ee 053f 9711 083f f27b d73e b952 0e3f
00000110: 95f7 033e 73a3 a6be bf5a 043f 92bb 103f
00000120: d1da 263e 9f83 a83e 16be 043f 3667 debc
00000130: 8e3c 4a3e 8c92 8e3d 30c5 7bbc 0093 153f
00000140: 2932 40bd bf59 d23e 8293 353e c351 183f
00000150: 95f8 f3bc db61 ec3e 18ff 913d f767 003f
00000160: 9f81 703e 6fab 263f c320 d73e 4789 153f
00000170: 0960 193f 8c38 0c3f 2b0b c93e be26 a2bc
00000180: 4749 0a3f 3777 fbbd a0a7 0c3f 295f 26be
00000190: 3d6f 7dbe 6195 dc3e dc09 3dbe 9729 01bf
000001a0: 1e26 033f 4f89 253f 150c fabc 79f0 f23e
000001b0: 8fb4 f5bd cec4 e33e 6a24 1b3f 0a83 963e
000001c0: e8ea ec3e 6b11 2b3f acdc 9bbd f6ba 043f
000001d0: 7ae0 073f 4db3 1fbb 3678 013f f217 f9bc
000001e0: ecbd 233e cb40 823e 6d63 073d b863 1b3f
000001f0: ba04 4fbf 09cd 143f 46cf bf3e e937 0a3f
00000200: e5b8 003f 8dd3 143f b104 afbe 66fa 1b3f
00000210: f8c5 273f 5534 0c3f 1bc6 0c3f 07ec 053f
00000220: b2ed 253f 9f32 8dbd 77ad 003f 93c0 103f
00000230: 351f 4c3d 19d6 8d3e b5ff 283e cd12 0c3f
00000240: f53f 013f 3006 0f3f bc73 083f fb3b 173f
00000250: 57ac 0a3f e278 003f 2338 47bf 679b 013f
00000260: 6a7e 563f af36 0c3f d1d5 113f 4123 1b3f
00000270: 9a3c 113f 7b55 a3be 2bb0 053f c926 0f3f
00000280: b188 0f3f cc1f 0bbf f1c6 223f 7709 c6bd
00000290: 0d87 013f 8fd2 ee3e d561 eb3e 0a67 1a3f
000002a0: e701 1cbe 13be 84be b4ed 023f 69c6 103f
000002b0: 631e fc3e 2dd8 093f b062 b0be c866 103f
000002c0: 0b56 c7be bea4 7c3f 1b42 293f b658 0b3f
000002d0: 2472 03be 3652 033f b6d8 f13e ce6b 1b3f
000002e0: 1dc2 d4bd f0eb 183f 8469 493f 0e6d 253f
000002f0: ff32 05bf 06a1 173f f966 013f 82e8 fc3e
00000300: 4026 1d3f 9476 0a3f d5a2 abbd c02b 543e
00000310: 9768 e33e 6793 f6ba 1167 103e e9c4 053f
00000320: b552 fdbb efb0 e83e 15f9 3b3e 28e8 b53e
00000330: d363 fb3e 6e3d 78bd b38f 223f ccf0 0d3f
00000340: c3b7 213f a064 333e 3d0b f23e 045d debe
00000350: 2ad0 1e3f 6f73 183f b64e 273f c529 0e3f
00000360: e050 ed3e 3dbf 0c3f b30d c4bc b46b 8dbd
00000370: 3f43 013f e8c2 1c3f 88af 583f 9b10 58bd
00000380: ca5c 523f 537b 013f 0f58 1a3f 0f77 093f
00000390: 9cb6 063d b1e0 acbd cd16 0c3f 8280 033f
000003a0: c585 153f e265 243f e915 6bbe 7281 01be
000003b0: 2629 fe3e e4d5 f73e 5d33 e23e ea2c fb3e
000003c0: 1a90 1b3e 43a4 103f e88b 163e e0cc c0bd
000003d0: 18f4 363e 27e4 b3bd 17d8 173f 8ffd 003f
000003e0: df59 08bd 5049 f13e 6488 193f 5775 073f
000003f0: 3833 3dbe 6883 06be ca02 1d3f ed8f 26bf

fc3.weight f4 [1, 300]
0.15670124 -1.2770897 1.9128844 0.31097463 -5.085347 0.29765156 0.22642176 0.2499913
0.70531964 0.69131726 -0.11297344 0.17663917 0.31772444 0.15394332 -0.48490763 0.2258561
0.30672014 0.4183968 -3.1681733 0.6731924 -1.1621952 0.9283339 0.2845991 0.24518113
0.43556872 0.22691594 -5.47423 -0.68320537 0.17074212 0.26671138 0.13073328 0.9783596
-0.31887826 0.12540491 0.2318561 0.22753495 0.91443264 -0.03027422 0.10964748 -0.647308
0.17758319 -0.76597255 1.2639266 0.68060404 0.20710076 0.29722673 0.26029977 0.61196584
0.85778034 0.25689158 0.19622324 0.8830093 0.02881054 -0.26607555 0.36827984 0.21851254
0.54776794 0.012445976 0.32894802 0.20032246 0.060154784 0.9473689 0.058637105 0.025979463
0.21414219 0.22983743 0.08413178 0.21036777 0.34318233 0.8504088 0.24547285 0.21696477
-2.2707405 -1.0361356 0.16354607 0.22072059 -0.29140797 0.21373034 0.0062972237 0.2623628
0.0041269143 0.90917104 0.38503107 0.28853416 -1.6693969 0.13809033 -1.0615162 0.10511522
-0.48838034 0.30888775 0.10515699 0.26610467 0.22863662 0.20569558 0.26772356 2.405168
0.15769458 0.03882219 0.21142784 0.030474003 -0.36023155 0.09687097 -2.3578787 -0.46215296
0.21905625 0.29740298 0.7597061 0.12139863 -1.482069 0.15188952 0.25276294 -2.4830747
0.11225816 0.3078121 0.2506162 0.19031967 0.21611403 -0.5910649 0.18716499 0.028197857
0.22333877 -1.759001 -1.1015713 0.29501665 -1.1613996 0.2938396 0.06041756 0.22175907
0.16416417 0.21258007 0.37931088 0.27081087 0.3034236 0.20203058 0.24665762 0.24590427
0.3245738 0.010329896 0.19278252 0.21844415 0.29059318 0.7872793 -1.8166467 0.19293231
0.22631921 0.28558576 0.22750995 0.23840502 0.19376448 0.1495948 -0.59359616 0.18662113
0.48058578 0.24162574 0.2346918 0.25080448 0.30193233 -0.41231555 0.19258103 0.22789252
0.26548523 0.5315394 0.3328052 -0.0245797 0.1766404 0.11206859 0.5911011 0.22400181
-0.40524843 -0.3004602 0.20461641 0.21860111 0.21725622 0.20428172 0.80705005 0.25599885
0.72439516 0.7751592 0.32658708 0.2423391 -0.103967994 0.21539032 0.138187 0.26379266
-0.43823704 0.26478395 0.45742396 0.2977385 1.7994007 0.24761793 0.19164774 0.23308878
0.30227646 0.14955267 0.018188367 0.30490568 0.15284185 -0.28902727 0.51834285 0.14449917
-0.4680835 0.12064407 -0.8672683 0.3687973 0.17157386 0.0051675676 0.31235197 0.6252726
0.2552162 -2.4543552 0.19311196 -0.62414837 0.28844935 0.2620254 0.33381045 0.192931
0.18250744 0.17180227 -0.34200794 -0.04371444 0.20433874 0.28007182 1.3085258 -0.3857813
0.827638 0.24882708 0.28495666 0.21375954 -0.39475644 0.021406349 0.21464632 0.19093809
0.26425096 0.30875605 -0.9710015 1.1995143 0.14655739 0.18205361 0.13280578 0.47624627
-2.5647027 0.24270871 0.07078392 0.00082351605 0.07238069 -0.025890397 0.29183885 0.20206098
-0.021785121 0.1439005 0.24980591 0.15546787 1.3134223 -0.27198395 0.25125003 -0.8033821
00000000: 4a76 203e ad77 a3bf 65d9 f43f 1138 9f3e
00000010: 2abb a2c0 c965 983e 1bdb 673e b8fd 7f3e
00000020: d48f 343f 2bfa 303f 9e5e e7bd e6e0 343e
00000030: c7ac a23e 51a3 1d3e d045 f8be d246 673e
00000040: 6c0a 9d3e 1b38 d63e 5ac3 4ac0 5656 2c3f
00000050: d0c2 94bf 4aa7 6d3f f9b6 913e c310 7b3e
00000060: dd02 df3e a75c 683e e42c afc0 8ce6 2ebf
00000070: 06d7 2e3e 658e 883e f2de 053e c675 7a3f
00000080: 0344 a3be 256a 003e af6b 6d3e ecfe 683e
00000090: 4218 6a3f a401 f8bc dc8e e03d fab5 25bf
000000a0: 5ed8 353e c716 44bf 59c8 a13f 113c 2e3f
000000b0: 3912 543e 1a2e 983e 0346 853e cba9 1c3f
000000c0: 7e97 5b3f 4b87 833e bfee 483e e60c 623f
000000d0: 1504 ec3c 0e3b 88be 2d8f bc3e c0c1 5f3e
000000e0: 853a 0c3f 35ea 4b3c e06b a83e 5521 4d3e
000000f0: dd64 763d c586 723f 762d 703d e2d2 d43c
00000100: 1748 5b3e 815a 6b3e 484d ac3d a66a 573e
00000110: 98b5 af3e 64b4 593f 3c5d 7b3e 032c 5e3e
00000120: d053 11c0 17a0 84bf 9f78 273e 9404 623e
00000130: 6d33 95be 20dc 5a3e f158 ce3b 6b54 863e
00000140: 113b 873b 6fbf 683f cb22 c53e c0ba 933e
00000150: ccae d5bf 8d67 0d3e c3df 87bf a646 d73d
00000160: fd0c fabe 8926 9e3e 8c5c d73d df3e 883e
00000170: b81f 6a3e dda1 523e 1013 893e 46ee 1940
00000180: b07a 213e 0404 1f3d 8a80 583e 9ea4 f93c
00000190: 4570 b8be 4a64 c63d 7ce7 16c0 509f ecbe
000001a0: 4850 603e 3445 983e 197c 423f d89f f83d
000001b0: 70b4 bdbf ed88 1b3e 256a 813e b2ea 1ec0
000001c0: 9be7 e53d 8c99 9d3e c450 803e 29e3 423e
000001d0: ff4c 5d3e 0750 17bf 2ea8 3f3e 31ff e63c
000001e0: ebb2 643e f226 e1bf 4a00 8dbf 6c0c 973e
000001f0: bea8 94bf 2572 963e 6778 773d cf14 633e
00000200: a71a 283e 97ae 593e 0935 c23e b9a7 8a3e
00000210: 575a 9b3e 1be1 4e3e d193 7c3e 54ce 7b3e
00000220: 8a2e a63e b93e 293c c868 453e d3af 5f3e
00000230: a1c8 943e 238b 493f e187 e8bf 0c90 453e
00000240: 39c0 673e 4c38 923e 5ef8 683e 7220 743e
00000250: 326a 463e 612f 193e ebf5 17bf 9c19 3f3e
00000260: 570f f63e bd6c 773e 0c53 703e 7269 803e
00000270: e096 9a3e 061b d3be f633 453e a85c 693e
00000280: aeed 873e f712 083f 7165 aa3e 5e5b c9bc
00000290: 39e1 343e 3884 e53d 6752 173f bb60 653e
000002a0: b97c cfbe ebd5 99be f786 513e f8d8 5f3e
000002b0: 6a78 5e3e 3a2f 513e d59a 4e3f 4812 833e
000002c0: f671 393f d570 463f 6c36 a73e be27 783e
000002d0: 2ced d4bd 488f 5c3e e580 0d3e d50f 873e
000002e0: 9b60 e0be c391 873e 7933 ea3e 2e71 983e
000002f0: c352 e63f 8e8f 7d3e 4e3f 443e d3ae 6e3e
00000300: fbc3 9a3e 5624 193e c5ff 943c 991c 9c3e
00000310: 9382 1c3e 62fb 93be 1eb2 043f 97f7 133e
00000320: a4a8 efbe 3d14 f73d 4c05 5ebf 00d3 bc3e
00000330: 0fb1 2f3e b354 a93b 99ec 9f3e dd11 203f
00000340: b3ab 823e 2814 1dc0 24bf 453e 30c8 1fbf
00000350: a2af 933e 3128 863e 34e9 aa3e b48f 453e
00000360: 3be3 3a3e efec 2f3e aa1b afbe ea0d 33bd
00000370: 2d3e 513e 9365 8f3e c67d a73f 2085 c5be
00000380: 15e0 533f 87cc 7e3e d7e5 913e c8e3 5a3e
00000390: 841d cabe 5e5c af3c 3fcc 5b3e 4685 433e
000003a0: e74b 873e 4615 9e3e 8e93 78bf af89 993f
000003b0: 2413 163e 436c 3a3e 3dfe 073e 8dd6 f33e
000003c0: 1724 24c0 a288 783e 29f7 903d 3ae1 573a
000003d0: 543c 943d 1918 d4bc e76b 953e 13e9 4e3e
000003e0: b676 b2bc a75a 133e 1fcd 7f3e f832 1f3e
000003f0: 391e a83f 7b41 8bbe d8a3 803e 73aa 4dbf
