algorithm/pytorch-ddpg-master/output/ParallelCableDrivenRobot-v11-run15/critic.pkl (torch, 537167 bytes, 5 tensors)

fc1.weight f4 [400, 23]
-0.028368378 0.041353364 0.020371903 -0.042723786 -0.0099723935 0.002697695 -0.012484539 0.0025256053
0.0030819476 -0.015043788 -0.006060738 0.0014104545 -0.017398816 0.0051052347 0.035842147 -0.0052651353
-0.030209238 -0.027322859 -0.046343207 -0.024536138 0.008289941 -0.020099496 -0.03456518 -0.018293846
-0.04825556 0.00052725524 0.010068588 -0.017648757 0.040593464 -0.030549735 0.020636138 -0.01997893
-0.02621395 0.0023930185 0.0002662018 0.0062120557 0.021413479 0.00120629 -0.020624567 0.017810706
0.0061052516 -0.0469397 0.029102195 -0.03800676 0.0263439 -0.04555819 0.025544439 0.040732186
-0.04449993 0.006550312 0.0030837543 -0.030934453 0.015911255 0.0403598 -0.0028239377 -0.017039914
-0.0064241663 0.036144774 0.037988085 0.010368444 -0.004931938 0.018094342 0.026741806 -0.015684105
0.01821262 -0.0162506 0.047073897 0.021383975 0.025986206 -0.034927115 2.6846728 1.2652556
6.428636 2.5021682 6.7105994 -0.04931307 0.037845474 -0.038550995 -2.754466 -3.873917
-2.7437608 -2.77945 -0.053522732 -1.9771551 2.5686026 -2.6102564 -5.808807 -8.532125
-13.283026 -0.37502018 12.342683 -7.166912 -0.04752657 0.036011327 -0.02901178 0.029338147
-0.040835075 2.039224e-05 0.026188377 -0.033252835 0.015893538 -0.0015485957 -0.04264323 -0.038528435
-0.041184902 0.042524625 -0.0015866831 0.014386382 -0.0440257 0.026702452 0.012043886 0.024676356
0.0016264692 0.047586206 -0.038398404 0.013418093 0.016467148 -0.035951957 0.037428595 -0.0075860396
-0.053245764 0.0038820873 -0.05247893 -0.01913065 0.038405687 -0.010645479 -0.041087568 -0.02833565
0.033946846 -0.040777694 -0.018227959 -0.048369847 -0.026907532 -0.007105927 0.016249629 -0.031258814
0.013487302 0.01121565 -0.003280878 0.0127653815 -0.018206038 0.0103608295 0.0012331717 0.049377944
0.015782531 -0.0088895485 0.03850833 0.045334402 -0.0021970868 -0.027681028 0.0034258738 0.006537307
0.03306408 -0.043352354 -0.009847522 0.049016606 -0.042664643 0.032296512 -0.024283772 -0.047419887
0.001149226 -0.01666825 0.6714069 1.1927588 1.6395247 0.60567003 1.4425886 -0.04745198
0.20273632 -0.47721687 -0.024813578 -1.3361133 -0.62451607 -1.1082404 -0.029446248 -0.78530926
1.1700653 -0.5812145 -1.7088753 -1.0438418 -1.279171 -0.99186605 1.3432266 -0.8747526
-0.05255499 1.6200099 1.5692313 3.202961 2.2076173 4.658842 0.007707547 -0.1649469
-0.28495836 -1.0730808 -2.1983333 -1.5265855 -2.43334 -0.04314056 -0.9595965 2.1836567
-1.3687934 -3.0751746 -5.4128933 -8.546004 -0.77969867 8.063273 -4.7728763 -0.0014557131
-0.047828652 0.04917309 0.030778024 0.0067937076 0.04472829 0.024292994 0.007622432 0.03198543
0.0293465 0.012235574 -0.045434322 0.03436343 -0.04336859 -0.037731804 0.015175071 -0.021883834
-0.01978302 -0.019974465 -0.027015125 -0.003468223 -0.04928586 0.014935393 0.03571524 0.005401522
-0.031389296 0.026134621 0.025184516 -0.027222676 -0.03860106 0.020788293 0.047765557 -0.0057130046
-0.04327246 -0.027440686 -0.0077209175 0.0088406615 -0.045972563 0.017403577 0.037675086 -0.032471843
-0.038841993 -0.033365138 0.021380339 -0.0035541244 0.0063903704 -0.01903888 0.7251838 1.3475233
00000000: cd64 e8bc 2562 293d fae2 a63c 23ff 2ebd
00000010: 4063 23bc d0cb 303b f48b 4cbc a084 253b
00000020: 80fa 493b 387a 76bc 2899 c6bb 00df b83a
00000030: f687 8ebc d049 a73b 37cf 123d 2887 acbb
00000040: 5d79 f7bc 30d4 dfbc 60d2 3dbd 0300 c9bc
00000050: 88d2 073c b3a7 a4bc 3894 0dbd fadc 95bc
00000060: 9fa7 45bd 8037 0a3a b8f6 243c 2094 90bc
00000070: 5545 263d 7043 fabc 1e0d a93c daaa a3bc
00000080: a3be d6bc 30d4 1c3b 0091 8b39 808e cb3b
00000090: 526b af3c 601c 9e3a daf4 a8bc c2e7 913c
000000a0: 900e c83b d843 40bd ba67 ee3c faac 1bbd
000000b0: 2acf d73c 3a9b 3abd 9242 d13c cbd6 263d
000000c0: 8f45 36bd 00a4 d63b d018 4a3b 406a fdbc
000000d0: 5258 823c 5150 253d d011 39bb 4a97 8bbc
000000e0: d081 d2bb 8b0c 143d 6599 1b3d 68e0 293c
000000f0: 189c a1bb 963a 943c a211 db3c f47b 80bc
00000100: a232 953c fa1f 85bc 8fd0 403d 722d af3c
00000110: 06e1 d43c bc0f 0fbd aed1 2b40 e5f3 a13f
00000120: 63b7 cd40 8623 2040 3bbd d640 80fc 49bd
00000130: db03 1b3d a6e7 1dbd 2c49 30c0 42ee 77c0
00000140: c799 2fc0 82e2 31c0 a73a 5bbd 6b13 fdbf
00000150: fc63 2440 710e 27c0 bfe1 b9c0 9683 08c1
00000160: 4687 54c1 a502 c0be a17b 4541 5857 e5c0
00000170: 38ab 42bd 9d80 133d 1daa edbc 8e56 f03c
00000180: ae42 27bd 0010 ab37 0289 d63c 2034 08bd
00000190: 2a33 823c 40fa caba abaa 2ebd fecf 1dbd
000001a0: 80b1 28bd 4d2e 2e3d 40f8 cfba dcb4 6b3c
000001b0: 4b54 34bd 1abf da3c b853 453c 1226 ca3c
000001c0: 402f d53a c1e9 423d a547 1dbd 90d7 5b3c
000001d0: 1de6 863c 5c42 13bd ba4e 193d 5094 f8bb
000001e0: 3b18 5abd 9e6a 7e3b 26f4 56bd e2b7 9cbc
000001f0: 484f 1d3d 606a 2ebc 704b 28bd 2a20 e8bc
00000200: d90b 0b3d 8306 27bd cd52 95bc 761f 46bd
00000210: 2f6d dcbc d6d8 e8bb f11d 853c 3e09 00bd
00000220: d8f9 5c3c d8c1 373c 0004 57bb e425 513c
00000230: d424 95bc 78c0 293c 60a2 a13a 8740 4a3d
00000240: 5e4a 813c 78a5 11bc e9ba 1d3d 91b0 393d
00000250: 00fd 0fbb 53c3 e2bc a084 603b e836 d63b
00000260: 336e 073d 3d92 31bd 8057 21bc a3c5 483d
00000270: 1fc1 2ebd 5949 043d c3ee c6bc 5b3b 42bd
00000280: a0a1 963a db8b 88bc 53e1 2b3f 52ac 983f
00000290: f2db d13f 310d 1b3f bea6 b83f 025d 42bd
000002a0: 1c9a 4f3e c555 f4be d845 cbbc c305 abbf
000002b0: 49e0 1fbf d2da 8dbf 4239 f1bc 070a 49bf
000002c0: b3c4 953f 79ca 14bf 6dbc dabf 9c9c 85bf
000002d0: e0bb a3bf efea 7dbf d9ee ab3f c9ef 5fbf
000002e0: e743 57bd 7c5c cf3f 92dc c83f 50fd 4c40
000002f0: 9a49 0d40 3c15 9540 978f fc3b d7e7 28be
00000300: 10e6 91be b65a 89bf 7eb1 0cc0 2767 c3bf
00000310: d8bb 1bc0 28b4 30bd 1ea8 75bf 08c1 0b40
00000320: 9f34 afbf a9cf 44c0 6c36 adc0 6fbc 08c1
00000330: 559a 47bf 2b03 0141 67bb 98c0 a0cd beba
00000340: fae7 43bd b969 493d 3222 fc3c c09d de3b
00000350: 0335 373d 1a02 c73c 98c5 f93b 2703 033d
00000360: 1268 f03c b877 483c 5719 3abd abc0 0c3d
00000370: 43a3 31bd aa8c 1abd dca0 783c ba45 b3bc
00000380: 0010 a2bc 7da1 a3bc d34e ddbc 204b 63bb
00000390: f8df 49bd 94b3 743c 254a 123d 40ff b03b
000003a0: 1092 00bd 4618 d63c c24f ce3c 1702 dfbc
000003b0: 251c 1ebd 364c aa3c d1a5 433d 2834 bbbb
000003c0: 773e 31bd 4acb e0bc c0ff fcbb 6cd8 103c
000003d0: ba4d 3cbd f291 8e3c 3151 1a3d 3201 05bd
000003e0: c818 1fbd e2a9 08bd d225 af3c 50ec 68bb
000003f0: 5066 d13b 6df7 9bbc a5a5 393f a57b ac3f

fc1.bias f4 [400]
-0.012884185 -0.20820919 -0.17390475 0.047997344 -0.08784 -0.14206693 -0.18223631 -0.15677702
0.12867251 -0.060049012 -0.1499316 -0.058883283 -0.073984146 -0.113240324 0.05264401 -0.12952662
0.055499744 0.024773994 0.013173491 -0.011210734 0.16241513 -0.073153675 0.08001296 -0.17177938
0.20400143 -0.049494416 0.121263914 -0.14438269 0.055898875 -0.09718481 0.119189754 -0.1315363
-0.06548305 0.12706462 0.031051425 -0.13875091 0.08892176 -0.17600955 0.0418034 -0.05051217
-0.15294361 -0.05269815 0.09373409 0.045903534 -0.09967178 0.11933134 0.12560154 -0.011263937
-0.15072836 -0.1271074 -0.1172682 0.008814856 -0.12976548 -0.13775863 -0.1660415 -0.074500784
0.025738329 -0.091709115 0.018572569 0.034904316 -0.060841992 -0.10906937 -0.19000062 -0.08218971
0.11399146 0.097140506 0.09051473 -0.018074108 0.017231027 -0.21043178 -0.15060693 -0.18628438
-0.12909791 -0.1261502 -0.056668192 0.100086264 -0.04311827 -0.0703889 -0.17906609 -0.07885198
-0.047988936 -0.12878974 -0.16145381 -0.04505721 -0.07555883 -0.030435437 0.409207 0.17073213
-0.14228031 -0.004685384 -0.022628259 0.09737449 -0.15670496 -0.16261064 0.017934218 -0.16732734
-0.09950013 -0.032595932 0.062570736 0.09112334 0.017522335 -0.201557 -0.10421455 -0.073371984
-0.033747822 -0.103314504 -0.006410128 -0.025642008 0.043523032 0.23332612 -0.13159166 0.013739556
-0.14970052 -0.045326896 0.06751532 0.23237406 0.14125381 -0.11468137 -0.07489161 0.049640663
0.007961726 -0.024795119 0.18012069 -0.084741354 -0.073202595 -0.10769547 0.073088154 0.23023362
0.065997556 0.03432162 0.20053943 -0.09050092 0.027549326 -0.042810217 0.0201492 -0.06517203
-0.16849428 -0.058142163 -0.13510428 -0.09385983 -0.117276095 -0.028757893 0.11211846 0.14232631
-0.20532417 -0.14050952 -0.101247415 -0.02852001 -0.094503716 0.053777736 -0.05471909 -0.1876096
-0.106644236 0.097198516 -0.05813481 -0.03463901 0.09485037 0.10457789 0.07098935 0.062378787
0.027390618 -0.08024424 0.06351946 -0.028499434 -0.14359397 -0.1080707 0.13147381 0.14712515
-0.1480835 0.03810616 0.1219966 0.049319588 0.096729815 -0.08708993 -0.13747793 -0.13514839
-0.1285227 0.04742439 -0.12563872 0.047092736 0.08828636 -0.08894767 -0.07567973 -0.17308238
0.032826353 -0.17111874 0.08522526 -0.1308596 -0.026113514 -0.020916 0.124508575 -0.073798135
-0.04670032 -0.04180488 0.14581731 0.13083918 0.1235625 -0.1853862 -0.10337585 -0.17443812
0.07923101 0.10409443 -0.026967809 -0.10388495 0.0041787648 -0.118764736 -0.17055227 0.15409686
0.14721067 -0.17833216 0.06257474 0.24771772 -0.14592618 0.049754977 0.033480063 0.0030581614
0.06585928 -0.12406016 -0.16889499 0.00478759 -0.16293101 0.06974671 0.06904698 -0.09396883
0.16842087 -0.18474253 -0.002324346 -0.0042803288 -0.00044927667 0.065016285 -0.052035734 0.09087821
0.025253104 0.11527585 0.11444787 0.038604848 0.08206271 -0.098088 -0.20553972 0.04603382
-0.13386567 0.01968661 -0.082259044 -0.045843758 0.13580592 -0.15029645 -0.12853059 -0.10921719
0.19515957 0.0287659 0.12047799 -0.15622789 -0.10819919 -0.1517504 -0.17851767 -0.04451763
00000000: 3018 53bc ca34 55be 1614 32be dd98 443d
00000010: 75e5 b3bd fe79 11be 289c 3abe 288a 20be
00000020: bac2 033e f4f5 75bd ab87 19be 992f 71bd
00000030: 0085 97bd 8bea e7bd 3fa1 573d a0a2 04be
00000040: b353 633d d5f2 ca3c a0d5 573c 3aad 37bc
00000050: 2750 263e 98d1 95bd d6dd a33d efe6 2fbe
00000060: c0e5 503e a8ba 4abd 3759 f83d 0ed9 13be
00000070: 38f6 643d d408 c7bd c219 f43d 74b1 06be
00000080: fa1b 86bd 3a1d 023e 8f5f fe3c b814 0ebe
00000090: 9d1c b63d d93b 34be 0b3a 2b3d d9e5 4ebd
000000a0: 409d 1cbe 04da 57bd a9f7 bf3d 5805 3c3d
000000b0: b820 ccbd fd63 f43d b19d 003e 608c 38bc
000000c0: 8958 1abe 7128 02be 4f2a f0bd 306c 103c
000000d0: 3ee1 04be 9910 0dbe c806 2abe de93 98bd
000000e0: 30d9 d23c fdd1 bbbd 8025 983c d4f7 0e3d
000000f0: 7435 79bd c35f dfbd 868f 42be 1453 a8bd
00000100: 5b74 e93d 9af1 c63d c95f b93d 2710 94bc
00000110: 1528 8d3c 6e7b 57be b438 1abe 55c1 3ebe
00000120: 3e32 04be 852d 01be e81c 68bd 07fa cc3d
00000130: c89c 30bd 0e28 90bd 1a5d 37be 267d a1bd
00000140: 0c90 44bd 75e1 03be 2654 25be e98d 38bd
00000150: 96be 9abd bd53 f9bc 9483 d13e 67d4 2e3e
00000160: eeb1 11be da87 99bb e65e b9bc 476c c73d
00000170: 4477 20be 6783 26be c8ea 923c dc57 2bbe
00000180: b9c6 cbbd 5083 05bd 1625 803d e09e ba3d
00000190: 008b 8f3c f564 4ebe 706e d5bd 0d44 96bd
000001a0: 283b 0abd 8e96 d3bd 0d0c d2bb 300f d2bc
000001b0: 3545 323d 0bed 6e3e f7bf 06be e01b 613c
000001c0: 184b 19be b2a8 39bd 7945 8a3d 77f3 6d3e
000001d0: d7a4 103e 11de eabd c660 99bd 0254 4b3d
000001e0: e671 023c 221f cbbc 8f71 383e e08c adbd
000001f0: 3eeb 95bd 718f dcbd 3eaf 953d 5dc2 6b3e
00000200: ba29 873d d494 0c3d 355a 4d3e 8c58 b9bd
00000210: 20af e13c c459 2fbd ef0f a53c ea78 85bd
00000220: c489 2cbe 7a26 6ebd c758 0abe 9539 c0bd
00000230: 732e f0bd ac95 ebbc 5d9e e53d fdbd 113e
00000240: 8040 52be bae1 0fbe ce5a cfbd cca2 e9bc
00000250: 2a8b c1bd 0b46 5c3d 2021 60bd bb1c 40be
00000260: 4b68 dabd 0410 c73d c41e 6ebd a2e1 0dbd
00000270: e940 c23d ef2c d63d dd62 913d e680 7f3d
00000280: 4a62 e03c 1857 a4bd 7e16 823d a577 e9bc
00000290: 4c0a 13be 2c54 ddbd 12a1 063e faa7 163e
000002a0: 33a3 17be 3415 1c3d 5ad9 f93d 5603 4a3d
000002b0: 481a c63d 355c b2bd 04c7 0cbe 5764 0abe
000002c0: 749b 03be 1440 423d 70a7 00be 50e4 403d
000002d0: 7bcf b43d 322a b6bd f9fd 9abd 823c 31be
000002e0: ed74 063d c039 2fbe 958a ae3d 0f00 06be
000002f0: 02ec d5bc 0858 abbc 5afe fe3d 7a23 97bd
00000300: d648 3fbd 983b 2bbd 2251 153e b5fa 053e
00000310: 560e fd3d e1d5 3dbe b8b6 d3bd e89f 32be
00000320: de43 a23d 762f d53d 98eb dcbc a2c1 d4bd
00000330: 05ee 883b ed3a f3bd 41a5 2ebe 91cb 1d3e
00000340: 65be 163e b59c 36be 2f27 803d b7a9 7d3e
00000350: ac6d 15be e0cb 4b3d 6422 093d 6f6b 483b
00000360: 3be1 863d 4113 febd cff2 2cbe 37e1 9c3b
00000370: 63d7 26be 5dd7 8e3d 8168 8d3d bb72 c0bd
00000380: 8576 2c3e 252d 3dbe 0e54 18bb 0042 8cbb
00000390: e58c ebb9 4227 853d 6c23 55bd 5b1e ba3d
000003a0: 99df ce3c bf15 ec3d a563 ea3d 1e20 1e3d
000003b0: 7e10 a83d 5de2 c8bd 0179 52be f58d 3c3d
000003c0: 1514 09be d045 a13c 6e77 a8bd aac6 3bbd
000003d0: b510 0b3e 50e7 19be 869d 03be 43ad dfbd
000003e0: e9d7 473e 77a6 eb3c 2abd f63d 34fa 1fbe
000003f0: 8997 ddbd 7564 1bbe 56cd 36be 1e58 36bd

fc2.weight f4 [300, 412]
0.040518403 0.024364077 -0.025675584 0.19710667 -0.023893837 -0.03797901 0.054334708 0.1751074
0.82607514 -0.0020145774 0.003682118 0.1600845 0.048415355 0.021716803 0.5334682 0.028683677
0.9128089 0.09252974 0.043488845 0.13644496 -0.41878387 0.03805296 0.16414931 -0.0435061
-0.046075072 -0.013637383 -0.13392021 0.027966887 0.21609646 0.030206986 -0.024490789 0.16048795
0.0032400452 -0.18322322 0.15336789 0.016901158 -0.049940486 -0.03505017 0.99452806 0.13039675
0.012433581 0.009668797 0.16402048 -0.03990703 0.24197216 1.0758717 0.2254757 -0.026048943
-0.0037353337 -0.2857913 0.008629434 0.038261987 0.17848267 0.0079114735 0.3161138 0.0010644346
-0.055457816 0.017265946 0.016917534 0.033288985 -0.050784674 0.21516044 0.044738136 0.033432752
0.19127789 -0.011884667 0.8894435 -1.6701107 0.2092917 0.3140921 -0.0069683567 -0.019445553
-0.017777305 0.3182163 0.76167727 0.5141696 0.4745423 0.23623228 0.016053468 0.044628933
0.05235403 0.051803146 -0.0015676655 0.46082932 -0.033443443 0.12139722 0.9166888 -0.026371375
0.011021987 0.3467514 0.23080654 0.2252103 0.009414405 0.04227808 -0.02823387 -0.040004387
0.021721356 0.042863674 0.06337468 0.07978593 0.0029854365 -0.024020474 -0.0060144328 0.11090977
-0.032176506 0.014160648 0.88797426 0.020438105 0.22592811 -0.8783383 0.01595223 0.0438627
0.016874865 0.29914773 0.29064256 0.22165269 0.047147278 0.21619242 0.02285181 0.1929991
0.9365835 -0.0013466268 0.86154395 0.106231555 0.11262324 0.021104697 0.25124374 3.8403416
0.24920093 -0.055007562 3.8663838 -0.048356023 -0.04983787 0.01856593 0.1379687 0.014484897
0.035599835 0.22921011 -0.017856877 -0.0010844991 0.09202904 0.14596358 0.9205484 0.22820693
0.033660904 0.03827335 -0.009076033 0.058036514 0.25412256 0.20358562 0.03454788 0.005181299
-0.024714142 0.15370187 0.0428735 0.48076457 0.46635947 0.14325032 -0.93392324 -0.002600005
0.06887541 -0.03249541 0.82770306 0.0055220127 -0.0034186468 0.26700842 0.08155897 0.8368368
0.013388351 0.020037055 0.013729788 0.11390912 1.1734865 0.14722586 -0.015306972 0.010626819
-0.027622156 -0.034611985 -0.01663918 0.26139396 0.60201484 -0.0207883 0.09334362 0.03663835
0.07393814 0.055523694 0.2263584 0.16725716 -2.6311243 0.036963493 0.23847795 -0.03797689
0.3064264 0.04115397 -0.48014677 0.14731798 0.16175108 0.03623818 -0.0046024397 0.01012931
0.5119744 0.85141724 0.04748589 0.03602702 0.17299157 -0.047478788 0.001196485 0.92313176
-0.3757262 -0.032826558 0.27425402 0.7395336 0.17752519 0.12522328 -0.021980435 0.17165767
0.15846947 0.055187356 -0.010940261 0.23725426 0.035428002 0.12705278 -0.61714375 -0.026703425
0.93864 0.05457744 -0.32953468 0.045772053 0.47233695 0.13032608 -0.02436024 0.14523515
0.87192845 -0.038781226 0.25902292 0.12423129 -0.023302462 -0.016805355 0.020942926 -0.045906704
-0.009056721 0.0028719455 -0.008175265 0.052815065 0.4974395 0.0451798 -0.021363672 -0.053699613
-0.533496 0.17123744 0.047427766 -0.02056618 0.15390289 0.026634142 -0.01839545 0.08021521
00000000: a0f6 253d 2c97 c73c 9a55 d2bc 55d6 493e
00000010: 02bd c3bc e18f 1bbd 128e 5e3d 5b4f 333e
00000020: a979 533f 0007 04bb b04f 713b 31ed 233e
00000030: 2e4f 463d 70e7 b13c 5f91 083f 08fa ea3c
00000040: d8ad 693f 3b80 bd3d 5c21 323d 3ab8 0b3e
00000050: d76a d6be 6cdd 1b3d c216 283e 7433 32bd
00000060: 37b9 3cbd 546f 5fbc 6122 09be d01a e53c
00000070: 6448 5d3e a474 f73c e8a0 c8bc f456 243e
00000080: f056 543b de9e 3bbe 790c 1d3e 4c74 8a3c
00000090: 658e 4cbd c490 0fbd 6499 7e3f ba86 053e
000000a0: 38b6 4b3c e069 1e3c fcf4 273e 8e75 23bd
000000b0: 8dc7 773e 2ab6 893f 1ae3 663e 9864 d5bc
000000c0: 80cc 74bb 3d53 92be 7862 0d3c 9ab8 1c3d
000000d0: 29c4 363e 209f 013c abd9 a13e 8084 8b3a
000000e0: bc27 63bd 5071 8d3c a496 8a3c 085a 083d
000000f0: 9703 50bd 0553 5c3e 563f 373d c8f0 083d
00000100: 5ade 433e e8b7 42bc 92b2 633f 30c6 d5bf
00000110: 9050 563e aed0 a03e d056 e4bb 484c 9fbc
00000120: b6a1 91bc 3fed a23e 48fd 423f 9ea0 033f
00000130: 35f7 f23e e0e6 713e 9082 833c d4cc 363d
00000140: 2e71 563d 892f 543d 207a cdba d2f1 eb3e
00000150: fefb 08bd 1b9f f83d 1eac 6a3f c808 d8bc
00000160: 9095 343c 6689 b13e 8d58 6c3e 879d 663e
00000170: e03e 1a3c c82b 2d3d b84a e7bc a4db 23bd
00000180: fcf0 b13c d291 2f3d 96ca 813d ce66 a33d
00000190: 50a7 433b 96c6 c4bc b814 c5bb a924 e33d
000001a0: 83cb 03bd 1002 683c 4852 633f d06d a73c
000001b0: b359 673e c7da 60bf 40ae 823c 60a9 333d
000001c0: 283d 8a3c e429 993e 1acf 943e ecf8 623e
000001d0: 811d 413d 8c61 5d3e b833 bb3c 8ea1 453e
000001e0: f0c3 6f3f 4c81 b0ba 258e 5c3f ee8f d93d
000001f0: 03a7 e63d c2e3 ac3c 05a3 803e 28c8 7540
00000200: 872e 7f3e 9c4f 61bd d572 7740 f710 46bd
00000210: cb22 4cbd 9417 983c ab47 0d3e 1052 6d3c
00000220: 22d1 113d 0eb6 6a3e 9648 92bc c025 8eba
00000230: b979 bc3d 7a77 153e 0fa9 6b3f 14af 693e
00000240: 04e0 093d 84c4 1c3d a4b3 14bc b2b7 6d3d
00000250: 5a1c 823e c078 503e 1482 0d3d e3c7 a93b
00000260: 5075 cabc 0664 1d3e 209c 2f3d c626 f63e
00000270: abc6 ee3e 36b0 123e 9815 6fbf d864 2abb
00000280: 8d0e 8d3d e819 05bd 59e4 533f 00f2 b43b
00000290: 600b 60bb 54b5 883e 6408 a73d f03a 563f
000002a0: d05a 5b3c c024 a43c e8f2 603c 2f49 e93d
000002b0: ce34 963f 60c2 163e 18ca 7abc 1c1c 2e3c
000002c0: dc47 e2bc 4cc5 0dbd e44e 88bc 6ed5 853e
000002d0: a51d 1a3f 3a4c aabc f12a bf3d 1812 163d
000002e0: e16c 973d d06c 633d 7fca 673e 7645 2b3e
000002f0: 5764 28c0 0867 173d 9033 743e a88d 1bbd
00000300: ece3 9c3e 1191 283d ccd5 f5be 86da 163e
00000310: 13a2 253e 7c6e 143d 10d0 96bb 68f5 253c
00000320: c110 033f 7bf6 593f 9180 423d 1291 133d
00000330: b424 313e 1e79 42bd 60d3 9c3a 5d52 6c3f
00000340: 2f5f c0be 2475 06bd 066b 8c3e 1352 3d3f
00000350: 2ac9 353e 883a 003e 5010 b4bc 07c7 2f3e
00000360: d245 223e 230c 623d c83e 33bc c8f2 723e
00000370: f41c 113d 201a 023e 22fd 1dbf 24c1 dabc
00000380: b64a 703f 988c 5f3d c5b8 a8be 7a7b 3b3d
00000390: 26d6 f13e 3374 053e 208f c7bc 86b8 143e
000003a0: b436 5f3f 10d9 1ebd a79e 843e f96c fe3d
000003b0: cee4 bebc 62ab 89bc 8090 ab3c ab08 3cbd
000003c0: a462 14bc 4037 3c3b 8cf1 05bc 9c54 583d
000003d0: 64b0 fe3e 740e 393d de02 afbc 20f4 5bbd
000003e0: 3293 08bf de58 2f3e 9e43 423d 687a a8bc
000003f0: b898 1d3e d82f da3c 0eb2 96bc df47 a43d

fc2.bias f4 [300]
-0.44013324 -0.7913759 -1.1595464 -0.95553714 -0.43609974 -0.95256996 0.736916 -1.104299
0.6568615 -0.23197287 -0.905535 0.08593869 -0.39944142 1.3562864 -1.2347442 -0.849697
-0.47697017 -1.0788563 -0.30718085 -0.9809012 -0.8482176 -1.1158699 1.4546405 -0.73818874
-0.38572115 -0.8544663 -0.82864386 -0.39115274 -0.38663143 0.70776105 1.219097 -0.9628587
0.18421267 -0.817353 1.5081282 -0.5033696 -0.21495959 -1.0151056 -0.41582716 -0.90727574
1.6094083 -1.1306653 -0.100949205 1.1025288 -0.60396683 -0.36935592 -0.93542594 -0.67317086
-1.0601555 -0.28622958 -0.17809685 -0.4060786 -0.20764033 -0.23327161 1.6255056 -0.2579753
-1.3343091 -0.95797694 0.29799154 0.07515381 -1.1190097 -0.8288836 -1.0938635 -0.9723415
-0.46521524 -0.8572297 -0.61435294 -1.9863007 -0.6682391 1.5483406 -1.0924969 -0.95052075
-0.11132698 -0.10865496 -1.013161 -0.786144 -1.0338517 -0.97547054 -1.011672 -0.95555836
-0.588791 -0.6281161 -0.3898162 -0.82130975 0.26824853 -0.79783475 0.518817 -0.14822164
0.30483925 -0.101038605 -1.1680263 -0.833204 -0.23064199 -0.35405463 -1.1440636 -1.0283034
-0.3417122 -1.1322453 -2.1433687 -0.8525431 -0.15748355 -1.1549486 -0.53758365 -1.0114018
-1.1758204 -0.7163216 -1.1603711 -0.86453265 -0.18882321 -0.97543895 -0.8232641 1.140006
1.5513358 -0.9260275 -0.26363724 0.28327253 -0.06993308 -0.9613792 -0.8049402 -0.94075006
-0.40336198 0.7282728 1.765789 -0.6288356 -0.9896384 0.26317433 -0.8381797 -0.122357115
-0.41529244 -0.12311256 -0.7609835 -1.2813138 -0.72474164 -1.2285966 -0.9765161 1.8318818
1.1763372 -0.8772754 -1.4038072 -0.41550383 -0.092240945 -0.55574024 -0.13123043 0.4584339
-1.2600466 -0.389491 -0.6565082 0.759884 0.8345867 1.7521061 1.7061727 -0.9386648
-0.19605179 -2.0980563 -1.3250911 -0.8677115 -0.106091395 -0.9190051 -0.19129759 -0.17336826
-0.9964099 -1.0643575 -0.47524923 -0.13576567 0.69131815 -0.85099834 -0.13146171 1.4795543
-1.0285821 -1.1524798 0.55873615 -0.78154075 -1.1284558 0.8321869 -1.0063612 -0.82683605
0.6979486 -0.83573127 -1.1554931 -0.7562084 -0.8157014 -0.28898787 0.715864 -0.0779598
-1.0304469 -0.89355105 -0.80946916 -1.0657986 -1.0977199 -0.78131425 -1.1091107 -0.1820375
-0.9204584 -0.047046866 -0.086613216 0.7018075 -1.0851141 1.6150544 -1.101106 -0.9215888
-1.1314859 -1.0300839 -0.112238824 -1.1525007 -1.0918533 -1.2491748 -0.6126122 -0.87681025
0.78081816 -0.64548326 1.3277923 -0.9291353 -0.044656496 -1.1285104 1.5644125 -0.34304672
-0.6215996 -0.07385007 -0.6021761 -0.93126404 0.78545326 -0.39245528 -0.85728014 1.1712073
1.6787795 1.245077 2.9561665 -0.27202383 -0.07615234 -0.8935956 -0.582507 -0.8156723
-0.87599826 -0.3244414 -0.7520816 -0.18998607 -0.813873 0.73625875 -0.73680705 -0.3212113
-1.0727593 2.5285666 0.7056826 -0.40468583 -1.160856 -1.1141555 -0.35965666 -0.74461806
-0.8911735 -1.0773093 -0.5408384 1.6546465 -0.47852853 -0.80454916 -0.66953206 -1.1045345
00000000: 2559 e1be 9c97 4abf 046c 94bf 159e 74bf
00000010: 7748 dfbe a0db 73bf 87a6 3c3f ab59 8dbf
00000020: 1328 283f 4c8a 6dbe 24d1 67bf a000 b03d
00000030: 9683 ccbe cb9a ad3f 190c 9ebf be85 59bf
00000040: 6f35 f4be f717 8abf cf46 9dbe 571c 7bbf
00000050: ca24 59bf d3d4 8ebf a931 ba3f f0f9 3cbf
00000060: 3e7d c5be 4ebe 5abf 0122 54bf 2c45 c8be
00000070: 8ef4 c5be d42f 353f 5f0b 9c3f e87d 76bf
00000080: 3fa2 3c3e 0c3e 51bf 580a c13f d5dc 00bf
00000090: 5e1e 5cbe fbee 81bf 4ce7 d4be 3943 68bf
000000a0: 1701 ce3f a4b9 90bf 75be cebd aa1f 8d3f
000000b0: 929d 1abf 381c bdbe 1378 6fbf ed54 2cbf
000000c0: 2db3 87bf af8c 92be 055f 36be 89e9 cfbe
000000d0: ab9f 54be c1de 6ebe 9110 d03f 5715 84be
000000e0: a4ca aabf fa3d 75bf 5992 983e 3eea 993d
000000f0: b63b 8fbf b731 54bf b803 8cbf 5feb 78bf
00000100: b130 eebe 6873 5bbf 3c46 1dbf 1a3f febf
00000110: b811 2bbf 0630 c63f f0d6 8bbf 5455 73bf
00000120: 66ff e3bd 7e86 debd 42af 81bf bc40 49bf
00000130: 4155 84bf 70b8 79bf 787e 81bf 799f 74bf
00000140: 02bb 16bf 37cc 20bf fd95 c7be 5b41 52bf
00000150: df57 893e e63e 4cbf 31d1 043f 6ac7 17be
00000160: e413 9c3e 54ed cebd e381 95bf db4c 55bf
00000170: 6a2d 6cbe a646 b5be ad70 92bf 729f 83bf
00000180: e7f4 aebe 6aed 90bf f42c 09c0 4440 5abf
00000190: 5e43 21be 5bd5 93bf 159f 09bf 9d75 81bf
000001a0: 4881 96bf da60 37bf 0a87 94bf 0352 5dbf
000001b0: df5a 41be 5eb6 79bf 70c1 52bf b7eb 913f
000001c0: 2c92 c63f 2310 6dbf 76fb 86be 1909 913e
000001d0: 1339 8fbd f21c 76bf 9010 4ebf ffd4 70bf
000001e0: 7685 cebe 1670 3a3f 6005 e23f 5ffb 20bf
000001f0: f158 7dbf c9be 863e f292 56bf 5e96 fabd
00000200: 36a1 d4be 7022 fcbd d1cf 42bf 1702 a4bf
00000210: ab88 39bf a742 9dbf f6fc 79bf 1a7b ea3f
00000220: 3892 963f 1f95 60bf f4af b3bf ebbc d4be
00000230: d2e8 bcbd fe44 0ebf 4561 06be d9b7 ea3e
00000240: 3549 a1bf 5d6b c7be ec10 28bf c287 423f
00000250: 79a7 553f 0345 e03f de63 da3f 564c 70bf
00000260: cdc1 48be 8e46 06c0 969c a9bf 5722 5ebf
00000270: 7246 d9bd eb43 6bbf 84e3 43be 7387 31be
00000280: b814 7fbf de3c 88bf de53 f3be 2806 0bbe
00000290: 3afa 303f 07db 59bf e69d 06be 0962 bd3f
000002a0: 94a8 83bf 7584 93bf 5509 0f3f 0e13 48bf
000002b0: 3d71 90bf 330a 553f 72d0 80bf 87ab 53bf
000002c0: c2ac 323f 7cf2 55bf 33e7 93bf e096 41bf
000002d0: cfd1 50bf 38f6 93be dd42 373f 63a9 9fbd
000002e0: afe5 83bf c3bf 64bf 5f39 4fbf 176c 88bf
000002f0: 1682 8cbf 3604 48bf 57f7 8dbf 0a68 3abe
00000300: 29a3 6bbf 37b4 40bd 4562 b1bd a8a9 333f
00000310: 05e5 8abf 1aba ce3f 0bf1 8cbf 3eed 6bbf
00000320: 88d4 90bf cad9 83bf 78dd e5bd 2585 93bf
00000330: d9c1 8bbf f6e4 9fbf 27d4 1cbf a376 60bf
00000340: b3e3 473f 643e 25bf 19f5 a93f d0db 6dbf
00000350: bbe9 36bd 0773 90bf ab3e c83f d2a3 afbe
00000360: 2721 1fbf b53e 97bd 3628 1abf 5267 6ebf
00000370: 7713 493f e6ef c8be b676 5bbf 1fea 953f
00000380: 3fe2 d63f af5e 9f3f d531 3d40 b546 8bbe
00000390: c2f5 9bbd aec2 64bf 2e1f 15bf e6cf 50bf
000003a0: 6c41 60bf 2f1d a6be 6b88 40bf b58b 42be
000003b0: fb59 50bf 747b 3c3f 639f 3cbf cf75 a4be
000003c0: 2d50 89bf 09d4 2140 9da7 343f fb32 cfbe
000003d0: ee96 94bf a69c 8ebf eb24 b8be 4a9f 3ebf
000003e0: f223 64bf 45e5 89bf 6374 0abf 75cb d33f
000003f0: b101 f5be eff6 4dbf 7466 2bbf 6361 8dbf

fc3.weight f4 [1, 300]
1.8189232 1.2943625 2.298751 -0.3055796 -1.7510681 2.316539 0.13853921 2.4498339
0.4973956 1.0676973 1.6195663 2.1291268 0.77875435 0.30184498 2.022194 3.7038789
0.5224628 2.1708586 -1.579399 2.984238 3.082877 1.9224415 0.36813873 1.0751315
1.7443584 -5.2857985 3.3816729 3.8023083 1.6915324 0.26053652 0.4301394 2.3794692
0.91074115 2.08055 0.6166823 1.3159033 -1.337936 2.0456073 1.5934068 2.4124658
0.90899986 1.3190535 -0.8373203 0.43324122 0.2545708 -2.123627 -5.912913 -2.6239095
1.5038245 0.17004335 -1.9163059 -2.5997608 -2.18842 0.5006363 1.0091355 -2.6156926
2.0212245 1.3833807 0.5816799 0.38053453 2.1274934 2.22905 2.4118843 1.0998703
1.2248236 2.6178806 -2.1775577 -2.2684793 -0.47778314 0.6580864 1.211597 2.3120208
-1.9519507 -1.6364704 0.8998036 -4.677351 1.6214845 2.4183173 1.5528134 2.5042114
1.293018 1.3195333 0.29497615 -4.69602 0.083931215 3.3518724 0.43627778 -2.0721245
1.2223923 0.016848493 1.6127092 -4.6656523 -2.3574085 0.7165336 1.3373857 2.6913462
-2.9969537 2.0105138 -1.5762529 2.0365973 0.4907274 1.803969 -2.8344612 1.2531706
-2.836959 1.8949381 -1.446388 3.878256 0.7865081 -5.7117863 -4.526753 0.8257757
0.7480054 2.0349596 -2.5070906 0.24589618 0.005133486 2.4313323 -0.37269324 2.4473484
1.1275895 0.17999718 1.2738315 -3.5225909 2.3595514 0.16560377 -0.59417975 -2.480003
1.5833334 -1.6641306 3.4707804 2.4460142 -4.1585097 2.4136846 -5.20732 1.4613968
0.33008236 -2.3436203 1.5612644 1.3684945 0.771546 -2.327781 -2.0024183 1.2475317
1.5920138 1.4986585 -1.3990427 0.19067687 3.3397315 2.2060735 1.0045096 1.0630425
-2.3065815 -1.0530412 2.6561656 -3.9841013 0.02846947 2.043265 -1.630245 -1.690689
2.3905773 2.1983266 0.6411873 0.5041328 0.16024822 2.242458 -2.0589705 0.9480369
2.7663922 2.1878304 1.2953482 2.0880585 2.2116082 2.5461168 1.9725785 2.4951696
0.14010257 2.884937 2.3841798 -5.2572355 -5.534992 -2.5580618 0.10550331 0.99214417
1.6852134 1.5953218 3.9320161 1.4180427 1.6908873 2.391292 1.5300182 1.2038999
2.0745866 -2.0633903 0.006120046 0.2975935 1.7100099 1.0979117 2.5315692 2.10754
1.5681123 2.494372 -0.4010879 1.6641166 1.4042265 2.3593166 1.1606154 1.0411223
0.13123916 1.3559592 0.33577898 2.2136655 1.568323 1.9476182 0.5823454 -2.6619968
-2.9388576 0.013440625 -0.9215878 2.191101 0.22668481 0.3591141 2.8939173 0.35847637
0.95539194 0.28154558 1.8952277 -2.5481462 -1.6293691 1.7213289 -3.08002 2.5335715
-5.1831756 1.0334638 -4.276808 -9.766927 3.6062074 0.20343472 -1.0238119 1.2441665
1.9478981 2.307465 0.16938005 0.7748473 2.5366514 -7.0949125 2.3222919 1.1147234
2.2989163 1.7155135 3.2110188 0.8975285 0.89649224 2.2340362 -2.5659661 2.0270052
00000000: 7ad2 e83f acad a53f bd1e 1340 ee74 9cbe
00000010: 0023 e0bf 2d42 1440 39dd 0d3e 14ca 1c40
00000020: a3aa fe3e 4eaa 883f f34d cf3f 9d43 0840
00000030: 725c 473f 6d8b 9a3e a06b 0140 5a0c 6d40
00000040: 1fc0 053f 59ef 0a40 bf29 cabf c1fd 3e40
00000050: db4d 4540 9012 f63f ae7c bc3e e99d 893f
00000060: 2347 df3f 4325 a9c0 546d 5840 0559 7340
00000070: 2284 d83f 0b65 853e 3b3b dc3e 3949 1840
00000080: 5526 693f bb27 0540 e4de 1d3f 856f a83f
00000090: 7d41 abbf 3beb 0240 c1f4 cb3f d765 1a40
000000a0: 37b4 683f bfd6 a83f a05a 56bf cbd1 dd3e
000000b0: 1b57 823e 81e9 07c0 9536 bdc0 22ee 27c0
000000c0: 527d c03f d81f 2e3e 8349 f5bf 7b62 26c0
000000d0: 130f 0cc0 b329 003f 5a2b 813f 8267 27c0
000000e0: be5b 0140 9e12 b13f f9e8 143f 6cd5 c23e
000000f0: da28 0840 c1a8 0e40 505c 1a40 8dc8 8c3f
00000100: 05c7 9c3f 5b8b 2740 1b5d 0bc0 c42e 11c0
00000110: fe9f f4be 5a78 283f 9c15 9b3f 26f8 1340
00000120: 85d9 f9bf dd77 d1bf 8759 663f dcac 95c0
00000130: ce8c cf3f b6c5 1a40 97c2 c63f 0045 2040
00000140: 9d81 a53f 78e6 a83f 1d07 973e cc45 96c0
00000150: 21e4 ab3d 1485 5640 cd5f df3e b09d 04c0
00000160: 5a77 9c3f da05 8a3c 416d ce3f 064d 95c0
00000170: c8df 16c0 bf6e 373f 742f ab3f 043f 2c40
00000180: 17ce 3fc0 42ac 0040 a8c2 c9bf 9c57 0240
00000190: 9f40 fb3e 75e8 e63f d067 35c0 e567 a03f
000001a0: bc90 35c0 558d f23f 3e23 b9bf 5935 7840
000001b0: 9858 493f f4c6 b6c0 29db 90c0 0966 533f
000001c0: 487d 3f3f c73c 0240 2c74 20c0 35cc 7b3e
000001d0: cd36 a83b f39a 1b40 a6d1 bebe 5ba1 1c40
000001e0: da54 903f 2e51 383e e90c a33f 2172 61c0
000001f0: e402 1740 0994 293e 2a1c 18bf 5fb8 1ec0
00000200: abaa ca3f 3b02 d5bf 4421 5e40 7f8b 1c40
00000210: 8312 85c0 cf79 1a40 5ea2 a6c0 0d0f bb3f
00000220: 8e00 a93e e0fd 15c0 83d7 c73f d42a af3f
00000230: 0a84 453f 5dfa 14c0 9f27 00c0 1eaf 9f3f
00000240: 1cc7 cb3f 0bd4 bf3f d513 b3bf cc40 433e
00000250: 29be 5540 4f30 0d40 c593 803f c711 883f
00000260: 089f 13c0 0eca 86bf 9efe 2940 84fb 7ec0
00000270: ce38 e93c dbc4 0240 deab d0bf 7f68 d8bf
00000280: 38ff 1840 62b1 0c40 da24 243f d90e 013f
00000290: 1c18 243e 6f84 0f40 2cc6 03c0 8cb2 723f
000002a0: 920c 3140 6a05 0c40 f8cd a53f c0a2 0540
000002b0: fd8a 0d40 94f3 2240 747d fc3f dcb0 1f40
000002c0: 0c77 0f3e cfa2 3840 6796 1840 463b a8c0
000002d0: a81e b1c0 49b7 23c0 1f12 d83d 29fd 7d3f
000002e0: 13b5 d73f 8133 cc3f 27a6 7b40 6c82 b53f
000002f0: ff6e d83f ee0a 1940 a3d7 c33f 6419 9a3f
00000300: 07c6 0440 960e 04c0 ab8a c83b 2d5e 983e
00000310: 9be1 da3f 5f88 8c3f 3b05 2240 efe1 0640
00000320: e7b7 c83f caa3 1f40 655b cdbe c601 d53f
00000330: b2bd b33f 0bff 1640 0c8f 943f 7f43 853f
00000340: 8f63 063e 1290 ad3f 39eb ab3e b2ac 0d40
00000350: cfbe c83f 8e4b f93f 9714 153f 285e 2ac0
00000360: 3e16 3cc0 1136 5c3c 2eed 6bbf 003b 0c40
00000370: 1020 683e cedd b73e f135 3940 378a b73e
00000380: 9194 743f be26 903e d296 f23f d414 23c0
00000390: 2b8f d0bf 8154 dc3f 0c1f 45c0 0926 2240
000003a0: 93dc a5c0 8b48 843f 9cdb 88c0 5545 1cc1
000003b0: 1acc 6640 3151 503e 450c 83bf d940 9f3f
000003c0: ba54 f93f 82ad 1340 f771 2d3e 655c 463f
000003d0: 7f58 2240 8609 e3c0 6ea0 1440 42af 8e3f
000003e0: 7221 1340 f295 db3f 5581 4d40 6ec4 653f
000003f0: 8480 653f 73fa 0e40 ca38 24c0 74ba 0140
